models/lev_to_lev_cat012345_epoch16.pt (torch, 337329 bytes, 43 tensors)

weight f4 [224, 13]
0	0x3e186d6e	0.14885494
1	0x3e9a0be7	0.30087206
2	0xbd292582	-0.041295536
3	0x3f5a4cd9	0.8527351
4	0xbe9afa7e	-0.30269235
5	0x3d9a772a	0.0754226
6	0xbdb512f9	-0.08841509
7	0x3d143e1d	0.03619205
8	0x3df44bde	0.11928533
9	0xbe5bee84	-0.21477705
10	0x3f02447f	0.50885767
11	0x3ea6107e	0.32434458
12	0xbc909bb8	-0.017652377
13	0x3e168ca2	0.14702085
14	0x3e743904	0.23849875
15	0xbd015bdd	-0.03158175
16	0x3f6a2476	0.91461885
17	0xbe81c6c1	-0.2534695
18	0xbdf6092a	-0.12013467
19	0x3d9756a6	0.07389574
20	0xbd329b06	-0.043604873
21	0xbdcd545d	-0.10025857
22	0xbdc2f679	-0.09519667
23	0x3ed5d188	0.41761422
24	0xbe5c85b3	-0.21535377
25	0xbd64ff36	-0.05590745
26	0x3b9230c7	0.004461381
27	0xbdbac717	-0.091200046
28	0x3c89150f	0.016733674
29	0xbfa9570d	-1.3229691
30	0x3f536b91	0.8258601
31	0xbd57dde0	-0.05270183
32	0xbd04700a	-0.03233341
33	0x3c123ac0	0.00892514
34	0xbd9dc1ab	-0.07702955
35	0x3dac10ab	0.08401617
36	0x3c8d9367	0.017282201
37	0x3e25b3aa	0.16181818
38	0xbc9c923d	-0.0191127
39	0xbe52ad53	-0.2057393
40	0x3d945eb3	0.07244625
41	0xbb4dbf0a	-0.0031394386
42	0x3e90c7c4	0.2827741
43	0x3ec8105c	0.3907498
44	0xbc8a052d	-0.016848171
45	0x3cebdfdf	0.028793273
46	0x3e0300d4	0.12793285
47	0x3d4ef15a	0.05052314
48	0x3ca3cff6	0.019996624
49	0xbe4b4c5a	-0.19853345
50	0xbf63dffd	-0.89013654
51	0xbc381caf	-0.011237307
52	0xbead3529	-0.3382962
53	0x3e3d77e8	0.18502772
54	0x3cc1bb8a	0.023648996
55	0x3e4c659a	0.19960633
56	0xbd4b7578	-0.049672574
57	0xbd23f617	-0.04002961
58	0x3e56056b	0.20900504
59	0xbe1aebb0	-0.1512897
60	0xbcb63a51	-0.022244604
61	0xbe193df6	-0.14965042
62	0x3e033b1b	0.12815516
63	0xbde0c5af	-0.10975205
64	0x3db484f3	0.088144206
65	0xbe0d7866	-0.1381546
66	0x3d806e0d	0.062709905
67	0xbd5548d5	-0.05207141
68	0x3d39ac66	0.045330428
69	0xbefc0509	-0.49222592
70	0x3e0dcef3	0.13848476
71	0x3e3325a0	0.17494822
72	0x3e230214	0.15918761
73	0xbde81db6	-0.11333792
74	0xbf03d8d3	-0.5150272
75	0xbea2ddbb	-0.31809792
76	0xbd11a3e5	-0.035556693
77	0x3ba76d6b	0.005109479
78	0x3d039035	0.03211995
79	0x3ee3fef0	0.4453044
80	0xbd26db5f	-0.040736552
81	0xbf2ab7c9	-0.66686684
82	0x3e7067ef	0.23477148
83	0x3dd5c38b	0.104376875
84	0x3e0a3018	0.13494909
85	0x3d761f52	0.060088463
86	0x3dc0d44a	0.09415491
87	0xbe1461bf	-0.14490412
88	0xbe923a46	-0.28560084
89	0x3ea45b08	0.321007
90	0x3dcc38a7	0.09971743
91	0x3db9a182	0.09064008
92	0x3eb92727	0.36162683
93	0x3ceb265d	0.028704816
94	0xbdb48a91	-0.08815492
95	0xbe9775d7	-0.29582092
96	0x3e62cb96	0.22147974
97	0x3e06f19e	0.13178107
98	0xbeab675b	-0.3347729
99	0xbe865bf6	-0.26242036
100	0xbe1f11e0	-0.15534163
101	0x3e1acd23	0.15117316
102	0x3dfa33f7	0.12216943
103	0xbe9bf754	-0.30462134
104	0xbc1efd62	-0.009703966
105	0xbe4df03d	-0.20111175
106	0xbe184a0f	-0.14872001
107	0xbdb4cea9	-0.0882848
108	0xbef05846	-0.46942347
109	0xbd92d298	-0.07169074
110	0x3e3c0313	0.18360548
111	0x3d8036be	0.06260441
112	0xbd1854d2	-0.037190266
113	0xbeb8467f	-0.35991284
114	0xbad4baa5	-0.0016229941
115	0xbe25a42e	-0.16175911
116	0xbe8e39c2	-0.2777844
117	0xbee6e334	-0.45095217
118	0xbeaa73e8	-0.33291554
119	0xbd7dc004	-0.0619507
120	0x3e1af11b	0.15131037
121	0xbdb59405	-0.08866123
122	0xbe77e8b8	-0.24209869
123	0xbdb2f26b	-0.08737644
124	0xbe3f593e	-0.18686387
125	0xbe516eff	-0.20452498
126	0xbe7e7aaf	-0.24851488
127	0xbe75f1c9	-0.24018015
128	0x3edf991f	0.4367151
129	0xbe2f4330	-0.17115474
130	0x3efebf6e	0.49755424
131	0xbe30c8f3	-0.17264156
132	0xbe2f3245	-0.1710902
133	0x3e91de69	0.28489998
134	0xbec36694	-0.38164198
135	0xbcf7c0cb	-0.030243298
136	0xbdfb9cf4	-0.12285796
137	0xbe1b3b6a	-0.15159383
138	0x3d9ebef6	0.07751267
139	0xbe890527	-0.26761743
140	0x3eb8db0b	0.36104617
141	0xbe8825f7	-0.26591465
142	0xbd1478dc	-0.036248073
143	0xbe53035e	-0.20606753
144	0xbde04bd9	-0.10951967
145	0xbcdf0193	-0.02722243
146	0x3d08aa81	0.03336573
147	0x3e02ac2b	0.1276099
148	0x3ce6b7df	0.028163848
149	0xbded7c66	-0.11595993
150	0x3d17df12	0.03707797
151	0x3d982e91	0.07430757
152	0x3c98a389	0.018632667
153	0xbe239e8d	-0.15978451
154	0x3f7e24b9	0.99274784
155	0xbd3f1baf	-0.04665726
156	0x3ed5f496	0.41788167
157	0x3e074b3f	0.13212298
158	0x3c264351	0.010147885
159	0xbe267ebe	-0.16259286
160	0x3e8b8d7c	0.27256382
161	0x3c341f91	0.010993854
162	0x3d3ebecd	0.04656868
163	0xbf3bc9cf	-0.7335481
164	0x3ddb4f8e	0.10708533
165	0x3e25cda6	0.1619173
166	0xbe9b5ae6	-0.30342788
167	0x3e99f6e6	0.3007118
168	0x3bf8b376	0.007589753
169	0xbe695fba	-0.22790423
170	0xbdc36e11	-0.09542478
171	0xbcf2cd20	-0.029638827
172	0x3eb35803	0.35028085
173	0xbe9b92f3	-0.3038555
174	0xbded661f	-0.11591744
175	0xbd16b971	-0.036797944
176	0xbe8440ad	-0.25830594
177	0x3df4211a	0.11920376
178	0x3f00d7df	0.50329393
179	0xbeb2f0d2	-0.34949356
180	0x3d483e61	0.048887614
181	0x3e536493	0.20643835
182	0x3e822778	0.25420737
183	0xbe965cf7	-0.29367802
184	0x3d17f35c	0.03709732
185	0x3ec02b8d	0.37533227
186	0x3dcce0cc	0.10003814
187	0xbc6d00c6	-0.014465516
188	0xbcf40217	-0.029786153
189	0x3d3241b5	0.043519694
190	0xbd17760e	-0.03697782
191	0xbdba0bae	-0.09084259
192	0x3e2e7431	0.17036511
193	0x3f4c9e5a	0.79929125
194	0xbc06cd09	-0.008227595
195	0x3da5dad0	0.08098376
196	0xbda1d9f0	-0.079028964
197	0xbce8a2fd	-0.028398031
198	0x3ea889d1	0.32917646
199	0xbdd09d0c	-0.10186204
200	0xbd75e1ae	-0.060029678
201	0xbdf38e11	-0.118923314
202	0x3ded0c24	0.11574581
203	0x3ccfd073	0.025367951
204	0xbc4bb9de	-0.012434451
205	0xbcdd0eec	-0.026984654
206	0x3e486fbf	0.19573878
207	0xbf94f647	-1.1637658
208	0xbdcb3e7a	-0.09924026
209	0xbcb35349	-0.0218903
210	0x3d6e004b	0.05810575
211	0x3eee8e9f	0.46593186
212	0xbf54d093	-0.8313076
213	0xbd0e16c3	-0.034689676
214	0xbe0e43fa	-0.13893119
215	0x3e489275	0.19587119
216	0xbda544aa	-0.08069737
217	0xbdc51c46	-0.09624533
218	0x3e51b93f	0.20480822
219	0xbe414ef0	-0.18877769
220	0xbe380c35	-0.17973407
221	0x3ebbc2db	0.366721
222	0x3d0a6dff	0.033796307
223	0xbd098d26	-0.033581875
224	0xbe87d118	-0.26526713
225	0x3defa6ac	0.11701712
226	0x3e3ee1b2	0.18640783
227	0x3e47049f	0.19435357
228	0xbdccdd78	-0.10003179
229	0xbe1d61fd	-0.15369411
230	0xbebaf7ef	-0.36517283
231	0x3e51678a	0.20449653
232	0x3e933289	0.28749493
233	0x3db74d5e	0.089503035
234	0x3c802e70	0.015647143
235	0x3d6111e2	0.054948695
236	0xbd8b2c7a	-0.067955926
237	0xbe1f09f2	-0.15531138
238	0xbf395759	-0.72398907
239	0xbd98e15e	-0.074648604
240	0x3d8c995c	0.068651885
241	0xbe0e6e52	-0.13909271
242	0xbd26c9e7	-0.040719893
243	0xbd0ed9ac	-0.034875557
244	0x3ba6aede	0.0050867638
245	0x3bf4e06a	0.0074730413
246	0xbd990e91	-0.074734814
247	0x3e00c41f	0.12574814
248	0xbdf9c015	-0.1219484
249	0x3e040cf2	0.12895563
250	0x3eabd7b4	0.33563006
251	0xbf3574f2	-0.7088157
252	0xbe4d522e	-0.2005088
253	0xbe19eef8	-0.15032566
254	0xbcb66ab8	-0.022267684
255	0xbe9716c9	-0.2950957

bias f4 [224]
0	0xbe17d0a6	-0.14825687
1	0xbef72cf8	-0.48276496
2	0xbdf218e1	-0.118211515
3	0xbef011b4	-0.46888506
4	0xbea8fe38	-0.33006454
5	0x3ee1a43f	0.44070622
6	0xbec426e7	-0.3831093
7	0xbebef3b5	-0.3729531
8	0x3e2d1487	0.16902362
9	0x3eff4831	0.49859765
10	0xbd495500	-0.049153328
11	0xbf1c5b4b	-0.610768
12	0x3e804a2c	0.2505659
13	0x3e9ef013	0.31042537
14	0xbef939eb	-0.48677
15	0xbee04fe2	-0.43810946
16	0x3e2d9515	0.16951402
17	0x3e83339f	0.2562532
18	0x3ea0f733	0.31438598
19	0x3ddd2273	0.10797586
20	0xbdf9c777	-0.12196248
21	0xbf2c4380	-0.67290497
22	0xbe0a6d80	-0.13518333
23	0xbeb779c4	-0.35835087
24	0xbdf38930	-0.11891401
25	0x3d6fa372	0.058505483
26	0x3a77b4d7	0.00094492495
27	0xbde8d3d6	-0.113685295
28	0xbf683a28	-0.9071374
29	0x3ecaa3e2	0.39578158
30	0xbde2e2ff	-0.11078452
31	0x3e2eafcc	0.17059249
32	0xb6723a7c	-3.6094852e-06
33	0xbe5ec434	-0.21754533
34	0xbe73d17f	-0.23810385
35	0x3e8e6394	0.27810347
36	0xbd8d2b73	-0.06893053
37	0x3ead7dbd	0.33884993
38	0x3db79207	0.089633994
39	0xbd774b53	-0.06037457
40	0xbf26c49c	-0.6514375
41	0x3c83473e	0.016025182
42	0xbe020dc4	-0.12700564
43	0xbf243b73	-0.6415321
44	0xbe3cae66	-0.18425903
45	0xbea5e1be	-0.3239879
46	0xbeabd5ae	-0.33561462
47	0x3e7ecc5b	0.24882643
48	0xbe878d50	-0.26475
49	0xbf223f9e	-0.6337832
50	0xbd9e3170	-0.07724273
51	0xbed64c59	-0.41855124
52	0xbeba31a4	-0.36365998
53	0xbee3a240	-0.44459724
54	0xbf0b0af4	-0.5431359
55	0xbf01dcbd	-0.50727445
56	0xbec952b2	-0.39320904
57	0xbd9e1664	-0.077191144
58	0x3d492c79	0.049114678
59	0xbf18c4c9	-0.5967527
60	0xbdfc8c05	-0.12331394
61	0xbf38989c	-0.72107863
62	0xbe673810	-0.2257998
63	0xbe8dbb5c	-0.27682006
64	0xbe9309c2	-0.28718382
65	0xbeaab77d	-0.33343115
66	0xbe96ca1a	-0.29451066
67	0x3db7697f	0.08955669
68	0x3f03cd90	0.5148554
69	0x3e038fc7	0.12847815
70	0xbe7a6257	-0.24451576
71	0x3e88804b	0.2666038
72	0xbfa904ab	-1.320455
73	0x36aaa2f5	5.0853655e-06
74	0x3d19fdc5	0.03759553
75	0xbf3e0d09	-0.7423864
76	0xbe8a3791	-0.2699552
77	0xbf39f139	-0.726337
78	0xbea448b9	-0.32086733
79	0xbe950e2e	-0.2911238
80	0xbe8de09a	-0.2771042
81	0xbf1698d3	-0.5882694
82	0xbda8fe5e	-0.08251642
83	0xbec111f2	-0.37709004
84	0x3dc8cdc3	0.09804871
85	0x3e2ded70	0.16985106
86	0xbeda252a	-0.4260648
87	0xbe528fc8	-0.2056266
88	0xbd0641c7	-0.032777574
89	0x3e8c5f4b	0.27416453
90	0x3ee0bbc5	0.43893257
91	0xbf3dc3ea	-0.74127066
92	0x3eb21e89	0.3478892
93	0xbdc92d4c	-0.09823093
94	0x3e54faee	0.20798847
95	0xbee667d2	-0.45001084
96	0xbf2decfb	-0.6793973
97	0xbfb35bb8	-1.4012365
98	0xbf3a13af	-0.72686285
99	0x3e6161b4	0.22009927
100	0xbe03ca7f	-0.12870215
101	0x3eccd11a	0.40003282
102	0x3e6951d3	0.2278512
103	0xbeca8299	-0.39552763
104	0x3e1b8cdc	0.15190452
105	0xbe09a05a	-0.13440076
106	0x3df6afa9	0.12045223
107	0x3f0770f3	0.5290672
108	0xbf0fef02	-0.5622407
109	0xb52fb105	-6.545018e-07
110	0x3f4b565a	0.7942864
111	0xbde287b4	-0.110610396
112	0xbe6e59ce	-0.23276445
113	0x3e7d28b5	0.2472256
114	0xbf3522ed	-0.7075642
115	0xbf117844	-0.56824136
116	0x3d0210f0	0.031754434
117	0xbe02f104	-0.12787253
118	0x3e8c3879	0.27386835
119	0xbde87936	-0.11351244
120	0x3f605672	0.87631905
121	0x3bcfcdea	0.0063416855
122	0x3ec943e6	0.39309615
123	0xbe2eafc2	-0.17059234
124	0x3e26d210	0.1629107
125	0x3e641436	0.22273335
126	0xbf146deb	-0.5798022
127	0x3e85e66b	0.26152357
128	0x3e0b2093	0.13586645
129	0xbed5b823	-0.41742048
130	0xbd4d3467	-0.050098803
131	0xbe602986	-0.2189084
132	0xbee41952	-0.44550568
133	0x3e8fbeaf	0.28075168
134	0x3e9ab95c	0.30219543
135	0x3ed80049	0.42187718
136	0xbe31f26c	-0.17377633
137	0xbf02cf03	-0.51097125
138	0xbf147647	-0.57992977
139	0x3e064360	0.13111639
140	0x3d36da9e	0.044642083
141	0xbe6ecd31	-0.23320462
142	0xbdf80fc7	-0.12112384
143	0x3f198154	0.59962964
144	0xbd99692c	-0.07490763
145	0xbdce9e9a	-0.100888446
146	0xbec0a149	-0.3762305
147	0xbec0ac16	-0.3763129
148	0x3c8dfb38	0.017331704
149	0xbed343a2	-0.41262537
150	0xbed8fb79	-0.42379358
151	0xbe9660f8	-0.29370856
152	0xbe7cbf43	-0.24682336
153	0xbd430f36	-0.04762193
154	0x3e1afa7a	0.15134612
155	0xbf4d1b99	-0.80120236
156	0x3e8e2a2d	0.27766553
157	0xbc880296	-0.016602796
158	0xbe4dd040	-0.20098972
159	0xbe5a94d4	-0.21345836
160	0xbeb40a99	-0.35164335
161	0xbe593273	-0.21210651
162	0x3e8b16d4	0.27165854
163	0xbf23bad6	-0.63956964
164	0xbf07d845	-0.53064376
165	0x3e9e0ab5	0.30867544
166	0x3e9d6a9d	0.30745402
167	0xbf1461ad	-0.5796154
168	0x3e92f789	0.2870448
169	0xbeb96837	-0.36212322
170	0x3e4d63ca	0.20057598
171	0xbe7d0809	-0.24710096
172	0xbebba614	-0.36650145
173	0xbe964851	-0.29352048
174	0xbdb5da9f	-0.08879589
175	0xbe14e367	-0.14539872
176	0xbe1e1ede	-0.15441462
177	0x3dcfbe23	0.101436876
178	0x3eae838b	0.34084734
179	0xbf2ad565	-0.66731864
180	0xbeb15cf9	-0.34641245
181	0x3d3c7555	0.046010334
182	0x3ec97f94	0.39355147
183	0x3e19feb5	0.1503857
184	0xbeba30e2	-0.3636542
185	0xbe8456ec	-0.25847566
186	0xbf733c15	-0.9501355
187	0xbec45564	-0.38346398
188	0xbf6a9cf3	-0.91645736
189	0xbec5dde9	-0.38645867
190	0xbf3201fa	-0.69534266
191	0x3e5b7a10	0.21433282
192	0x3e0a5dd6	0.13512358
193	0x3e827f91	0.2548795
194	0xbf2e9545	-0.6819652
195	0x3e9f2836	0.31085366
196	0x3ef31687	0.47478124
197	0xbd94b96a	-0.072619274
198	0xbf8978eb	-1.0740026
199	0x3d8f2029	0.06988556
200	0xbed0aa87	-0.40755102
201	0xbf044909	-0.5167394
202	0x3e7d318f	0.24725936
203	0xbf2bd74c	-0.6712539
204	0xbeabdccb	-0.3356689
205	0xbe0b0361	-0.13575508
206	0xbec7952e	-0.38981003
207	0xbf7eaa70	-0.99478817
208	0xbe0879b6	-0.13327679
209	0xbef9bb91	-0.48775914
210	0xbe81c508	-0.25345635
211	0xbe6b3f15	-0.22973283
212	0x3e5fb533	0.21846466
213	0xbe2614a9	-0.16218819
214	0xbf39a5dc	-0.72518706
215	0xbe854b23	-0.26033887
216	0xbe673ce7	-0.22581826
217	0xbaaab9b3	-0.0013025313
218	0xbed82930	-0.42218924
219	0x3e8af536	0.27140206
220	0xbe7cf59b	-0.24703066
221	0xbe4c7cf1	-0.19969536
222	0xbe098ea2	-0.13433316
223	0xbeb22c21	-0.34799293

weight f4 [224]
0	0x3f4600b6	0.77344835
1	0x3f31c133	0.69435424
2	0x3fc71f7e	1.5556486
3	0x3eb9e937	0.3631074
4	0x3f45bf61	0.77245146
5	0x3f223741	0.6336556
6	0x3f286b9c	0.657892
7	0x3f3cdbe4	0.73773026
8	0x3eea088c	0.45709646
9	0x3f2881b3	0.65822905
10	0x3eeb0daf	0.45908877
11	0x3ee7976f	0.45232722
12	0x3f4c5e88	0.79831743
13	0x3f067d0e	0.5253457
14	0x3f4b518c	0.79421306
15	0x3edd003d	0.43164244
16	0x3f75c8b6	0.96009386
17	0x3f2683de	0.65044963
18	0x3f96745a	1.1754258
19	0x3f553aef	0.8329305
20	0x3f37f8cf	0.71864027
21	0x3ea19fb0	0.31567144
22	0x3f15cd38	0.58516264
23	0x3f53f9c6	0.82803
24	0x3ecebf56	0.40380353
25	0x3f0ceed4	0.5505192
26	0x3efe5f10	0.49681902
27	0x3f269968	0.6507783
28	0x3f64a79b	0.89318246
29	0x3f5c89d7	0.86147827
30	0x3f2a52a5	0.66532356
31	0x3ed7d616	0.42155522
32	0x398d7d04	0.0002698676
33	0x3f0de1e5	0.5542281
34	0x3f3ab793	0.7293636
35	0x3f895b67	1.0731019
36	0x3f3f2d16	0.7467817
37	0x3f113d63	0.56734294
38	0x3f03c21c	0.5146806
39	0x3ec05e24	0.37571824
40	0x3f3cec01	0.73797613
41	0x3f32b681	0.6980973
42	0x3f4be7ea	0.7965075
43	0x3f056fbf	0.52123636
44	0x3f1b9cc4	0.6078608
45	0x3f227e34	0.6347382
46	0x3f3d464e	0.739354
47	0x3f36f56b	0.7146823
48	0x3f4d558d	0.80208665
49	0x3f02caaa	0.5109049
50	0x3f19acb0	0.60029125
51	0x3ed8119e	0.4220094
52	0x3e5418cf	0.20712589
53	0x3f2d4b1f	0.6769275
54	0x3f09ab6e	0.53777206
55	0x3f1d8e1a	0.61544955
56	0x3f16f6d1	0.5897036
57	0x3f342c69	0.70380265
58	0x3f338b35	0.7013429
59	0x3f254c89	0.6456991
60	0x3f23f613	0.64047354
61	0x3ec218b1	0.37909463
62	0x3f606c8f	0.8766565
63	0x3f24bdc7	0.6435208
64	0x3f0fe81d	0.5621355
65	0x3f10f478	0.5662303
66	0x3f1f202c	0.62158465
67	0x3f093eea	0.53611624
68	0x3f5a019e	0.8515872
69	0x3f376bdc	0.71648955
70	0x3f0723e7	0.5278916
71	0x3ecbce89	0.3980601
72	0x3f7145ce	0.9424714
73	0xb92a87a4	-0.00016262993
74	0x3fb210cc	1.3911376
75	0x3f455153	0.77077216
76	0x3f1319d0	0.5746126
77	0x3f326368	0.6968293
78	0x3eb585c3	0.35453615
79	0x3f130a2e	0.5743741
80	0x3f1c1de8	0.60983133
81	0x3ef8d009	0.48596218
82	0x3f3bf34b	0.7341811
83	0x3f0ee2f4	0.55815053
84	0x3f233b78	0.6376262
85	0x3efeabef	0.4974055
86	0x3ecc89c6	0.39948863
87	0x3f13bbc0	0.5770836
88	0x3f344968	0.7042451
89	0x3f705ebe	0.93894565
90	0x3f1082a4	0.5644934
91	0x3ece975d	0.40349856
92	0x3f173455	0.5906423
93	0x3eba477e	0.3638267
94	0x3f29c0e7	0.6630997
95	0x3edef35c	0.43545043
96	0x3ed60c16	0.41806096
97	0x3f34e62a	0.706637
98	0x3f1fa259	0.623571
99	0x3f1012d7	0.5627875
100	0x3f4add4a	0.7924391
101	0x3f05f17d	0.52321607
102	0x3ee9281e	0.4553842
103	0x3f18ad86	0.59639776
104	0x3f25b09d	0.64722615
105	0x3f08e7c0	0.5347862
106	0x3f4ba766	0.79552305
107	0x3f1d4f33	0.61448973
108	0x3f045ea0	0.51706886
109	0xb9292bd7	-0.00016133428
110	0x3f7798dd	0.96717626
111	0x3ec62b9b	0.38705143
112	0x3f0656cf	0.5247621
113	0x3f27323c	0.65311027
114	0x3f07b4c8	0.53010225
115	0x3f1ebdf8	0.6200862
116	0x3f314865	0.6925109
117	0x3f526af0	0.82194424
118	0x3ecc0425	0.39846912
119	0x3ed9abd5	0.4251391
120	0x3f7fd0dc	0.9992807
121	0x3f28fd90	0.66011906
122	0x3f5494a4	0.8303931
123	0x3f4e4119	0.8056808
124	0x3f4e3bce	0.80560005
125	0x3efa0d7d	0.48838416
126	0x3f338036	0.7011751
127	0x3f9f3735	1.2438723
128	0x3f0b57ea	0.5443102
129	0x3f03992c	0.51405597
130	0x3f4acd37	0.79219383
131	0x3f256359	0.6460472
132	0x3f165799	0.58727413
133	0x3f740501	0.95320135
134	0x3f2226fd	0.6334074
135	0x3ead34eb	0.33829436
136	0x3f2cf234	0.6755707
137	0x3f44119b	0.76589364
138	0x3f05597b	0.5208966
139	0x3f13be96	0.57712686
140	0x3f176f6f	0.5915441
141	0x3ed9950f	0.42496535
142	0x3f14181f	0.57849306
143	0x3e9bad30	0.3040557
144	0x3f1ad5ab	0.6048228
145	0x3f3bbad2	0.7333194
146	0x3ed752e5	0.4205543
147	0x3eb12814	0.3460089
148	0x3e977449	0.29580906
149	0x3f0a8a66	0.5411743
150	0x3f1583e7	0.5840439
151	0x3f57b201	0.8425599
152	0x3f09bb09	0.5380102
153	0x3f11642f	0.56793493
154	0x3f4a6723	0.79063624
155	0x3ee2c336	0.4428956
156	0x3f5a6a42	0.85318387
157	0x3f0bbd0d	0.54585344
158	0x3f34a4e5	0.7056411
159	0x3f2049b1	0.62612444
160	0x3f079d7d	0.52974683
161	0x3efbdb4f	0.49190757
162	0x3f116320	0.5679188
163	0x3f249c09	0.6430059
164	0x3f0ab1a8	0.5417733
165	0x3f0b12d1	0.54325587
166	0x3efe5b4b	0.49679026
167	0x3f36a178	0.7134013
168	0x3f8040ce	1.0019777
169	0x3f8e257a	1.1105187
170	0x3f52d459	0.82355267
171	0x3f09e973	0.5387184
172	0x3f07f59d	0.5310915
173	0x3f1870e1	0.5954724
174	0x3f1081ee	0.56448257
175	0x3f183912	0.5946208
176	0x3f2d65c1	0.6773339
177	0x3f214719	0.6299911
178	0x3eceda3a	0.4040087
179	0x3eb66bf8	0.3562925
180	0x3eb57376	0.35439652
181	0x3f3d9964	0.7406218
182	0x3f1e34b9	0.617992
183	0x3ee28c29	0.4424756
184	0x3f069731	0.5257445
185	0x3e941c4a	0.28927833
186	0x3ecbc609	0.39799526
187	0x3efccbb0	0.4937415
188	0x3ef783f3	0.48342857
189	0x3ec7dfa8	0.39037824
190	0x3f06217a	0.5239483
191	0x3f2ac44a	0.66705763
192	0x3ed1d16a	0.40980083
193	0x3f1453b9	0.5794025
194	0x3f716573	0.94295424
195	0x3f4af331	0.7927733
196	0x3f5f29b7	0.87173027
197	0x3f1bf27f	0.60916895
198	0x3f5fd346	0.8743175
199	0x3eee5242	0.46547133
200	0x3f2b63a7	0.6694893
201	0x3f05f9a3	0.5233404
202	0x3f2e7ba4	0.6815741
203	0x3f027916	0.5096601
204	0x3ee8e151	0.45484403
205	0x3f4e9f0f	0.80711454
206	0x3ef562bc	0.4792689
207	0x3f00b31a	0.5027329
208	0x3f1df8d7	0.61707824
209	0x3ef9f70d	0.48821297
210	0x3eecaa95	0.46223894
211	0x3f0f7f61	0.5605374
212	0x3f025ba1	0.50921065
213	0x3f0f8f01	0.5607758
214	0x3f234342	0.637745
215	0x3ef24481	0.4731789
216	0x3f209a74	0.62735677
217	0x3eeaa3a4	0.45827973
218	0x3f3c0b58	0.7345481
219	0x3f1671a1	0.58767134
220	0x3f7429d6	0.95376337
221	0x3f5a3ec3	0.85252017
222	0x3f3b53aa	0.73174536
223	0x3f144d1b	0.57930154

bias f4 [224]
0	0x3d67d6d1	0.05660135
1	0x3cda4967	0.02664633
2	0xbdd70466	-0.10498886
3	0xbec9120e	-0.39271587
4	0x3e55dfbe	0.20886132
5	0x3e60a5d6	0.21938261
6	0x3d539ac5	0.05166127
7	0x3e5a8aef	0.21342061
8	0x3e2b891b	0.1675152
9	0x3e47bfed	0.19506808
10	0x3e11b316	0.14228472
11	0x3c46fa50	0.01214464
12	0x3e2aae11	0.16667964
13	0xbd67cf85	-0.05659439
14	0x3d53b893	0.051689696
15	0x3cdc3082	0.0268786
16	0x3e8056fd	0.25066367
17	0x3d695526	0.05696597
18	0x3dfd4f03	0.12368586
19	0x3e2ba36c	0.16761559
20	0x3e074441	0.1320963
21	0xbe89955d	-0.26871768
22	0x3d90d319	0.07071514
23	0x3e1065c1	0.14101316
24	0x3d262b1a	0.04056845
25	0xbcfe0c2f	-0.031011669
26	0x3ddc78ca	0.10765226
27	0xbe4a7b7c	-0.19773668
28	0x3d74baaf	0.059748348
29	0x3cbaf9a6	0.02282412
30	0x3e517848	0.2045604
31	0x3dbe01f2	0.09277715
32	0xb83baa5c	-4.4742934e-05
33	0xbd441845	-0.047874708
34	0x3e68c407	0.22731028
35	0x3ec42a6f	0.38313624
36	0x3cc97057	0.0245897
37	0x3e5d5aa9	0.21616615
38	0x3cb3a4a9	0.021929102
39	0xbd3b30a4	-0.045700684
40	0x3bde9f61	0.006793902
41	0x3edb53f2	0.42837483
42	0x3de1cc7e	0.11025332
43	0x3e07503d	0.13214202
44	0x3e33a497	0.17543255
45	0x3ea7260c	0.32646215
46	0x3dd7b9b5	0.10533468
47	0x3d4e5994	0.050378397
48	0x3d17e8c8	0.037087232
49	0xbe0abd9b	-0.13548891
50	0x3eb0983d	0.3449115
51	0xbd36d85f	-0.04463994
52	0xbe2fa32b	-0.17152087
53	0x3ea588ad	0.32330838
54	0xbe893197	-0.26795647
55	0x3db23cd2	0.08703007
56	0x3e1cbf90	0.1530745
57	0x3de1a72b	0.11018213
58	0x3e0b1084	0.13580519
59	0x3c99b008	0.018760696
60	0x3e06d96b	0.13168876
61	0xbbef3371	-0.0072998335
62	0x3e8351df	0.256484
63	0x3dbee71a	0.09321423
64	0xbde024f7	-0.109445505
65	0xbe17b335	-0.14814456
66	0xbe0d785d	-0.13815446
67	0x3d14a9ef	0.036294874
68	0x3e33cc18	0.17558324
69	0xbd839860	-0.064255476
70	0xbd3d84f9	-0.04626939
71	0xbd1f8f2a	-0.03895489
72	0xbd293828	-0.04131332
73	0x370e1da1	8.470758e-06
74	0x3e533c93	0.20628576
75	0x3e08c516	0.13356432
76	0xbe0febe8	-0.14054835
77	0x3dabbf99	0.08386154
78	0xbe517ec2	-0.2045851
79	0x3d92c878	0.07167143
80	0xbd5fbe42	-0.054624803
81	0x3dfe24be	0.12409352
82	0xbd62a6c9	-0.05533484
83	0x3e39f1b2	0.18158606
84	0xbe90073a	-0.28130513
85	0x3e1048ba	0.14090243
86	0x3dd17dbe	0.102290615
87	0x3da802da	0.08203669
88	0xbda51b48	-0.08061844
89	0x3eafc804	0.34332287
90	0x3d221480	0.03957033
91	0xbe339b65	-0.17539747
92	0x3dde7d08	0.108636916
93	0xbea09af1	-0.3136821
94	0xbd881182	-0.06643964
95	0x3dbddbbb	0.09270426
96	0x3e730dcd	0.23735733
97	0xbd06e427	-0.032932427
98	0x3c16e040	0.009208739
99	0x3e1154cc	0.14192504
100	0x3da6f8b2	0.081529036
101	0xbccc4db2	-0.024939392
102	0x3d58f173	0.05296464
103	0xbde8a1be	-0.11358975
104	0x3e95bc9a	0.29245454
105	0x3e0460ce	0.12927553
106	0xbd8fa054	-0.07013002
107	0xbd431eb3	-0.0476367
108	0x3d9beca7	0.07613497
109	0x37655339	1.366884e-05
110	0x3e7f8d5f	0.24956273
111	0x3c95492e	0.018223371
112	0x3ec3a232	0.38209683
113	0x3da9eadb	0.08296748
114	0x3d516f2c	0.051131412
115	0xbdaab1e5	-0.08334712
116	0xbdd62dc4	-0.10457948
117	0x3e8d2f9c	0.27575386
118	0x3d7fe400	0.062473297
119	0xbd2c5765	-0.042075533
120	0xbe1133e9	-0.14179958
121	0xbd20e42c	-0.0392801
122	0x3ddf8f24	0.10915974
123	0x3da45a8f	0.08025085
124	0x3d8da511	0.069162495
125	0xbe6ecafe	-0.23319623
126	0x3e27238c	0.16322154
127	0x3e2d5662	0.16927484
128	0xbe21cbd7	-0.15800415
129	0xbc8a708f	-0.016899375
130	0x3e5a7f1f	0.21337555
131	0x3d80e821	0.06294275
132	0x3e7df434	0.24800187
133	0xbd14d9fd	-0.036340702
134	0x3cc929e8	0.024556115
135	0xbd826eaa	-0.06368764
136	0xbd1b1b43	-0.037867796
137	0xbcb25f70	-0.021774024
138	0x3e53a917	0.20669971
139	0x3e770e4a	0.24126545
140	0xbdf6b3ec	-0.12046036
141	0xbdce5a14	-0.10075775
142	0x3e6b0d96	0.22954401
143	0xbe1e45bf	-0.15456294
144	0xbcae4f48	-0.021278039
145	0x3de56b97	0.11202162
146	0xbf031935	-0.5121034
147	0xbe663d53	-0.22484331
148	0xbe45bb71	-0.19309784
149	0xbda76f17	-0.081754856
150	0x3de8eb4a	0.11373003
151	0xbd0b5447	-0.03401592
152	0x3bf4aa70	0.007466607
153	0x3d725f56	0.05917295
154	0xbd376cfc	-0.04478167
155	0x3d79a9ca	0.06095294
156	0x3ea2fb5d	0.318324
157	0x3db7702e	0.089569435
158	0x3da003e3	0.07813241
159	0xbdb5b7ea	-0.088729694
160	0x3ac4382d	0.0014970355
161	0x3d48eb2c	0.049052402
162	0xbdb9cd96	-0.090724155
163	0xbebd0db2	-0.3692451
164	0xbe0458cb	-0.12924497
165	0xbe42b20c	-0.19013232
166	0xbe276742	-0.16347983
167	0xbb335519	-0.0027363955
168	0x3da433b1	0.08017672
169	0x3eec7b6a	0.46187907
170	0x3e16948a	0.147051
171	0x3c7bfc07	0.015379912
172	0xbad43674	-0.0016190545
173	0x3c978367	0.018495275
174	0xbd09f542	-0.03368116
175	0x3de2c30e	0.1107236
176	0xbc8b78cd	-0.017025376
177	0x3e05d62a	0.13069978
178	0x3cb43aaa	0.02200063
179	0x3d336613	0.043798517
180	0x3d9a2864	0.07527235
181	0x3c6b221c	0.014351394
182	0xbdb2ad4d	-0.08724461
183	0xbd87a1da	-0.066226676
184	0x3da0639f	0.07831501
185	0xbe89dc70	-0.26925993
186	0x3d0516ed	0.032492567
187	0x3dc15282	0.09439565
188	0xbd50f59a	-0.051015474
189	0xbe834716	-0.25640172
190	0x3e31a555	0.17348225
191	0x3df4d6bf	0.11955022
192	0x3b7b210f	0.0038319265
193	0x3e70fac0	0.23533154
194	0x3da13809	0.07872016
195	0x3d4c9303	0.04994489
196	0x3d6923d2	0.056918927
197	0x3c89ba36	0.016812425
198	0x3e2e94ac	0.17048901
199	0xbdbdbd9e	-0.09264682
200	0x3da00ac8	0.07814556
201	0xbd0a435b	-0.03375564
202	0xbe0d54b2	-0.1380184
203	0x3da04189	0.07825
204	0xbc2cec96	-0.010554453
205	0x3ea49465	0.32144466
206	0x3f44fa51	0.7694445
207	0xbe065c04	-0.13121039
208	0x3e05860e	0.13039419
209	0xbcfcf289	-0.030877369
210	0xbd8076f4	-0.062726885
211	0x3e8b082d	0.27154675
212	0xbd0ebeaa	-0.0348498
213	0xbe3e297a	-0.1857051
214	0x3e9485a2	0.29008204
215	0x3c561bfb	0.0130681945
216	0x3e09b14c	0.1344654
217	0x3c95e563	0.018297857
218	0x3dc7da3c	0.09758422
219	0x3ee5b55a	0.44864923
220	0x3ee563ba	0.44802648
221	0x3e8cc85a	0.27496606
222	0x3e03c315	0.12867387
223	0xbe0ad4e3	-0.13557772

running_mean f4 [224]
0	0x3e949f49	0.29027775
1	0x3ddb20a2	0.106995836
2	0x3e9c0072	0.3046909
3	0x3dbb0726	0.09132223
4	0xbc4da74c	-0.012552094
5	0x3ee47032	0.44616848
6	0x3d74b41d	0.059742082
7	0x3d0b7bc3	0.034053575
8	0x3e93a4ae	0.28836578
9	0x3f108ce9	0.5646501
10	0x3e4c7b95	0.19969018
11	0x3c8bfa16	0.017087024
12	0x3eda50b4	0.42639697
13	0x3ebd7a30	0.37007284
14	0x3d3216c9	0.04347876
15	0x3d3c4d5d	0.045972217
16	0x3eb5713f	0.35437962
17	0x3ea0d232	0.31410366
18	0x3ec74d8f	0.3892636
19	0x3e916583	0.2839776
20	0x3dbabd1c	0.09118101
21	0xbd0a2dca	-0.033735074
22	0x3e2f4830	0.17117381
23	0x3c214592	0.009843247
24	0x3e00fc1b	0.1259617
25	0x3e6061bb	0.21912281
26	0x3e24a237	0.16077505
27	0x3e3dc3d2	0.18531731
28	0xbcbecd4b	-0.02329125
29	0x3f139c15	0.5766004
30	0x3e20e012	0.15710476
31	0x3ea88921	0.3291712
32	0xb6bbdac6	-5.598503e-06
33	0x3dfe9d21	0.12432314
34	0x3d4dbce6	0.050228976
35	0x3eb23e63	0.34813222
36	0x3e9840da	0.29736978
37	0x3ecd2c2b	0.4007276
38	0x3e69b528	0.22823012
39	0x3e49bb43	0.19700341
40	0x3df65bc7	0.12029224
41	0x3e376273	0.17908649
42	0x3e282787	0.16421328
43	0xbc164ccc	-0.009173583
44	0x3dc784b0	0.09742105
45	0xbd4ce778	-0.050025433
46	0x3df9b27f	0.121922486
47	0x3e87ad8c	0.26499593
48	0x3e4ea89f	0.20181511
49	0xbd82f99d	-0.06395266
50	0x3e02d42e	0.12776253
51	0x3d5805e5	0.052739996
52	0x3da73fbd	0.08166454
53	0xbd2acbe5	-0.041698355
54	0x3dd1fbad	0.102530815
55	0xbd02e5ff	-0.031957623
56	0xbc152824	-0.009103809
57	0x3debae4a	0.115078524
58	0x3e453bc6	0.19261083
59	0xbd4f9836	-0.05068227
60	0x3e2505b2	0.16115454
61	0xbdc3e89c	-0.09565851
62	0xbbddb3cd	-0.0067658187
63	0x3de9fd79	0.11425299
64	0x3e089fac	0.1334216
65	0x3c154ab1	0.009112046
66	0x3e37ad0f	0.1793711
67	0x3eab8fa8	0.3350804
68	0x3edd96d1	0.43279126
69	0x3ed352d9	0.41274145
70	0x3e69c7ee	0.22830173
71	0x3eb37c7f	0.3505592
72	0xbcfc1c0f	-0.030775098
73	0x36b31a41	5.337672e-06
74	0x3f02a3a1	0.5103093
75	0xbd5fab9f	-0.05460703
76	0x3dc47ca9	0.095940895
77	0xbd925358	-0.07144803
78	0x3d721534	0.059102252
79	0x3e122e62	0.14275506
80	0x3dabf041	0.08395434
81	0xbd8488f2	-0.06471433
82	0x3e47dce7	0.19517861
83	0x3c5468a8	0.012964405
84	0x3e8f2dce	0.27964634
85	0x3e6e1140	0.23248768
86	0x3d1165f7	0.035497632
87	0x3e3aaf25	0.18230875
88	0x3ea118af	0.31464145
89	0x3ec2f39e	0.3807649
90	0x3ed47023	0.41491804
91	0xbdbd08a4	-0.09230164
92	0x3eda7823	0.42669782
93	0x3eabcb6a	0.3355363
94	0x3e8e5735	0.2780091
95	0x3d9f24fa	0.077707246
96	0x3cf2a195	0.029618064
97	0xbda24b0d	-0.07924471
98	0xbcce3402	-0.025171284
99	0x3ea0b4f3	0.31388053
100	0x3e399351	0.18122603
101	0x3ee7c400	0.45266724
102	0x3ea5baa7	0.32368967
103	0x3b82ecdb	0.0039955205
104	0x3e68f486	0.22749528
105	0x3e84484b	0.25836405
106	0x3e95d70d	0.29265633
107	0x3f0e985e	0.55701244
108	0xbd9c9d43	-0.07647183
109	0xb61ea37b	-2.3638993e-06
110	0x3f4afef5	0.79295284
111	0x3e2e7bb9	0.17039384
112	0x3d6ed188	0.058305293
113	0x3e9b73f6	0.3036191
114	0xbd733c03	-0.059383404
115	0x3d5f6487	0.05453923
116	0x3e881104	0.26575482
117	0x3e0f30b3	0.13983421
118	0x3ed29f21	0.4113703
119	0x3e516bf5	0.20451339
120	0x3f442d63	0.76631755
121	0x3e467f3d	0.19384475
122	0x3ee7c46c	0.45267045
123	0x3db631ac	0.08896193
124	0x3e7adabc	0.24497503
125	0x3eb2636c	0.34841478
126	0xbd21bf8e	-0.03948932
127	0x3edbe0dd	0.42944995
128	0x3eb1cfc9	0.3472884
129	0xbc71153f	-0.014714538
130	0x3e450d64	0.1924339
131	0x3d500627	0.050787117
132	0xbcfee53a	-0.031115163
133	0x3e9e2e6d	0.30894795
134	0x3f001c08	0.5004277
135	0x3f084d32	0.5324279
136	0x3de9db5f	0.11418795
137	0xbd2373d5	-0.039905388
138	0xbc758669	-0.014985659
139	0x3e767f59	0.24072017
140	0x3e74d301	0.23908617
141	0x3d8d6e62	0.069058195
142	0x3e722f62	0.23650888
143	0x3f2b9bff	0.67034906
144	0x3e3c1812	0.18368557
145	0x3d9bd927	0.07609778
146	0x3d848ac7	0.06471782
147	0x3e1482d6	0.14503035
148	0x3e8532b8	0.26015258
149	0x3e09e5f2	0.13466623
150	0x3bcecda7	0.0063111368
151	0x3e1abf2e	0.15111992
152	0x3dbc9213	0.09207549
153	0x3e355c20	0.17710924
154	0x3e8b7bf2	0.27243
155	0xbcf0d484	-0.02939821
156	0x3ea6719b	0.3250855
157	0x3e15be64	0.1462341
158	0x3c916d24	0.017752238
159	0x3e271624	0.1631704
160	0x3bc96a68	0.006146718
161	0x3e19bd8d	0.15013714
162	0x3edee341	0.43532756
163	0x3dcfb3f5	0.10141746
164	0x3cc1f498	0.023676202
165	0x3ef14717	0.4712455
166	0x3ecaecbf	0.39633748
167	0x3be2f2f5	0.0069259354
168	0x3eddf5f6	0.43351716
169	0xbd8ad29c	-0.06778452
170	0x3ebbf3ae	0.3670935
171	0x3e078532	0.13234404
172	0x3d039c0a	0.032131232
173	0x3daa0b1a	0.08302899
174	0x3e51571c	0.20443386
175	0x3e1c361f	0.1525502
176	0x3e161455	0.14656194
177	0x3e92e4d0	0.28690195
178	0x3ed3d123	0.41370496
179	0xbcc503e8	-0.024049714
180	0x3df56686	0.119824454
181	0x3ec96262	0.39332873
182	0x3f05f0f7	0.5232081
183	0x3ece97bf	0.40350148
184	0x3d8383d5	0.06421629
185	0x3dcd41e3	0.100223325
186	0xbdd5162f	-0.10404622
187	0xba655308	-0.00087480294
188	0xbd8b06fd	-0.06788442
189	0x3cf74bcb	0.030187508
190	0xbd563607	-0.05229762
191	0x3eab0639	0.33403185
192	0x3e595588	0.21224034
193	0x3ea67748	0.3251288
194	0x3d6522a6	0.055941246
195	0x3e849969	0.25898293
196	0x3ee7f092	0.45300728
197	0x3e235e6f	0.15953992
198	0xbdbee66e	-0.09321295
199	0x3e786948	0.24258912
200	0x3cf8f2de	0.030389246
201	0x3daf16a5	0.08549241
202	0x3eb21a32	0.3478561
203	0xbd21d1c7	-0.0395067
204	0x3df2f49b	0.11863061
205	0x3d7a3f24	0.06109537
206	0x3d7e75f4	0.062124208
207	0xbcf52677	-0.029925568
208	0x3e1f8797	0.15579067
209	0x3d71d655	0.059042294
210	0x3dac3d0c	0.08410081
211	0x3dd639ba	0.10460229
212	0x3e8c1767	0.27361605
213	0x3dcf0e6a	0.10110171
214	0xbc0a2c92	-0.008433478
215	0x3ce9d3b7	0.028543336
216	0x3d0d09e0	0.034433246
217	0x3e4afb67	0.19822465
218	0xbba5df3d	-0.0050620125
219	0x3ec601bc	0.38673198
220	0xbd0d215b	-0.03445564
221	0x3e50206c	0.20324868
222	0x3e401a91	0.18760134
223	0x3d31e620	0.043432355

running_var f4 [224]
0	0x3ea77158	0.32703662
1	0x3e472ab4	0.19449884
2	0x3f0abf50	0.5419817
3	0x3e95e41e	0.29275602
4	0x3d150d52	0.036389656
5	0x3eb7905a	0.3585232
6	0x3e0da2e9	0.13831677
7	0x3dd53bac	0.10411772
8	0x3e8801c2	0.2656384
9	0x3ed3b444	0.4134847
10	0x3e8b2290	0.27174807
11	0x3d25ee2d	0.040510345
12	0x3ee7cc19	0.45272902
13	0x3e8d3a67	0.2758362
14	0x3d598e1e	0.05311405
15	0x3d7f1af9	0.062281583
16	0x3ebbcf3e	0.3668155
17	0x3e67defe	0.22643659
18	0x3e7d43c0	0.24732876
19	0x3e6f6ec1	0.23382093
20	0x3dfbb9b1	0.12291277
21	0x3d805312	0.062658444
22	0x3e6170d4	0.22015697
23	0x3d1ec14b	0.038758557
24	0x3e0f5f50	0.14001203
25	0x3e84057a	0.25785428
26	0x3e244bb4	0.16044503
27	0x3e9716e8	0.29509664
28	0x3d012d80	0.031537533
29	0x3f048c54	0.51776624
30	0x3de289d0	0.11061442
31	0x3ed107fe	0.4082641
32	0x359753fb	1.1274818e-06
33	0x3e4f3f61	0.20239021
34	0x3dab1a54	0.08354631
35	0x3e9bccab	0.30429587
36	0x3e9b6887	0.30353186
37	0x3ea74e8d	0.32677117
38	0x3e1fd986	0.15610322
39	0x3e54f149	0.20795168
40	0x3e16ea51	0.14737822
41	0x3e2e31f6	0.17011246
42	0x3e38bb2a	0.18040147
43	0x3d8c8a85	0.06862358
44	0x3e185786	0.14877138
45	0x3cc16d2c	0.023611628
46	0x3e03fc08	0.12889111
47	0x3e14ff34	0.14550477
48	0x3e21715e	0.15765902
49	0x3d153a4c	0.03643255
50	0x3dc180db	0.09448405
51	0x3e2ec13e	0.17065904
52	0x3e3e1ce8	0.18565714
53	0x3cd4115d	0.025887186
54	0x3e962427	0.29324457
55	0x3d360405	0.044437427
56	0x3d2a01b4	0.04150553
57	0x3e0ed687	0.13949023
58	0x3e462264	0.19349056
59	0x3cf4a600	0.029864311
60	0x3e36c0fa	0.17847052
61	0x3c6c5833	0.014425325
62	0x3d06db28	0.032923847
63	0x3e235c7d	0.1595325
64	0x3e5c4a2d	0.21512671
65	0x3d2039d0	0.039117634
66	0x3ea89272	0.3292423
67	0x3edc683a	0.4304827
68	0x3e15cfd1	0.14630057
69	0x3ee54250	0.44777155
70	0x3e551699	0.20809402
71	0x3ee0870b	0.4385303
72	0x3c3673bb	0.011135991
73	0x34cecc4c	3.8519136e-07
74	0x3f32e08c	0.6987388
75	0x3d03b163	0.03215159
76	0x3e1b7935	0.15182956
77	0x3cbf8699	0.02337961
78	0x3e25ef4e	0.16204569
79	0x3e305b8f	0.17222427
80	0x3df5192b	0.11967691
81	0x3d188ef0	0.03724569
82	0x3e01aa0d	0.12662525
83	0x3da5e6d3	0.08100667
84	0x3e499536	0.19685826
85	0x3e5449a2	0.20731214
86	0x3df1bece	0.11803971
87	0x3e3ceab9	0.18448915
88	0x3f010f03	0.5041353
89	0x3e8af901	0.271431
90	0x3e3fa835	0.1871651
91	0x3ca55d55	0.020186106
92	0x3ea6caab	0.32576498
93	0x3ee9350e	0.4554829
94	0x3e659026	0.2241827
95	0x3e5934cb	0.21211545
96	0x3e2c0bfb	0.16801445
97	0x3c71aca0	0.01475063
98	0x3d251e67	0.040312197
99	0x3e96bbd3	0.29440174
100	0x3e3da06e	0.1851823
101	0x3e53cd1b	0.2068371
102	0x3e7ecee4	0.2488361
103	0x3d90fb97	0.07079237
104	0x3e1580b7	0.14599882
105	0x3e7f3b00	0.2492485
106	0x3ebe54a8	0.37173963
107	0x3f0824db	0.53181237
108	0x3c852996	0.016255181
109	0x357dd444	9.455873e-07
110	0x3f20c4ec	0.6280048
111	0x3e44dc08	0.1922456
112	0x3e038c62	0.1284652
113	0x3e53d769	0.20687641
114	0x3d454407	0.04816058
115	0x3e010705	0.12600334
116	0x3e8697c8	0.26287675
117	0x3e4948a5	0.19656618
118	0x3ecfacf5	0.40561643
119	0x3e9ec4e7	0.310096
120	0x3e525b13	0.20542555
121	0x3e66903e	0.22515962
122	0x3ee40fcd	0.44543305
123	0x3de6115d	0.112337805
124	0x3e2cb36b	0.16865318
125	0x3f061a62	0.52384007
126	0x3d7ec3f6	0.0621986
127	0x3f048989	0.5177236
128	0x3ea5b28d	0.32362786
129	0x3d88804a	0.06665094
130	0x3e716083	0.23571973
131	0x3d98baea	0.07457526
132	0x3d4e042d	0.05029695
133	0x3e20d76f	0.15707181
134	0x3e9fa357	0.31179306
135	0x3f06f7cd	0.52721864
136	0x3e17caa0	0.14823389
137	0x3d6d5cff	0.057950016
138	0x3db07ecc	0.086179346
139	0x3e3b3594	0.18282157
140	0x3e49dbca	0.19712749
141	0x3e1907bf	0.14944361
142	0x3e939424	0.2882396
143	0x3f02ddb4	0.5111954
144	0x3e528058	0.20556772
145	0x3d79dc52	0.06100113
146	0x3dfe4334	0.12415162
147	0x3e945fee	0.2897944
148	0x3ecd44c4	0.40091527
149	0x3df912f0	0.12161815
150	0x3d579193	0.052629065
151	0x3e9d2b98	0.30697322
152	0x3dca325c	0.098728865
153	0x3e430497	0.1904472
154	0x3e986575	0.29764906
155	0x3dc4434c	0.09583148
156	0x3e53321a	0.20624581
157	0x3dcc269e	0.09968303
158	0x3d5295a3	0.051412236
159	0x3e396e91	0.18108584
160	0x3d8369bf	0.06416654
161	0x3e581a04	0.21103674
162	0x3e8ac395	0.27102342
163	0x3dbc88f9	0.09205813
164	0x3d7c64fa	0.061619736
165	0x3ec676a2	0.38762385
166	0x3ea4a5f3	0.3215786
167	0x3d21145c	0.039326057
168	0x3efbf464	0.49209893
169	0x3c94f0ea	0.018181283
170	0x3ec3c8ac	0.38239038
171	0x3e210be2	0.15727189
172	0x3df61c3f	0.12017106
173	0x3de96dce	0.11397897
174	0x3e8d2f66	0.27575225
175	0x3e2eec1b	0.17082255
176	0x3e71a15d	0.23596711
177	0x3e58444b	0.21119802
178	0x3e9ccf46	0.30626887
179	0x3d89c1e1	0.067264326
180	0x3e68ced0	0.22735143
181	0x3e55f14d	0.2089283
182	0x3eb7dc47	0.35910246
183	0x3efdb071	0.49548677
184	0x3e006302	0.12537768
185	0x3e86f50c	0.2635883
186	0x3c841091	0.01612118
187	0x3d5b0539	0.053471778
188	0x3d430c61	0.047619227
189	0x3db41c30	0.08794439
190	0x3d4ab328	0.049487263
191	0x3ec0707c	0.3758582
192	0x3e44519f	0.19171761
193	0x3e44c842	0.19217017
194	0x3e1f4c0e	0.15556356
195	0x3dbd5156	0.09244029
196	0x3e921877	0.2853429
197	0x3e32a328	0.17445052
198	0x3c6ae416	0.0143366065
199	0x3e63f837	0.22262655
200	0x3db6e0ee	0.08929621
201	0x3e2c34c7	0.16817008
202	0x3ea0990d	0.31366768
203	0x3d80d5d3	0.06290784
204	0x3e86cc77	0.2632787
205	0x3d8d0dc5	0.06887392
206	0x3e542e48	0.2072078
207	0x3dbd6495	0.092477
208	0x3e092775	0.13393958
209	0x3e228ce6	0.15874061
210	0x3db3a242	0.087711826
211	0x3e1eb1b1	0.15497471
212	0x3e667723	0.22506385
213	0x3dce07cb	0.1006008
214	0x3dc103f9	0.09424586
215	0x3db01c26	0.08599119
216	0x3d84868c	0.06470975
217	0x3e7a1a93	0.244242
218	0x3d871394	0.06595531
219	0x3efcbac2	0.49361235
220	0x3ca07ba2	0.019590203
221	0x3e63c91c	0.22244686
222	0x3e2a34a3	0.16621642
223	0x3dea2856	0.11433475

weight f4 [192, 224]
0	0x3de616bf	0.11234807
1	0x3e4da906	0.20084009
2	0xbe144813	-0.14480619
3	0xbd00226a	-0.03128282
4	0x3e3fdb35	0.18735965
5	0x3d9b7b87	0.0759192
6	0xbbe25970	-0.0069076344
7	0x3cd499a2	0.025952164
8	0x3e040026	0.12890682
9	0xbe07c611	-0.1325915
10	0x3d05f5de	0.03270518
11	0x3dae0d41	0.08498622
12	0xbe1c0f62	-0.15240243
13	0xbc33fc57	-0.0109854555
14	0x3a163a10	0.0005730698
15	0x3da23caa	0.07921727
16	0xbd91dd37	-0.071222715
17	0xbcaf5954	-0.0214049
18	0x3c79121f	0.015202074
19	0xbd62f58b	-0.05540995
20	0xbc85e58d	-0.01634481
21	0x3d2700f2	0.040772386
22	0xbd14f325	-0.036364693
23	0xbcc9f49d	-0.024652774
24	0xbe04e74f	-0.12978862
25	0xbead3b4a	-0.33834296
26	0xbe4de7ca	-0.20107952
27	0x3c41e098	0.0118333325
28	0xbcb2ba81	-0.021817448
29	0xbd1d4f29	-0.03840557
30	0xbdbc5706	-0.09196286
31	0xbdddbc0b	-0.10826882
32	0xb8983642	-7.258031e-05
33	0xbdad49b6	-0.08461325
34	0xbca98659	-0.020693945
35	0x3d27d9aa	0.040979065
36	0x3e54582b	0.20736758
37	0x3d80a9bf	0.062823765
38	0x3d2873d3	0.041126084
39	0xbe45fbb3	-0.19334297
40	0x3d77ba84	0.06048061
41	0x3c3dd80c	0.011587154
42	0x3d2d8401	0.042362217
43	0xbd90a9ae	-0.07063614
44	0xbe4deeed	-0.20110674
45	0xbdfb02ec	-0.12256417
46	0xbe1d085a	-0.15335217
47	0xbdd53bf7	-0.10411828
48	0xbd34acdc	-0.044110164
49	0x3e01ee28	0.12688506
50	0xbe02f2b1	-0.12787892
51	0x3de6ba22	0.11265971
52	0xbcac85f8	-0.021059975
53	0xbe1e195a	-0.15439358
54	0xbcb8767a	-0.022517432
55	0x3c3586a5	0.011079465
56	0x3df35139	0.11880726
57	0xbe2bd474	-0.16780263
58	0xbe2be4b4	-0.16786462
59	0x3b88e336	0.0041774763
60	0x3da69285	0.08133415
61	0xbe124dad	-0.14287443
62	0x3cde5212	0.027138744
63	0x3ddf5185	0.109042205
64	0xbd3805a3	-0.04492725
65	0xbd12fff5	-0.03588863
66	0x3dbe5afc	0.09294698
67	0x3d515b12	0.051112242
68	0xbe92b6f1	-0.28655198
69	0x3e011368	0.12605059
70	0x3e077a0e	0.13230154
71	0x3e68172c	0.2266509
72	0xbd8f7001	-0.07003785
73	0xb784837b	-1.5796852e-05
74	0xbd85e82b	-0.06538423
75	0x3de062cc	0.10956344
76	0x3d662bde	0.05619418
77	0x3d03f2aa	0.032213844
78	0x3dfb5f2c	0.12274012
79	0x3dcf25f3	0.1011466
80	0x3d3abccf	0.04559022
81	0x3d506cbe	0.050884955
82	0xbdc1a070	-0.09454429
83	0x3e52b7e9	0.20577969
84	0x3dabbad8	0.08385247
85	0xbce9dbf9	-0.028547274
86	0x3d77db8b	0.060512107
87	0xbe0b71bc	-0.13617605
88	0x3dc78b2e	0.09743343
89	0x3df9fa97	0.12205999
90	0x3dc46ee7	0.095914654
91	0x3e312ab0	0.1730144
92	0x3dfcd876	0.12345974
93	0xbdb86015	-0.09002701
94	0xbda697b3	-0.08134403
95	0xbe585ee8	-0.21129954
96	0xbd82056d	-0.06348691
97	0x3de99f0b	0.11407288
98	0x3e75275f	0.239408
99	0xbce02b48	-0.027364388
100	0xbe65b679	-0.22432889
101	0x3da4b074	0.08041468
102	0xbe440266	-0.1914154
103	0xbd92921e	-0.07156776
104	0xbe23a7c8	-0.15981972
105	0xbe264306	-0.16236505
106	0xbe002b23	-0.12516455
107	0xbedf1216	-0.43568486
108	0xbcef8eb1	-0.029242845
109	0xb915bcd9	-0.00014280099
110	0x3e34903a	0.17633143
111	0xbcbf755d	-0.023371393
112	0xbd60174a	-0.05470971
113	0x3dbd11ac	0.09231886
114	0x3d02e1fe	0.031953804
115	0x3e0152f3	0.12629299
116	0x3cf93b16	0.030423682
117	0xbeb76c8c	-0.35825002
118	0x3d4c0519	0.04980955
119	0x3d2996a0	0.041403413
120	0xbcbacd59	-0.022802996
121	0x3d8e6279	0.06952376
122	0xbcc6e3c7	-0.024278535
123	0xbdad3858	-0.08458012
124	0xbdc20a02	-0.09474565
125	0xbdafadb9	-0.08578057
126	0xbe44878e	-0.19192335
127	0x3e30f348	0.17280304
128	0xbd6fc56d	-0.05853789
129	0xbdb26f2f	-0.08712613
130	0x3e9e4eb7	0.3091943
131	0x3e12df7b	0.14343064
132	0xbe6f27d8	-0.23355043
133	0xbbdc846b	-0.0067296526
134	0x3e02025a	0.1269621
135	0xbe03bd31	-0.1286514
136	0xbcb509ff	-0.022099493
137	0xbd275241	-0.040849928
138	0xbcf57e23	-0.029967373
139	0xbd158abb	-0.036509257
140	0xbe443de8	-0.1916424
141	0x3e125241	0.1428919
142	0x3df10cdd	0.117700316
143	0xbcbf9dd3	-0.023390686
144	0xbcd0fcfd	-0.02551126
145	0xbcf761b5	-0.030197958
146	0x3e636a23	0.22208457
147	0x3d8e5d58	0.06951398
148	0xbdc354cc	-0.09537658
149	0xbdb506d8	-0.08839196
150	0xbd5f2a2b	-0.054483574
151	0x3e29fa78	0.16599452
152	0x3da74235	0.08166925
153	0xbd6f90dd	-0.05848776
154	0xbde6e9a8	-0.11275035
155	0xbe2fcf32	-0.17168882
156	0x3e4c814c	0.19971198
157	0x3d16bf5f	0.0368036
158	0x3c656d8c	0.014003169
159	0x3e0c3779	0.13693036
160	0x3e18b6be	0.1491346
161	0x3e66bd21	0.22533084
162	0x3cae2457	0.021257563
163	0x3dcd2664	0.10017088
164	0xbe0086c7	-0.12551413
165	0xbe30ee02	-0.17278293
166	0xbe58ffc5	-0.21191318
167	0xbe0f0ac9	-0.13968958
168	0xbc7e3904	-0.015516523
169	0x3d599fd1	0.05313093
170	0xbe2011fa	-0.15631858
171	0xbe074b16	-0.13212237
172	0x3d486f89	0.048934493
173	0xbd58f154	-0.052964523
174	0x3d9bc86b	0.07606586
175	0xbd78d97c	-0.060754284
176	0x3df058a2	0.11735655
177	0xbc278d7e	-0.010226605
178	0x3d7e1382	0.062030323
179	0xbdc3a04c	-0.095520586
180	0x3df5bb92	0.11998667
181	0x3e00f23d	0.12592407
182	0x3c1733a6	0.009228623
183	0x3dcfdea8	0.1014989
184	0xbc739b2c	-0.014868539
185	0x3d8b9687	0.0681582
186	0x3d5e09ac	0.054208443
187	0xbd768c3d	-0.060192335
188	0xbe165fd8	-0.14684999
189	0xbc621784	-0.013799552
190	0xbe8293c0	-0.2550335
191	0xbdd0641f	-0.101753466
192	0x3df2c52d	0.118540145
193	0xbde6ae4e	-0.11263715
194	0x3da7c8b9	0.08192582
195	0xbeb0b7ea	-0.34515315
196	0x3d418e26	0.047254704
197	0xbe8aa238	-0.27076888
198	0x3c618b57	0.013766131
199	0xbe31ae12	-0.17351559
200	0xbe61b68f	-0.22042297
201	0x3ddfc311	0.10925878
202	0x3cacbab3	0.021085119
203	0x3d0a3c44	0.03374888
204	0xbda1c47b	-0.07898804
205	0xbc4160d5	-0.011802872
206	0x3e1606f6	0.14651093
207	0x3d2b5c90	0.04183632
208	0xbdbeddb0	-0.09319627
209	0xbe3cf1ad	-0.18451567
210	0xbe39b627	-0.18135892
211	0x3d8710a9	0.065949745
212	0x3daf1f59	0.08550901
213	0xbdabab97	-0.083823375
214	0xbda51432	-0.080604926
215	0x3d982225	0.074283876
216	0xbe332231	-0.17493512
217	0xbdc1ca97	-0.09462469
218	0x3d51bb3e	0.05120396
219	0xbcfce868	-0.030872539
220	0x3dc9d823	0.09855678
221	0x3ce8404f	0.028350977
222	0x3d83216d	0.0640286
223	0x3e27165f	0.16317128
224	0xbe22221a	-0.15833321
225	0x3c693740	0.014234364
226	0xbd91cd59	-0.07119245
227	0xbe1b6d21	-0.15178348
228	0xbe28e802	-0.16494754
229	0x3c330092	0.010925429
230	0x3dcd7ed6	0.10033958
231	0x3dd109ad	0.10206924
232	0x3d5ec815	0.05439003
233	0x3daa0fbc	0.08303782
234	0x3db024d8	0.086007774
235	0x3e386115	0.18005784
236	0xbdb1ad23	-0.08675601
237	0x3d16fb3c	0.03686069
238	0x3db3d626	0.0878108
239	0x3dcb1d05	0.099176444
240	0xbcda86dd	-0.026675636
241	0xbe6cff11	-0.23144175
242	0x3d3a2106	0.04544165
243	0xbe134cad	-0.14384718
244	0x3d900ca2	0.070336595
245	0x3e07fcd3	0.13280039
246	0xbdb43694	-0.087994725
247	0xbe22f7f5	-0.159149
248	0x3d18100d	0.037124682
249	0xbc84a062	-0.016189758
250	0xbe1eebaa	-0.15519586
251	0x3dfbdb10	0.12297642
252	0xbeb059af	-0.34443423
253	0x3d721dfa	0.05911062
254	0x3d674d15	0.056469996
255	0x3e25c5e0	0.16188765

weight f4 [192]
0	0x3ede28df	0.43390557
1	0x3f163ede	0.5868968
2	0x3f17719d	0.59157735
3	0x3f190dfa	0.5978695
4	0x3f3c05c5	0.73446304
5	0x3f15470b	0.5831153
6	0x3f429626	0.7601036
7	0x3f1cdeb6	0.6127733
8	0x3edd607c	0.43237674
9	0x3f10c595	0.56551486
10	0x3eeb0e3e	0.45909303
11	0x3ef49fc4	0.47778141
12	0x3f0c399d	0.5477541
13	0x3f06928c	0.5256736
14	0x3ee12ed8	0.4398105
15	0x3f093b5c	0.536062
16	0x3efc2d1a	0.4925316
17	0x3f174c67	0.59100956
18	0x3ef2c293	0.47414073
19	0x3f1b36bf	0.6063041
20	0x3f02d2a9	0.5110269
21	0x3f2adea0	0.6674595
22	0x3ec01989	0.37519482
23	0x3eef08ca	0.46686393
24	0x3f190b69	0.59783036
25	0x3f09be82	0.53806317
26	0x3f1dbf72	0.6162025
27	0x3f45f295	0.77323276
28	0x3f0e3e27	0.55563587
29	0x3eeb5763	0.45965108
30	0x3f0483fb	0.51763886
31	0x3ee0033d	0.4375247
32	0x3ee595be	0.44840807
33	0x3f341301	0.703415
34	0x3ee3df5f	0.44506356
35	0x3f00efda	0.50365984
36	0x3ee72b52	0.45150238
37	0x3ef1fbcd	0.4726242
38	0x3ebed5e9	0.37272575
39	0x3f0ecfd4	0.5578587
40	0x3f0b2b3b	0.5436284
41	0x3ee4f214	0.4471594
42	0x3f28cb09	0.6593481
43	0x3f0703fc	0.52740455
44	0x3f0c4a91	0.5480128
45	0x3f07172f	0.5276975
46	0x3f0eff4f	0.5585832
47	0x3f127bfd	0.5722044
48	0x3f33eda8	0.7028451
49	0x3f21dd3e	0.63228214
50	0x3f2e156b	0.6800143
51	0x3eff4de2	0.49864107
52	0x3f26e3e8	0.6519151
53	0x3f2e55f8	0.6809993
54	0x3f1f042b	0.62115735
55	0x3f01dd9f	0.5072879
56	0x3eda8f40	0.42687416
57	0x3ee0a5ed	0.4387659
58	0x3f05d95a	0.5228478
59	0x3f272c34	0.65301824
60	0x3ef8e561	0.48612502
61	0x3f043c62	0.51654637
62	0x3f18f5f4	0.59750295
63	0x3f68bf3b	0.90916795
64	0x3f1c9fe3	0.6118147
65	0x3ee3b55f	0.44474313
66	0x3f18755e	0.5955409
67	0x3f0cf7c7	0.5506558
68	0x3f08db5e	0.5345973
69	0x3f038417	0.5137343
70	0x3f07db3b	0.53068894
71	0x3f0674cc	0.5252197
72	0x3f096eb5	0.5368455
73	0x3f05b822	0.5223409
74	0x3f4f9240	0.81082535
75	0x3f1f7d69	0.62300736
76	0x3f08c404	0.53424096
77	0x3f0e62f9	0.5561977
78	0x3f094dca	0.5363432
79	0x3f207623	0.6268026
80	0x3f2d35f9	0.6766048
81	0x3f14e801	0.5816651
82	0x3f04c74d	0.5186661
83	0x3ed615bf	0.41813466
84	0x3f07d92e	0.53065765
85	0x3efb75ee	0.4911341
86	0x3ef3c3e7	0.476104
87	0x3efc3442	0.4925862
88	0x3ef19375	0.47182813
89	0x3f7c1acf	0.98478407
90	0x3f3412e2	0.7034131
91	0x3f2fe0d1	0.6870242
92	0x3f08d2f5	0.53446895
93	0x3eeaefc9	0.45886067
94	0x3f28e07d	0.6596754
95	0x3efdbe94	0.49559462
96	0x3eedca72	0.46443516
97	0x3eb27a3d	0.34858885
98	0x3fb4efc4	1.4135671
99	0x3eecdcad	0.46262112
100	0x3ed54647	0.4165518
101	0x3ee9f8a2	0.45697504
102	0x3f00e1c3	0.50344485
103	0x3f65b257	0.8972525
104	0x3ee78341	0.45217326
105	0x3eda7bae	0.42672485
106	0x3f1544ac	0.5830791
107	0x3f3778d4	0.71668744
108	0x3f005238	0.50125456
109	0x3f1eb00f	0.61987394
110	0x3f0abce3	0.5419447
111	0x3ebb542f	0.36587664
112	0x3ef7830f	0.48342177
113	0x3f3015cf	0.6878328
114	0x3eed97f7	0.46405002
115	0x3ef58e9e	0.4796037
116	0x3ee4ea49	0.44709995
117	0x3f2e135c	0.6799829
118	0x3f1502ab	0.58207196
119	0x3f0c5e06	0.5483097
120	0x3f2a8e25	0.66623145
121	0x3efb3957	0.49067184
122	0x3f3f89f5	0.7481988
123	0x3f1e5622	0.6185018
124	0x3eed599f	0.46357438
125	0x3ee1962b	0.44059882
126	0x3f228327	0.6348137
127	0x3f0df930	0.55458355
128	0x3f1ce21d	0.6128252
129	0x3f196557	0.5992026
130	0x3f097bac	0.53704333
131	0x3f041cf6	0.5160669
132	0x3f129490	0.5725794
133	0x3f3b2e65	0.7311767
134	0x3eda683f	0.42657658
135	0x3ed8a991	0.4231687
136	0x3f11c015	0.5693372
137	0x3f098a15	0.5372632
138	0x3f04d8b5	0.5189317
139	0x3f18477e	0.5948409
140	0x3ece73cc	0.4032272
141	0x3edbafce	0.42907566
142	0x3ef978ef	0.48725078
143	0x3eb84219	0.35987929
144	0x3ed2192f	0.4103484
145	0x3ef0742a	0.46963626
146	0x3f08afb7	0.5339312
147	0x3effa749	0.49932316
148	0x3f072561	0.5279141
149	0x3ee84c23	0.45370588
150	0x3ee0a657	0.43876907
151	0x3f1286bf	0.57236856
152	0x3f1e2e7e	0.6178969
153	0x3f098e15	0.53732425
154	0x3ef8b098	0.4857223
155	0x3edb58ef	0.42841288
156	0x3f116192	0.56789505
157	0x3f031d09	0.5121618
158	0x3f1e39c0	0.6180687
159	0x3f3114c0	0.69172287
160	0x3ef93179	0.48670557
161	0x3f04d3bd	0.51885587
162	0x3f1930b4	0.5983994
163	0x3efc9095	0.49329057
164	0x3f130972	0.5743629
165	0x3ed3881e	0.41314787
166	0x3f1486ad	0.58018
167	0x3f515481	0.8176957
168	0x3f23459e	0.637781
169	0x3ee05427	0.43814203
170	0x3f51c3cb	0.8193938
171	0x3f102705	0.5630954
172	0x3f08de2c	0.5346401
173	0x3f143464	0.5789244
174	0x3f21efa0	0.63256264
175	0x3ed12180	0.4084587
176	0x3f0f5164	0.5598357
177	0x3ee50c9e	0.4473619
178	0x3f07bd33	0.5302307
179	0x3ed51e88	0.41624856
180	0x3f0b8d03	0.5451204
181	0x3ed94b9b	0.42440495
182	0x3f0bf105	0.5466464
183	0x3f4153dc	0.75518584
184	0x3ecc1175	0.3985707
185	0x3f1bace9	0.60810715
186	0x3f0de842	0.5543252
187	0x3f4c4801	0.7979737
188	0x3f02c7fe	0.51086414
189	0x3f0c4a41	0.548008
190	0x3ed9d959	0.42548636
191	0x3f5cf266	0.8630737
