models/MLR_ANN_epoch16.pt (torch, 88584 bytes, 2 tensors)

weight f4 [88, 244]
000000 0a e3 37 3c 47 69 8c 3c b4 16 19 bd a7 d5 1f 3d
       0.011223564 0.017140044 -0.037375167 0.039022114
000010 82 bd ec bc 18 58 59 3b 4e 5f 29 bd de f3 a7 3c
       -0.028898958 0.003316408 -0.041350655 0.020502027
000020 7a 25 17 3d 5a 4c 76 bd 30 dd 45 3d 59 46 5f 3b
       0.036900975 -0.06013141 0.048306644 0.003406903
000030 d1 e7 05 3d 65 8f 38 bc 9e cf 15 3c ec 6a e5 bc
       0.03269178 -0.011264657 0.009143738 -0.028005086
000040 eb 76 0c 3d 69 9c 17 b9 b4 b8 0d bd f8 59 6c 3c
       0.034293097 -0.0001445875 -0.034599975 0.014425747
000050 8a 25 f4 bc 70 19 51 bb 33 af 31 bc 01 ae 5c 3d
       -0.029803056 -0.003190603 -0.010844993 0.05387688
000060 83 f3 14 bd 33 3f e1 bb c1 bf 96 3b 10 7e 93 bc
       -0.036365043 -0.006873989 0.0046004956 -0.018004447
000070 30 2a c9 3c 56 b8 44 bd c6 37 87 3d 23 84 5e bd
       0.02455625 -0.04802736 0.06602435 -0.054325234
000080 9d d7 19 3d 3a 39 91 bb 25 56 02 bd 15 4f e4 3c
       0.03755914 -0.0044318708 -0.031820435 0.02786974
000090 eb 3a 12 bc 7a 6c ec 3c ba 2c 68 bc 5b b8 18 bd
       -0.00892518 0.02886032 -0.01417082 -0.03728519
0000a0 83 c5 64 3b 58 db f7 bc bd 12 48 3c 12 b3 1b 3d
       0.0034907765 -0.030255958 0.012211499 0.03801257
0000b0 5e c8 8f 3c fe e5 13 bd 5f 26 3a 3d c8 1b 01 bc
       0.017551597 -0.03610801 0.04544675 -0.007880159
0000c0 f2 c8 02 3c 77 31 60 bc 4a 8f 40 bc bc 41 37 3c
       0.007982479 -0.013683668 -0.011752913 0.011185106
0000d0 45 cd 28 bd 57 ca 1f 3d 4b 7a 21 bb f1 30 ed 3b
       -0.041211385 0.039011326 -0.0024639543 0.0072385003
0000e0 38 d6 c5 3b 71 d2 03 bc 08 65 41 3d 95 2c 3c bd
       0.0060374998 -0.008045779 0.04721549 -0.045940954
0000f0 0d ca cd 3b d4 8f 1d bd 9c 87 d7 3c 83 8d 87 bc
       0.00628019 -0.038467243 0.02630978 -0.01654697
000100 88 46 bb 3c 99 47 35 bc 48 3f 49 3d f9 45 da bc
       0.02286078 -0.0110644335 0.049132615 -0.026644694
000110 7b 66 dc bc 6b 56 2b bd f1 c4 33 3d 07 a7 e9 3b
       -0.026904335 -0.04183046 0.04388899 0.007130507
000120 92 2c 6a 3d 28 15 30 bd 83 8b 3d bd c8 21 fd bc
       0.05717141 -0.042988926 -0.046275627 -0.030899897
000130 21 37 d8 bc b2 4d 13 3d f1 1d ea 3c 62 44 70 3d
       -0.026393475 0.035962768 0.02857873 0.058658965
000140 38 3d d6 bc 14 fa 1a bd 58 ec 17 3d ad ea c9 bc
       -0.026152238 -0.03783615 0.03709063 -0.024648035
000150 b5 01 24 3d fa 29 4f bc c0 3d 29 3d c8 55 29 bd
       0.04004069 -0.012644285 0.041318655 -0.041341573
000160 a6 01 34 bc 48 f1 76 3b 11 c4 53 bb 27 18 9c bc
       -0.010986721 0.0037680436 -0.003231291 -0.019054485
000170 b0 c0 b3 3c 6f 8c fb 3c 3f 99 0e bd 81 d7 df bc
       0.021942466 0.030706612 -0.034814116 -0.02732444
000180 e4 52 44 3d 0e 03 64 bc d8 8d 17 3c 38 3a 80 bc
       0.047930613 -0.013916744 0.009250127 -0.01565276
000190 b3 84 1f bb 83 b8 04 3d f9 a1 44 3b 6d ca f0 bc
       -0.002434057 0.032402527 0.003000377 -0.0293934
0001a0 5f 41 d9 3c 3b aa 35 bc 59 ae 8a bc a7 e2 6a 3b
       0.02652043 -0.011087949 -0.016928839 0.0035840662
0001b0 ca e7 91 bc a1 9c 90 bb a6 4b d1 3c 5d 89 02 bc
       -0.017810721 -0.004413203 0.025548767 -0.00796732
0001c0 4a 6c d6 3b 59 89 67 bc f8 98 1c bc 95 e3 a2 bc
       0.006543671 -0.014131867 -0.009557955 -0.01988391
0001d0 ef ff 51 3c 32 64 df bc a6 5a 4d 3c 25 d0 46 3a
       0.012817367 -0.027269457 0.012533819 0.00075841165
0001e0 f6 b8 6d 3c cb 10 b0 bc 35 26 41 bb a4 3c ad bc
       0.01450943 -0.021492383 -0.0029472236 -0.02114708
0001f0 91 a3 e5 bb 58 45 2a bb 9f 7e fb 3a e3 17 2e bd
       -0.007008024 -0.0025981274 0.0019187516 -0.04250325
000200 99 07 3d 3d fa 27 f5 bc 2d 6a f2 3c fa 88 c6 bb
       0.046149824 -0.029926289 0.029591644 -0.0060588093
000210 57 82 c2 bc 78 33 15 3d 29 3c 1a bb 24 08 a1 ba
       -0.023743792 0.036426038 -0.0023534393 -0.0012285751
000220 41 59 c0 bc 4a 94 e1 bc 1d 23 15 3d 94 b1 d6 bb
       -0.02348006 -0.02753653 0.03641044 -0.0065519307
000230 4a f2 03 3d 79 13 1f bd 04 59 52 3d 9d f6 11 bd
       0.032213487 -0.03883693 0.051354423 -0.03563558
000240 a7 0b 95 bb f6 99 f7 ba 66 46 c3 ba c6 f1 64 3c
       -0.004548508 -0.0018890488 -0.00148983 0.013973659
000250 55 b2 11 3d 11 9f 4e bd bd f2 fb 3c 92 98 06 bc
       0.03557046 -0.050444666 0.030755395 -0.008215087
000260 3e 2a 6a 3c 63 b5 b8 bc 2e d9 c7 3c 99 68 13 bd
       0.014292298 -0.02254743 0.024395552 -0.035988424
000270 39 62 5e 3c e7 01 00 ba 60 67 95 3c eb 1d 1c bd
       0.013573223 -0.0004883096 0.01823777 -0.03811447
000280 17 f5 05 3d 0c a7 13 bc db 8f d3 3b ec 13 32 bd
       0.03270444 -0.009011995 0.006456358 -0.04347603
000290 77 21 05 3d 83 4c 09 ba e2 2d df bc eb 52 16 3d
       0.032502618 -0.00052375364 -0.027243558 0.03670017
0002a0 9d c3 c6 3b 69 25 d0 bc 0f 5b 87 bc 72 e3 31 3c
       0.0060657994 -0.025408464 -0.016522912 0.01085745
0002b0 ee 30 41 3d 9a c3 4b bb 68 1f aa bc c4 d0 f7 bb
       0.047165804 -0.003109193 -0.020766929 -0.0075627286
0002c0 ee ac 6a 3b 7b 87 38 3c c6 68 92 3c 9c bc 09 bd
       0.003580864 0.01126277 0.017872225 -0.033627138
0002d0 15 29 d1 bb db 1d a8 bb d3 c1 e4 ba 4b 0b cc bc
       -0.006383071 -0.005130512 -0.0017452784 -0.024907729
0002e0 fd e9 6a 3c a6 b5 bf 3a 0d d2 87 3a 54 37 2e bc
       0.014338014 0.0014626279 0.0010362283 -0.010633308
0002f0 0d 2a 76 bc a4 9f 15 3b eb 05 8e bc 07 4b 11 bd
       -0.015024674 0.002283075 -0.017336806 -0.035471942
000300 7a 84 54 3c 66 5f fd 3c f0 bc 78 bc a9 f0 57 bc
       0.012971038 0.030929279 -0.015181765 -0.013179936
000310 1f 97 8f 3b be 22 0d 3a 0a e3 ee bb 42 55 8a 3b
       0.0043820287 0.00053839 -0.0072902488 0.0042215893
000320 2d 64 5b bc 11 8e 77 bc a7 50 d9 3b ae 85 50 bb
       -0.013390583 -0.015109555 0.006631929 -0.003181796
000330 f6 0b 4a 3b 53 8d 2c bb ef bf b3 3a 4c c6 68 bc
       0.0030829883 -0.0026329353 0.0013713817 -0.014207434
000340 da be d0 bb bc 28 ae 3a a4 33 94 3b a4 25 9e 3c
       -0.0063704075 0.0013287286 0.0045227576 0.019305058
000350 77 4c 96 bc 86 b5 f4 bb fc 55 1b bc e3 82 28 3d
       -0.018347008 -0.0074679283 -0.0094809495 0.04114045
000360 78 75 e2 bb 5e bb b2 bc 52 62 e6 3c b7 20 80 bc
       -0.006910976 -0.02181786 0.028123055 -0.0156406
000370 04 f2 b7 bc 76 84 c5 3c c7 4c 85 bc b7 0c 79 3c
       -0.02245427 0.024111014 -0.016271962 0.015200785
000380 4f 4b a3 bc ba 4d 86 3c d7 ef 27 bb fa 4d a5 3b
       -0.01993337 0.016394485 -0.0025625133 0.005044696
000390 53 09 11 bc 8f 58 42 bc e5 bb ac bc 69 72 dd 3c
       -0.008852321 -0.011861934 -0.021085689 0.027032094
0003a0 cc a9 b4 3a e6 69 74 3c 10 45 f8 38 52 7d 27 3b
       0.0013783514 0.014917826 0.000118384254 0.0025556874
0003b0 fe 8f 68 3c 33 c8 fa bb 2a 27 fc bb 9e fb bc bc
       0.014194487 -0.00765326 -0.0076950984 -0.0230692
0003c0 6e 9c 47 3d 70 d2 60 bc 5a a2 92 3b 0c c6 9a 3b
       0.048733167 -0.013722047 0.00447492 0.004723316
0003d0 4c f8 44 3c e4 ea c0 bc 4c 54 7b bc df b1 4c 3d
       0.012022089 -0.023549505 -0.015339922 0.04997432
0003e0 bb 1c 7b 3b ff 82 62 3d 4b 74 08 bc d7 8e 16 bd
       0.0038316685 0.05530071 -0.008328508 -0.036757316
0003f0 36 ec ad bb d5 84 de bc 51 6c 3f bc eb 3d 56 bd
       -0.0053076996 -0.027162949 -0.0116835395 -0.052305143

bias f4 [88]
000000 6b 40 c0 3a a9 34 0e 38 c5 80 17 39 bf 35 35 bb
       0.0014667636 3.3904482e-05 0.00014448453 -0.0027650443
000010 6e 4a 4d ba 2a 58 67 bb 4b 93 e3 bc 06 0f b7 bd
       -0.000783122 -0.0035300353 -0.027780196 -0.08938412
000020 85 b5 4b be 6a 7d b9 be 17 aa 0d bf d1 b4 3b bf
       -0.19893463 -0.36228496 -0.5533766 -0.7332278
000030 d1 a4 6f bf d6 05 90 bf ca 87 99 bf 1b 1f 9d bf
       -0.93610865 -1.1251781 -1.1994565 -1.2275118
000040 28 25 95 bf db 8c 7e bf b2 e4 42 bf 2b 0a 04 bf
       -1.1651964 -0.9943368 -0.7613021 -0.51578015
000050 c4 25 9b be 98 ee cc bd b8 ae ed 3c 55 f3 15 3d
       -0.3030225 -0.10006446 0.029013976 0.036609013
000060 74 2c 25 3d 77 1a 62 3d 06 96 30 3d 5a 11 e3 bc
       0.040325597 0.05520102 0.043111823 -0.027718235
000070 c5 cc 03 be 29 2e 57 be b2 79 b2 be e3 9f de be
       -0.12871082 -0.21013702 -0.3485847 -0.4348136
000080 f9 06 de be 86 93 b4 be b9 bd ea be af 6b 0a bf
       -0.43364695 -0.352688 -0.45847872 -0.5407056
000090 30 17 19 bf e6 2b 27 bf b0 1e 29 bf 77 e7 28 bf
       -0.59801006 -0.6530136 -0.6606245 -0.6597819
0000a0 b6 e7 26 bf 6f 08 11 bf e3 c6 b2 be f5 ff a2 bd
       -0.6519731 -0.56653494 -0.34917364 -0.07958976
0000b0 f9 84 d5 3d f2 ec 09 3e f8 75 2a 3e d0 21 49 3e
       0.10425753 0.13469294 0.16646564 0.19641805
0000c0 68 59 66 3e 21 2c 83 3e 4c 0b 8f 3e 8e d3 98 3e
       0.22495043 0.25619605 0.27938306 0.29848903
0000d0 53 48 a3 3e 2d 2f 9e 3e 28 22 8b 3e 51 bb 85 3e
       0.31891116 0.30895367 0.27174497 0.26119474
0000e0 0b f1 91 3e 4d a7 a4 3e 67 ca ab 3e 60 63 a0 3e
       0.28504214 0.3215889 0.33552858 0.31325817
0000f0 a6 94 78 3e 7b 3c 18 3e c7 5d 8e 3d 44 39 a2 3c
       0.24275455 0.14866821 0.0695148 0.019802697
000100 b6 f1 8c 3c 5e 1a 81 3c f9 8f 0d bd 0c 5a 33 bd
       0.0172051 0.015759643 -0.03456113 -0.043787047
000110 a0 26 57 bd 53 66 85 bd 07 ed b7 bd 84 57 07 be
       -0.05252707 -0.065136574 -0.08980756 -0.13216978
000120 a8 68 28 be 6a bb 35 be d9 76 4e be a9 5d 77 be
       -0.16446173 -0.17747274 -0.20162524 -0.24156822
000130 35 66 8d be b3 b5 a5 be 0d c2 ba be 55 ea db be
       -0.2761704 -0.32365188 -0.36476174 -0.4295222
000140 63 10 05 bf 91 67 14 bf a1 c7 16 bf 4a b1 11 bf
       -0.5197813 -0.5797053 -0.5889836 -0.56911147
000150 dc 19 fc be 4c a7 bd be ab ea 46 be c0 22 4c bd
       -0.4923848 -0.370417 -0.19425456 -0.049837828
