models/nn_to_lev_cat03_epoch16.pt (torch, 340530 bytes, 43 tensors)

weight f4 [224, 16]
00000000: cdad 4e3e 7a8f 813e 9ca1 dfbe 0347 ae3e
00000010: 7745 bdbd 059a 3abe 60f3 3cbe 96b6 8d3d
00000020: 62c1 033f 4764 81be b66a 9e3e f383 1b3e
00000030: 45e1 d73d 956a 6ebd b51c dfba 224d a6be
00000040: 05bb 893e e6a3 93bd 2feb 61be 953d 913e
00000050: ebf8 bebe 6436 4b3d 0002 30be 56a2 363f
00000060: e27e 10bf 9247 d7bc bc44 a43d 1c19 51bd
00000070: b42d a13c a720 a1be 3843 913e 9ee7 1cbe
00000080: 9978 e63d 61a1 cbbc 0b94 b2be 4cc0 933e
00000090: ac28 9d3d a1d4 1e3e cc90 843e 2b8e 7dbe
000000a0: 0cda 44be d263 7cbe 3338 1d3e 1680 eb3e
000000b0: 55b8 dc3d 9e6d fabd 5f65 3b3e 4fb0 b03e
000000c0: 6dd0 fd3e c9f1 1ebe 7ad3 bbbe 80d5 4ebd
000000d0: 09f8 f8be 5ed0 063f ac26 2abd 24ca d83e
000000e0: 8d90 c8be 4732 3cbd 696d 983e b428 6abe
000000f0: ee2a 0f3d bfae 2abe 0019 2a3e 6de5 2f3c
00000100: 1b87 273e 8e65 cdbd e5eb 48bc e4c1 22be
00000110: de38 e6bd dab4 9ebd 87e0 2b3e 2668 903d
00000120: c41d 073e 8e62 5a3c 2daf cbbd ccb4 033d
00000130: 3243 76be 66b1 e13d 8310 ba3d 034c 813e
00000140: 6ea8 04be 448c 9ebe 2d96 d53e 071e 8bbe
00000150: cd5f f63e 8217 36be 211a 3e3f 398c ddbe
00000160: 9ee0 f4be 8151 f73c 15c2 9e3c f45d a5bd
00000170: 20d7 fc3c b159 793e 63a6 7bbe c1b9 783c
00000180: d62a 84b8 fd02 3ab8 7b83 abb8 c2c7 553a
00000190: 879c 753a 82c3 623a b1ec 12ba 4239 fcb9
000001a0: 000f bcb9 0132 be39 3917 5a39 4bfe 7239
000001b0: 990b 89b9 78f7 a237 2499 5137 38d5 90ba
000001c0: dc24 2d3e af7f 66be 9517 b9be 7816 b33d
000001d0: b374 8cbd a796 eabe 3e1b 683c 8468 5bbd
000001e0: 80c5 8abd 4303 08be 04b0 16be 5474 dabc
000001f0: 4bf6 3f3d fcaf 47be 7d14 53be e39c 68be
00000200: b78b d23d 2523 17be 1937 0e3e 2f34 a93d
00000210: 86aa 56be a020 723e b77f 0c3e 8dfc 15be
00000220: 9683 e6be a299 84be e5bf 9c3d 9980 0e3c
00000230: c07d 44bc a5c4 88be fa08 853e 6c2d 11be
00000240: 5255 5cbe fc3d e73c 18e4 1c3e 3aa2 013e
00000250: 685e 693e 4f58 9dbe ce58 243e 8bc3 913c
00000260: d8b1 5b3d d9d9 90be 9c5a b93e 1b5e 9dbd
00000270: 518a e83d 27e1 0cbc 3db0 d9bd c695 a6bd
00000280: a5d0 f43e c766 0abd 165b a7be 411a 07bf
00000290: 5e6b 9d3d 16cc 4d3e a7bd 9cbd b64b cb3e
000002a0: 4b74 bf3e 6e07 02be e6df 06be 2ad4 063e
000002b0: 7cc9 8a3e 16f3 c3bd ef8e 25be 1342 24be
000002c0: 0363 14bf f12c de3c cfcf ea3e 8ecd f9be
000002d0: cef5 8b3e 5b14 8e3e 0060 603d cb90 1abf
000002e0: 04ca 0c3f 2f66 9f3d 3764 3cbd 76cd 47bc
000002f0: c53c 48bd 0006 6c3d ac0d 323d 0260 353d
00000300: 5a1c bf3e e400 f73d 33b3 2fbe d59c 1d3d
00000310: 740a 813d 0792 933d c3c0 d33e 648b a03d
00000320: 6d01 c0be 68c8 89be 28f4 623e 4831 2d3e
00000330: e66c 6d3d 0d15 dbbc 46cd 3fbe b5a2 4fbe
00000340: 8b3f 3dbe a468 083c 1585 443e b677 ba3e
00000350: 4808 8bbe 79ee f7bd 6665 0dbf b3e6 813f
00000360: fa53 c5be 51e4 e2bd 280c 733e 2e8e 0abe
00000370: 786d 1cbe 4ff7 8c3e c05e 0fbe 4884 913c
00000380: b1e0 9ebe 8d25 8f3e 91e3 9e3e 879f a73e
00000390: 1408 02be 2a02 dbbe a0df 65be 79a7 853e
000003a0: e38f 2c3e 8180 ccbb 43b5 053c 8bee 2e3e
000003b0: 9451 d83d 0ab6 e5bc b69a 7dbe f7d3 82bc
000003c0: 995d b0ba 5599 1c3d a934 2cbe 43ba e6bd
000003d0: d461 01bd b97f 0ebd 0932 56bd d274 3a3d
000003e0: 2d49 fabd 4c58 bd3e 32fb b13c 6abc c8be
000003f0: 1fca 7c3d aef3 64bb f7db 6fbe db14 27bd
0.20183487 0.25304776 -0.43677986 0.34038553 -0.09241765 -0.18222816 -0.18452215 0.06919591
0.51466954 -0.25271818 0.3094079 0.15187053 0.10541014 -0.058207113 -0.0017022105 -0.32480723
0.26900497 -0.072089955 -0.22062372 0.28367296 -0.37299284 0.049612418 -0.17188263 0.71341455
-0.5644361 -0.026279245 0.080209225 -0.051049337 0.019675113 -0.31470224 0.28371596 -0.1532273
0.11253471 -0.024857225 -0.34878573 0.28857648 0.07673773 0.15510799 0.2589172 -0.24761264
-0.19223803 -0.24647453 0.1535347 0.4599616 0.10777346 -0.12227939 0.18300389 0.34509513
0.4957308 -0.15521921 -0.3668478 -0.05049658 -0.48626736 0.52661693 -0.041540787 0.4234172
-0.39172783 -0.045946386 0.29770973 -0.2286709 0.03495305 -0.16668223 0.16611099 0.010735852
0.16360132 -0.10029136 -0.012263273 -0.15894276 -0.11241315 -0.077493384 0.16784869 0.07051115
0.13194948 0.013329161 -0.099455215 0.032154843 -0.2404907 0.11020164 0.090851806 0.25253305
-0.12954876 -0.3096639 0.41716138 -0.27171347 0.48119965 -0.17782405 0.7425862 -0.43271044
-0.4782762 0.030190231 0.019379655 -0.08074561 0.030864298 0.24350621 -0.2457519 0.015181006
-6.302229e-05 -4.434864e-05 -8.1784056e-05 0.00081550714 0.00093693327 0.0008650349 -0.0005604728 -0.00048107846
-0.0003586933 0.0003627688 0.00020798751 0.0002317365 -0.00026139317 1.9427142e-05 1.2493027e-05 -0.0011049872
0.16908592 -0.22509645 -0.36150804 0.0874452 -0.06858196 -0.45818064 0.014166651 -0.05356647
-0.067759514 -0.13282494 -0.14715582 -0.026666798 0.046865743 -0.19500726 -0.20613284 -0.22716098
0.10280555 -0.147595 0.13888206 0.08261906 -0.20963487 0.23645258 0.13720594 -0.14647122
-0.45022267 -0.25898463 0.076537885 0.008697652 -0.011992872 -0.26712528 0.2598341 -0.14177483
-0.21516922 0.028227799 0.15321386 0.12659541 0.2278992 -0.30731437 0.16049501 0.017793437
0.053636402 -0.28291205 0.36201942 -0.07683965 0.11354507 -0.008598602 -0.10629318 -0.08134036
0.47815433 -0.033789422 -0.3268668 -0.52774435 0.07686494 0.20097384 -0.07653361 0.397062
0.37393412 -0.12698147 -0.13171348 0.13166872 0.27106845 -0.09567849 -0.16167806 -0.1604083
-0.5796358 0.02712104 0.4586167 -0.48789638 0.27335972 0.27749905 0.054779053 -0.60377187
0.5499575 0.07783162 -0.04599401 -0.012194982 -0.04888608 0.05762291 0.04347007 0.044281013
0.37326318 0.12060717 -0.17158203 0.038479645 0.06300822 0.07205587 0.41358003 0.07839087
-0.37501088 -0.2691071 0.2216345 0.1691333 0.05796518 -0.026743436 -0.1873065 -0.20276912
-0.18481271 0.0083257295 0.19191392 0.36419457 -0.27154756 -0.12106032 -0.55232847 1.0148529
-0.38540632 -0.11078704 0.23735106 -0.135308 -0.15276134 0.2753243 -0.14000988 0.017763272
-0.310308 0.27958336 0.31032994 0.32738897 -0.12698394 -0.4277509 -0.22448587 0.26104334
0.16851763 -0.006240905 0.008160892 0.17083184 0.10562435 -0.028040905 -0.24766049 -0.015970213
-0.0013455629 0.038232166 -0.16816963 -0.11265995 -0.031587437 -0.034789775 -0.05229381 0.045521565
-0.122209884 0.36981428 0.021726225 -0.3920625 0.061716195 -0.0034935283 -0.23423754 -0.040791374

bias f4 [224]
00000000: 8251 7dbd 6342 26be c5b0 58bd fa6e db3e
00000010: 8079 60be c740 0ebc 5f72 f9b6 a780 9fbe
00000020: b8e7 36bf 538e 2ebf 9db0 01bf 1dec fc3d
00000030: 3f10 c0bd 5850 443f 20f4 c4be 9e64 97be
00000040: 8f30 a6be a70a 02be 4f22 8ebe 4a68 a8be
00000050: 9ff3 d1be ddf2 8a38 3689 2936 1cfc 64be
00000060: c1c3 6e3e a163 74be 884a a4be 9432 24bc
00000070: da70 aebe 0e17 efbe 668d a2be cfdf a2b6
00000080: b071 08bf 444f b2be 02fa 10bf 5c07 8fb6
00000090: b0ac 4bbf 1ba3 abbe 90c8 b6be 1ec0 7bbe
000000a0: b310 dd3d fb29 853e 8fd3 8e3e 2f1d 0ebf
000000b0: 5ff9 9abe fcb1 79be 8653 053e 31f6 d2be
000000c0: 1ecc 03be e5be 15bf a891 0e36 6fb9 a6b6
000000d0: a471 2c3e 6220 c43d e002 93b5 c76d a83e
000000e0: 65f1 0736 f700 7abe 6f9a e0be 562a a5bd
000000f0: 2853 cdbe e257 e53d 0d61 b2be f4a5 ffbd
00000100: 3714 0cbe 7897 63be 5c7f b4b6 c886 7bb4
00000110: b9e4 a8bb f695 4bbf 39ab b43e 105c 54b5
00000120: 37fb cbbe 5e33 51bf c781 1937 99ca 54b6
00000130: bbb5 603e 6cfd b4be f004 fabe 037c d0be
00000140: db78 18bf 3e31 9abe b82e 91be a39a 29be
00000150: 7d0a fcbe 693b d23e 0929 01bf 89ab 83be
00000160: 8d28 a5bf 253d 41bf 4571 c5b7 13c4 39bf
00000170: 8e18 063d cc0b 08bf 0074 a637 76ff b2be
00000180: 3c83 c8bd be48 f8bd 21e5 80bd b723 a3be
00000190: f34e 96be 2d5b 06b7 6024 0eb5 9985 e43e
000001a0: fedf b8be 8411 7eb7 8368 aebe 105b 94be
000001b0: 1ab8 e5be db19 b2be ea72 44bf 612b 963e
000001c0: 7385 abbe bb13 953e 90ac c8be fdf5 9ebe
000001d0: ed23 37be cb2d f73d 57d3 9ebe b685 8b37
000001e0: 9149 3cbf 71fc aebe 92ca 3bbf 5cf8 963d
000001f0: a2dd a0b6 3db8 9cbe 9c93 02b6 4608 fcb6
00000200: 2c47 63bf b0fb 4fbf 850e 953e 2625 91be
00000210: 71f9 43be f253 99b7 1b2c ebbe b501 bebe
00000220: 4f9d 8f3e 603e 8cbf bda8 0b38 3eeb fb36
00000230: 7c3e 1bbe 750f 27b5 44f5 02b6 448a 11b6
00000240: 73c6 d1be 7a1e 53b7 3148 c7be 7a86 b7be
00000250: 53eb bcbd 9a26 38b7 0183 0cbf d53e 3db6
00000260: 147d 4d3f 17cd 2bbf d057 8ab7 1fdf 91bd
00000270: b24a 62bf abf6 85bf 96fd 91bb 04fe 8ebf
00000280: 1a4d b5b4 a8d8 b6be 69f0 70bf 5b82 e03c
00000290: eae1 43be a5ae debd 996a f9be 3aa9 0bbf
000002a0: 6185 78bf da92 4cbd 92fe a9bf 42b4 36bd
000002b0: 3697 9bbe 060f a9bf 2899 5fbd 0fcd 363e
000002c0: 6853 b6bd 4bf8 3dbf cd3a 0cbf 9fd2 9ebe
000002d0: bdc3 bebe c31b a0b7 13e8 41bd b017 c2be
000002e0: 34c7 c83e 9eb2 07bf 1c97 e6bd e45f 433e
000002f0: a106 e9be 4523 f9be a73d 1fbf 3cfa c5be
00000300: 4164 9c3e fe79 aabc ccfb f2be f432 b7be
00000310: 79fa 0ebf e395 1c3f 3838 443e ede0 c9b6
00000320: 655e 3bbf 8861 08bf 1edb 0cbf 86b9 b7b7
00000330: 0ff4 11bf 5b56 55bf 0ec4 56b7 8a4e 2cbf
00000340: 4e64 c1b7 3c1f 72bf 21a7 a53e 4c91 00bf
00000350: 00af 2fb7 bb7f 04b6 2b1f 3a3f 1e49 913d
00000360: 5b24 373d 675b 58bf 07a1 6abe d81f 333d
00000370: a3a3 42be d11b 33bf 5e1b c3be 9f92 a93e
-0.06184531 -0.16236262 -0.052902956 0.42858106 -0.21921349 -0.008682436 -7.434093e-06 -0.3115284
-0.71447325 -0.6818592 -0.50660115 0.123497225 -0.09378099 0.76685095 -0.38467503 -0.29568952
-0.32458922 -0.12699376 -0.2776055 -0.32892066 -0.4100618 6.6255896e-05 2.526283e-06 -0.22361797
0.23316862 -0.2386613 -0.32088113 -0.010021824 -0.34070474 -0.46697277 -0.31748503 -4.854031e-06
-0.53298473 -0.348261 -0.5663148 -4.262589e-06 -0.79560375 -0.33522877 -0.35699892 -0.24585006
0.10794201 0.2600859 0.2789578 -0.5551328 -0.3026838 -0.24384302 0.13020143 -0.41203454
-0.12870833 -0.58494407 2.1244432e-06 -4.968773e-06 0.16840225 0.09576489 -1.095319e-06 0.32896253
2.0257078e-06 -0.2441443 -0.43867823 -0.080647156 -0.40102506 0.11198403 -0.3483967 -0.12482825
-0.13679586 -0.2222575 -5.3792446e-06 -2.342523e-07 -0.005154219 -0.795257 0.35286883 -7.9110123e-07
-0.398401 -0.81719005 9.149727e-06 -3.170839e-06 0.21944325 -0.35349596 -0.48831892 -0.40719613
-0.5955941 -0.30115694 -0.28355956 -0.16562895 -0.49226752 0.4106095 -0.5045324 -0.25716808
-1.2903 -0.75483924 -2.3536975e-05 -0.7256481 0.03273826 -0.53143 1.9842759e-05 -0.34960526
-0.09790656 -0.121232495 -0.06293703 -0.31863186 -0.29357108 -8.008251e-06 -5.2952055e-07 0.44633177
-0.36108392 -1.5143658e-05 -0.3406411 -0.28975725 -0.4486702 -0.3478535 -0.76737845 0.2932997
-0.3350025 0.29116616 -0.39194155 -0.3104705 -0.17884798 0.12069281 -0.31020615 1.6632355e-05
-0.73549753 -0.34176973 -0.7335597 0.073715895 -4.794173e-06 -0.30609313 -1.945743e-06 -7.5111484e-06
-0.88780475 -0.8124342 0.2911264 -0.28348655 -0.19138123 -1.8278111e-05 -0.45932087 -0.37110677
0.28049704 -1.0956535 3.3297332e-05 7.5077687e-06 -0.15160555 -6.223484e-07 -1.9514273e-06 -2.1687165e-06
-0.40971717 -1.2583676e-05 -0.38922265 -0.35844785 -0.09224572 -1.0976242e-05 -0.54887396 -2.8199768e-06
0.8026898 -0.6710982 -1.6491773e-05 -0.07122635 -0.88395226 -1.0465902 -0.0044552786 -1.117127
-3.3769976e-07 -0.3571217 -0.94116837 0.027405908 -0.19129148 -0.108731546 -0.4871414 -0.54555094
-0.9707852 -0.049944736 -1.3280814 -0.0446055 -0.30388802 -1.320771 -0.05458942 0.17851661
-0.08902627 -0.7420699 -0.5477722 -0.31020066 -0.3725871 -1.9086414e-05 -0.047340464 -0.37908697
0.3921448 -0.53006923 -0.112592906 0.19079548 -0.4551287 -0.4865972 -0.6220345 -0.38667476
0.30545238 -0.020810124 -0.4745773 -0.35781062 -0.5585094 0.6116621 0.19162071 -6.0164516e-06
-0.7319091 -0.5327382 -0.55021846 -2.1901691e-05 -0.5701303 -0.83334893 -1.28010415e-05 -0.6730734
-2.30541e-05 -0.9457891 0.32354072 -0.50221705 -1.0471558e-05 -1.9743882e-06 0.7270381 0.07094024
0.044712406 -0.8451447 -0.2291299 0.04373154 -0.19007735 -0.6996432 -0.38106817 0.33119676

weight f4 [224]
00000000: 5429 e03e e27c b63e 94c7 af3e 7e76 653f
00000010: cca7 263e 1af7 473f 8ced 9f38 5559 ee3e
00000020: 63e2 783e c290 9e3e 39f7 e33e 17c1 793f
00000030: f802 053f d816 ae3f 2e52 763f 0750 053f
00000040: d301 1c3f 2773 183f b609 f53e 0dc6 ab3e
00000050: da28 0f3f d549 e339 79b5 71b9 3012 273f
00000060: a166 9f3f 8a41 c43e 6958 503f 7f0a 1d3f
00000070: a5d8 d93e 33ad 203f 8f5f f03e f84d c5b9
00000080: 6f46 b03e fc78 533f ad1d de3e 8bc2 19b6
00000090: e85d f13e 81d0 fd3e 3b55 0e3f 9a61 623f
000000a0: 040f 1d3f 1c4f c93f a3ae c13f 9edc 033f
000000b0: ef87 423f ec81 2b3f 42ed 5a3e cef6 ae3e
000000c0: 7e65 133f 8e4f aa3e 0ac2 8fb9 be28 cf36
000000d0: 5edb ec3e b6e7 0d3f ee55 08b9 c309 d53e
000000e0: 11e1 0f39 1348 d63e 286a 583f b19b 033f
000000f0: 4704 dc3e 11b2 773f 68c7 ee3e c33d 823f
00000100: d189 233f ab94 073f 1d34 8d37 80e2 cc38
00000110: 7c1d 4f3f 9585 f73e 932b 643f f321 a038
00000120: ef08 ee3e f52a 7b3f 00b2 4339 0b3d 9639
00000130: d93a 083f 88e1 0d3f 791b f33e f277 f03e
00000140: 9e12 0a3f f908 0f3f 65fe 0e3f 3500 3d3f
00000150: 8771 c53e 1bc8 d13f db1e ea3e 1b6d 5f3e
00000160: 1eec 8c3e af1d e93e c7bb d638 6ecc cc3e
00000170: 1449 e03e 21a2 053f 0d59 6e39 0a49 e23e
00000180: 2467 3e3f 9875 363f 757b 143f c66e 1e3f
00000190: 5946 8a3e 5be9 6638 c9ce 0839 06a0 743f
000001a0: 036f f43e f533 99b9 b28e fa3e b08b 9b3e
000001b0: 6b40 b43e 13a1 d53e 71d0 fc3e 510d 3e3f
000001c0: 303f 543f fe6a 603f d6d4 053f a55f e23e
000001d0: 57a1 c63e bc2d 4c3f b23f 183f 7be5 8e39
000001e0: 6642 da3e d71b d83e beb2 fa3e e3e4 d33e
000001f0: ec97 0939 7a7c 343f d5e4 3838 200e 42b9
00000200: 2d6d b13e 035f eb3e 1b7c a63f eddc 2a3f
00000210: 5b5b df3e bcb1 e338 3043 123f 99dc d03e
00000220: b4b2 1e3f e652 053f 374a b8b9 4161 2939
00000230: 106a 9c3e e486 be37 2982 dab7 1a07 90b8
00000240: 2142 0a3f 5cf5 8e39 1a11 af3e a1fe 393e
00000250: 0ee0 373f 7157 85b8 f72a 183f 6f28 b337
00000260: f445 d53f 4821 0b3f 57d8 e339 b785 2d3f
00000270: bf85 d73e 2379 ad3e 2ccd 0b3f 24a2 d93e
00000280: 8971 8835 1e40 063f 960c 003f b3fd 513f
00000290: d010 df3e 50ec 623f 4504 ef3e 940d dc3e
000002a0: 730e ff3e 0e04 e93e da38 a43e 1539 cd3e
000002b0: ef5d 5f3f 4a49 a23e 8dab 053f 53ec 123f
000002c0: b472 793f 9ab2 a33f 05a7 953e 6e57 293f
000002d0: 70b6 443f 2320 07b9 2a52 2c3f 0a21 283f
000002e0: a1ee e83e 5602 173f 9836 253f f5d1 443f
000002f0: b69d f93e 95b6 ab3e 94df d53e 0447 c03e
00000300: b77f f33e ccec 3b3f 88a6 803e 4fa5 243f
00000310: 4f89 d03e b399 963f 37d2 1b3f 3481 9839
00000320: b20f 823e 1cab fd3e e3c4 be3e a41d 6939
00000330: 6d43 d33e 9432 db3e 3cc7 5f39 ae0d 9a3e
00000340: c1a6 72b9 e9a6 1b3f 5317 cc3f b411 0e3f
00000350: 0232 d4b8 c71e 82b7 95e6 e53f 889b 393f
00000360: 4896 143f 550c ea3e db82 fc3e 2701 5f3f
00000370: b81e ab3e e92c 5d3f 151d 543f 29d3 c43f
0.4378153 0.35642153 0.34331954 0.8963393 0.16274947 0.7811142 7.6259574e-05 0.4655253
0.2430511 0.30969816 0.44524553 0.97560257 0.51957655 1.3600721 0.96219146 0.5207524
0.60940284 0.5955071 0.4785897 0.33549538 0.5592171 0.00043351823 -0.00023051155 0.65262127
1.2453195 0.38331252 0.81384903 0.6134414 0.425481 0.6276428 0.46947905 -0.0003763286
0.34428737 0.8260648 0.43382016 -2.2912016e-06 0.47141957 0.49573138 0.555988 0.8843018
0.6135104 1.5727267 1.513142 0.5150851 0.7598867 0.6699512 0.21379569 0.34172672
0.5757674 0.3326382 -0.00027419656 6.1738237e-06 0.46261114 0.5543169 -0.00013001982 0.4160901
0.00013721386 0.41851863 0.8453698 0.5140944 0.42972013 0.9675608 0.4663651 1.0175098
0.63882166 0.52961224 1.6832777e-05 9.769667e-05 0.80904365 0.48344103 0.8912899 7.635718e-05
0.4649119 0.9811242 0.0001866296 0.0002865571 0.53214794 0.5542226 0.47481897 0.4696651
0.5393466 0.55873066 0.55856925 0.7382844 0.38563177 1.6389192 0.45726666 0.21818964
0.27523893 0.4553046 0.000102392914 0.39999717 0.43805754 0.52200514 0.00022730623 0.4419635
0.7437613 0.71273184 0.5800088 0.61887777 0.27006796 5.5053602e-05 0.00013047004 0.95556676
0.47740945 -0.00029221145 0.48936993 0.3038001 0.35205397 0.41724452 0.49377778 0.7423907
0.82908916 0.8766326 0.52277887 0.44213596 0.38794968 0.79757285 0.5947219 0.00027255327
0.42628783 0.4220874 0.48964494 0.41385564 0.00013121933 0.70502436 4.4082135e-05 -0.00018506544
0.34653607 0.45970926 1.3006624 0.66743356 0.43624386 0.00010857309 0.5713377 0.40793303
0.6199143 0.5207962 -0.0003515051 0.00016153326 0.3054967 2.2712578e-05 -2.6048236e-05 -6.867778e-05
0.54007155 0.00027267158 0.34192735 0.1816354 0.71826255 -6.3582214e-05 0.5944056 2.1357291e-05
1.6661973 0.5434766 0.00043458 0.6778216 0.42094228 0.33881482 0.5460994 0.42506516
1.0165833e-06 0.52441585 0.50019205 0.8202774 0.43567514 0.88641834 0.46682945 0.4297911
0.4981571 0.45510906 0.32074624 0.40082613 0.87252706 0.3169654 0.5221489 0.5739185
0.9744065 1.278888 0.29228988 0.6614903 0.7684088 -0.00012886575 0.6731287 0.65675414
0.4549456 0.5898794 0.6453643 0.7688287 0.48753136 0.33537737 0.4177214 0.3755418
0.47558376 0.734082 0.25127053 0.6431474 0.40729758 1.1765655 0.6086764 0.00029087963
0.254026 0.4954461 0.37259588 0.00022231654 0.4126238 0.42812026 0.00021341158 0.30088562
-0.00023141039 0.6080156 1.5944618 0.5549576 -0.000101182624 -1.551154e-05 1.7960993 0.72502947
0.5804181 0.45712534 0.49318585 0.87111133 0.33421874 0.8639665 0.82856876 1.5376941

bias f4 [224]
00000000: 4497 2abe 710e 2cbd 2908 523d 7d56 0a3d
00000010: 89d8 6c3d c31c 9a3d 01d6 1039 5cc8 943e
00000020: a31d 12be 8886 813d c1d7 443e 2fc7 afbc
00000030: 49f8 803d b094 8e3c 551f e83e 75e2 273e
00000040: a201 dabd 5df0 2c3e a91c d9bd c046 9dbd
00000050: 87a3 763e 2915 7e39 9662 6639 26b6 c83d
00000060: 333f eb3c 71bc 43be 41e7 b5bd 9c13 1f3e
00000070: 91f5 a03e cb3f 2ebe fbf4 b33e e4aa 9bb8
00000080: a33c 373e bf87 f43d 8ffb 8abe 4770 5538
00000090: 10e0 fbbd df3b 6dbd 4c80 903e 165b bf3e
000000a0: 1ea7 24bd ad5c 103d a4be f9bd d837 873e
000000b0: 7594 9b3e 9d3f 2a3e 9aa8 6cbd e124 8a3d
000000c0: b377 0cbe 0da9 81bd dfa1 35b9 1c4b 6537
000000d0: c9e9 3bbe 9a3c d83e 4710 83b6 631d babc
000000e0: 5efc d138 1bcb 05be 48a7 313e b6ce f93d
000000f0: f3cb 0ebd 2621 a43d fff1 5a3e 58a6 813e
00000100: d83c 6b3e e85a 18ba 4500 4e37 8012 a238
00000110: 3dae c53e 01a5 26be fb07 4bbe 9190 00b9
00000120: f26d 543e 201b 2f3e c3a1 27b9 a19c 8e38
00000130: 37fd 413e f16c d83d dd29 a33b feea aabe
00000140: b3f7 fa3d ef75 963c ce8a 663e cd93 da3d
00000150: e3f7 cb3d 8d29 bebd f671 e73d 8d40 9abd
00000160: 4e5e 943d 2fe0 0cbd 9926 b039 e3cd 173d
00000170: 023f a7bd e633 f13e 2840 8938 319a 523e
00000180: a0cc 443e d939 933e 9534 b23e 4562 013f
00000190: 895f 433d 71b5 4d38 462a 8a38 f27d 0c3d
000001a0: 083a e0bb 78c1 9e39 55db 45bd d4eb abbe
000001b0: ecdf 29be b522 f4bd 1f97 4f3e ea84 fb3e
000001c0: c8af 9e3e 253e 0ebe daa5 d33d 5061 dcbd
000001d0: 0879 cd3d 9413 7e3e 4412 fc3d a627 6538
000001e0: 6303 0f3e d1ad 5c3c f0b6 8b3e 6b01 0cbe
000001f0: 7fbe 3f39 c91e 9d3e 4c6a 6238 cf86 5ab9
00000200: 7911 8b3d 09af bd3d a9d3 3a3d 0986 b93e
00000210: da74 00be b133 4339 1d8d 523e 5b11 8b3c
00000220: 35ff c33e 4c98 25bb dfdf 1cb9 21df f8b8
00000230: f086 69be 4e6e b0b7 63de 01b9 34a9 33b8
00000240: 430e 2e3d 64c0 9f38 6a25 a0bb 9c29 a8be
00000250: 6ca8 ad3d b38a 95b8 e1c4 f13c e335 7638
00000260: 2c36 393d 151c 33be 529e 1639 0dd1 923e
00000270: 6c80 403d 4b24 88bb 6d85 21be 4a25 25be
00000280: 8922 9d38 2b82 003d 3502 173d 889d 983d
00000290: 77a9 fcbc e2f3 0d3e 3538 1b3e 41eb 41be
000002a0: dae2 93bd e773 aabd 02b9 76bd ab32 66be
000002b0: 289a c03e 9acd 36bd e463 53be 1ed5 853e
000002c0: 6c68 353b 4602 93bd 21bc 72be 27f8 883d
000002d0: 2174 2d3e b3a3 2f37 79f8 e43e 7bf6 c83d
000002e0: 1d83 0abd 4482 313d 72a4 683e 7a5c 4f3d
000002f0: 1fb1 2c3e 73a2 893e 687c e9bd bdad bc3d
00000300: 8a88 f53c 0daf 353d 9955 663d fade 753d
00000310: 610b 013e 5f64 2fbd b251 aebd 3d85 a139
00000320: cc1c 86bd 9fe8 fabc c4be cb3d 59ed ccb7
00000330: bfaa a93b 456b 7bbe b486 4039 58fb 1abd
00000340: 923c 9638 a060 e1bc 35bd 3cbe 8771 f43d
00000350: 24e2 f938 f97b 1cb7 d327 ec3d df4b 8b3e
00000360: ac70 b3be 1bc7 533e 23a8 4a3e 6eb0 db3d
00000370: 6f32 8b3d f461 163e 3000 a33d ec21 be3c
-0.16659266 -0.04200596 0.051277313 0.033773888 0.05782369 0.07525017 0.00013812633 0.29059112
-0.14269118 0.06324488 0.19222929 -0.021457283 0.06297357 0.017404884 0.45336404 0.1639498
-0.10644843 0.16888566 -0.106011696 -0.0767951 0.24085818 0.0002423121 0.00021971235 0.09800367
0.02871666 -0.19114853 -0.08881999 0.15534824 0.31437352 -0.17016523 0.35147843 -7.422807e-05
0.17894225 0.11939954 -0.2714505 5.0887724e-05 -0.12298596 -0.057918426 0.28222883 0.3737418
-0.040198438 0.035244633 -0.12194565 0.26409793 0.303867 0.16625829 -0.05777798 0.06745315
-0.13717537 -0.06331072 -0.00017321807 1.3666951e-05 -0.183509 0.42233735 -3.905999e-06 -0.02271909
0.00010012904 -0.1306576 0.17348969 0.1219763 -0.03486247 0.08014135 0.21381377 0.25322223
0.22972429 -0.0005811886 1.227862e-05 7.728208e-05 0.38609496 -0.16273881 -0.19827263 -0.00012260886
0.20745066 0.17100191 -0.00015986622 6.800262e-05 0.1894425 0.10567654 0.0049793557 -0.3338241
0.12254276 0.018366782 0.22513887 0.10672722 0.0995939 -0.09285269 0.11301033 -0.07531843
0.0724455 -0.034393486 0.00033598093 0.037061583 -0.08166315 0.47109908 6.544619e-05 0.20566632
0.19218683 0.28755072 0.34805742 0.5054057 0.04769853 4.904479e-05 6.588227e-05 0.0342998
-0.0068428554 0.00030280254 -0.048304874 -0.3357836 -0.16589326 -0.11920682 0.20272492 0.49124843
0.30993485 -0.13890894 0.10334368 -0.107607484 0.100328505 0.24812156 0.123081714 5.463478e-05
0.13966136 0.013469175 0.27288008 -0.13672416 0.00018286145 0.3068755 5.3981596e-05 -0.0002084032
0.06790442 0.09261901 0.04561201 0.36235073 -0.12544575 0.00018615906 0.20561643 0.01697605
0.38280645 -0.0025267778 -0.00014960718 -0.000118671225 -0.22805381 -2.10322e-05 -0.00012385244 -4.283451e-05
0.04249407 7.617546e-05 -0.0048872726 -0.32844245 0.084793895 -7.1307084e-05 0.029512824 5.8701156e-05
0.045217678 -0.17491181 0.00014364094 0.28675118 0.046997473 -0.004154717 -0.15773554 -0.16127506
7.492776e-05 0.031374138 0.03686734 0.07451922 -0.030842526 0.13862565 0.1515816 -0.18937398
-0.07221003 -0.08322888 -0.06023503 -0.22480266 0.37617612 -0.04462967 -0.20643574 0.26139158
0.0027680648 -0.07178168 -0.23704578 0.06687956 0.16938831 1.0468927e-05 0.4472082 0.098126374
-0.033816446 0.04333712 0.22718981 0.050625302 0.16864441 0.2688175 -0.11400682 0.092128254
0.029972333 0.044356395 0.056233976 0.0600271 0.12601997 -0.04282033 -0.08511676 0.00030807583
-0.06548461 -0.0306285 0.09948495 -2.4429219e-05 0.005177825 -0.24552639 0.00018360728 -0.037837356
7.1638395e-05 -0.027511895 -0.18431552 0.11935716 0.00011915367 -9.327189e-06 0.11531033 0.27206323
-0.350469 0.20681421 0.19790702 0.10727011 0.06796729 0.14685804 0.0795902 0.023209535

running_mean f4 [224]
00000000: 5f98 893d fd18 31bd 0147 1f3e 4d3b 9b3e
00000010: c07e 213c e7d0 5d3d 8edc 69b7 5765 703d
00000020: f087 92bd 5bd5 17be ba7d f3bc 6483 d53d
00000030: 5cb5 853d c593 1c3f 89e9 80bd 3e81 6dbd
00000040: ce63 7abd 250c e93d 77e6 9b3e 63c9 8b3d
00000050: 44ea e13d 5c0f 2438 9d72 1bb7 f5a5 fcbc
00000060: cd00 233e c870 dd3e a526 193d fdd0 ea3d
00000070: 5509 52bd f032 3d3d ed0b 9bbd a1af c8b6
00000080: ee83 08be a13d 39bd 829c 003d 0c4f 2cb6
00000090: f0be dabd 9c05 183e 12a8 ba3d 8440 603e
000000a0: 0922 623e 7656 393e 4b43 7c3e 76ff 2a3e
000000b0: 3250 5dbd 1d6a 67b8 606d 613e 514b a53c
000000c0: 24df 06bd bdef aebd 4179 f5b5 a5dc a036
000000d0: 1686 bd3e 7e4a 203e 25b4 90b5 65d4 053f
000000e0: 8402 5137 f6f9 2eb9 39e0 5abd 4c44 ec3c
000000f0: 2fb9 9cbd e710 073e 03c7 c0bd f96c 813d
00000100: 129a 223d 93d3 2bbd e875 66b5 6066 1937
00000110: 657c 2e3e 4ef3 523d 47cc 773e 89b7 71b6
00000120: 7a81 d6bd e364 cd3e ac03 1a37 8cfa e8b6
00000130: 1aeb 503e 0ae8 9cbd 2482 dfbd 2ec1 fbbc
00000140: 4cf9 fcbc 0bea a2bd 544f e93c 4350 57bb
00000150: 8e5b 04be 2f42 993e a7cb 91bd c9fe 1e3e
00000160: c49b efbd 8661 e5bd b59f 92b7 7dfc abbd
00000170: 1838 213e 4e61 fd3d 0208 4737 9200 90bd
00000180: 0f6a 113d 207a c53d 03e2 bf3c cc2b 993d
00000190: 715e e8bc f105 45b6 3ff1 69b6 c86d 9e3e
000001a0: 2f71 c63d f9dc 6cb7 9979 0c3d 8592 0d3e
000001b0: d6ee 943c 09c6 583e aa9f 52bd 3a41 8a3e
000001c0: 5c87 9dbd 3e97 513e 1896 b7bd 9c3f 4b3e
000001d0: 76a5 b53e 65e1 b13d a05e d0bd 676d 9f37
000001e0: 7bee 34bd 245d 81bd 02c8 dabb 3e9d 5d3e
000001f0: 10ba 8fb4 e53a 543d ef35 4db6 4d89 ddb5
00000200: 72c9 59bd c668 d0bd 9583 5f3e f084 8ebd
00000210: 5a3f 8d3c df05 3eb6 260e b9bd 4627 97bd
00000220: 960e 923e 189e 33bd 3021 d437 909a 0037
00000230: 9c24 3abc c410 3ab5 79d7 4db5 eba4 b3b5
00000240: 6847 99bd 825b d536 b312 86bc c28b 673e
00000250: 2ba1 993e 6c1e 6336 1ef4 96bd 2909 9f36
00000260: 7019 233f 4b69 b7bd ac57 a8b6 434e 533d
00000270: 77c7 8dbd c7f3 f3bd f19c 8d3e d5be ecbd
00000280: 6353 c135 d41c 37bc e8a6 e5bd 9514 a33d
00000290: 8ed9 45bd 3ce9 a33c 0264 4dbc 897a ba3b
000002a0: 4d28 93bd 2b85 763e 9197 dcbd 7ac8 e93e
000002b0: 873c 38bc 2d85 c9bd b497 db3e 6113 d73e
000002c0: c5be 033c 13c1 e5bd 10b2 bdbd c38e 78bd
000002d0: 867f 6dbd b108 2ab7 a274 ca3e 561e 633d
000002e0: 5338 073f 9020 f1bd 2d46 113e 73b6 3e3e
000002f0: 3749 1a3d 33e4 fabd b94b 86bc f02e 9bbd
00000300: d381 b73e 6d8b 8c3d b4c9 c7bd f6af d7bd
00000310: 381d 743c 8d31 e93e 0b10 1c3e e59c 9236
00000320: cd16 09be 896f 02be 68d5 b43c 5f1a fbb6
00000330: f3cb ca3d a06a 3e3e 7612 e7b6 e89a 0abe
00000340: c381 1337 2242 213d 21ba 573e 90d8 0dbe
00000350: c97c 7735 7123 99b6 ad13 103f 2507 263e
00000360: ee38 263f cada 16be cf8c 983d d3cb 883d
00000370: 1c51 833e 11ac e3bd ccae 0f3d d354 623e
0.067185156 -0.04323672 0.1555443 0.3031868 0.00985688 0.054154303 -1.3939234e-05 0.058690395
-0.07154834 -0.14827482 -0.029723037 0.104254514 0.06528732 0.6116298 -0.06294543 -0.057984583
-0.061130337 0.113792695 0.30449268 0.06825521 0.11031011 3.911495e-05 -9.265405e-06 -0.030840853
0.15918274 0.43250108 0.03739037 0.114656426 -0.05127843 0.046191156 -0.07570634 -5.9809104e-06
-0.13331577 -0.04522479 0.031399257 -2.5676009e-06 -0.1068095 0.1484589 0.09114088 0.21899611
0.22083296 0.18099388 0.24635045 0.16699013 -0.05403156 -5.5173517e-05 0.2201438 0.020177515
-0.032927647 -0.0854182 -1.8289212e-06 4.794058e-06 0.37016362 0.15653417 -1.0781265e-06 0.52277213
1.24579565e-05 -0.00016687051 -0.05343649 0.02884116 -0.076525085 0.13190041 -0.094129585 0.06319613
0.039697714 -0.04194982 -8.5853253e-07 9.143347e-06 0.1703964 0.051501565 0.2419902 -3.601863e-06
-0.104739144 0.40116033 9.17997e-06 -6.9433063e-06 0.20402184 -0.076614454 -0.10913494 -0.030731764
-0.030880593 -0.079547964 0.02848021 -0.0032854236 -0.1292555 0.29933307 -0.07118922 0.1552688
-0.11699632 -0.11200242 -1.7478926e-05 -0.08397768 0.15744054 0.12372075 1.1863189e-05 -0.07031359
0.035501536 0.09642434 0.0234232 0.07479057 -0.028365346 -2.9358746e-06 -3.486013e-06 0.3094313
0.09689557 -1.4118145e-05 0.034295652 0.13825424 0.018180292 0.21169294 -0.0514218 0.2700289
-0.076918334 0.2046785 -0.08964175 0.19848484 0.354778 0.08685569 -0.10174298 1.9005221e-05
-0.044172745 -0.06316593 -0.006676675 0.21642014 -2.6771204e-07 0.05181398 -3.0578774e-06 -1.6505743e-06
-0.05317063 -0.10176234 0.21827538 -0.069589496 0.017242122 -2.8315624e-06 -0.09035902 -0.07380538
0.28526753 -0.04385194 2.5287824e-05 7.665381e-06 -0.011361267 -6.9314797e-07 -7.6682005e-07 -1.3384537e-06
-0.07484323 6.3585476e-06 -0.016366338 0.22611907 0.30005774 3.3843344e-06 -0.073707804 4.7396356e-06
0.6371069 -0.0895563 -5.0169965e-06 0.051588308 -0.069228105 -0.11911731 0.276588 -0.11559836
1.4403889e-06 -0.011176307 -0.112134755 0.0796291 -0.04830318 0.020008676 -0.012536051 0.005690877
-0.07185421 0.24074237 -0.107710965 0.45660764 -0.0112449 -0.098398544 0.42889178 0.42006972
0.0080410885 -0.112184666 -0.09262478 -0.060683023 -0.057982944 -1.0134813e-05 0.3954211 0.055448852
0.5282032 -0.11773789 0.14186926 0.18624286 0.03766748 -0.12250557 -0.01639353 -0.07577312
0.35841236 0.06862531 -0.09755269 -0.10531609 0.014899544 0.45545617 0.15240495 4.369404e-06
-0.13387604 -0.1273786 0.022074416 -7.483453e-06 0.099021815 0.18595362 -6.8864856e-06 -0.13535655
8.792095e-06 0.03936971 0.21067096 -0.13852143 9.2196257e-07 -4.5638812e-06 0.5628002 0.16213663
0.6493062 -0.14731899 0.07448732 0.066795014 0.2564782 -0.111168034 0.03507881 0.2210267

running_var f4 [224]
00000000: 052b aa3d 14fe 893c e323 1c3e 6fc5 1b3d
00000010: b185 123d 1ec5 8b3d 8cf2 2036 f6fd fc3d
00000020: 5cee 253d acd5 c43a 4489 593d 288b 013d
00000030: ed33 c43d 0548 5f3d 6e1a ca3c 119f a63c
00000040: c535 e93c d29d 133e a5ef 0d3f e49c ba3d
00000050: 4b0e 843e 4c86 4836 ce3b 4d36 5e33 b13c
00000060: 4fc1 cb3c 6c20 7f3f 82c5 b83d 928a 693d
00000070: 7a4b 1b3d 5c8f 9c3d 6bcb 463c 9273 0536
00000080: 7176 243b 6379 573d 1f10 033e 75ad a035
00000090: 9aa3 993b 3807 683e 6855 2a3e edb5 ae3e
000000a0: c670 bb3d d1e5 de3c 09eb c83d d7c7 823e
000000b0: c8f5 d63c caa8 9c3d 2858 153e 4bee 023e
000000c0: 13f4 433c e98c ff3b 7bd3 7935 5150 0136
000000d0: 03aa ee3e 87d5 ed3d 46ca f234 2f38 5a3f
000000e0: 43ca 3536 bcef 693d 6192 1c3d 65d4 3e3d
000000f0: 460c 003d 2855 e13d aaa0 163c 6dbf 943d
00000100: 0a30 993d a986 a13c d0ed b034 26ad 6935
00000110: 3fcf d53d 80e6 343e 79af f13c 5cd8 8d34
00000120: e3f4 083c a27c 2c3f 849e 3636 b805 4935
00000130: 187e a93d c2d5 ad3c 835a 2b3c f1bb 6f3d
00000140: c90a fc3c d082 5e3c fb9f 993d f364 213d
00000150: 0c5c 893b 1325 453d a803 8b3c 7645 923e
00000160: 045b e63a cbe5 ea3b 772d 1e36 91a2 e83c
00000170: 6c88 ac3d 2172 793e 29a5 f935 9030 b73c
00000180: 3cf1 243d b267 d83d a14d e93c 0015 963d
00000190: bc99 703d 13a1 8a35 195c f834 7983 e33c
000001a0: 2f19 5d3e e6a0 5236 63da 193d d3c0 8f3e
000001b0: f8f8 613d ab11 853e e4aa 113d cf3c 173e
000001c0: 0b3d 723c 8d45 073d 9a5f a63c c22e 4d3e
000001d0: 49fa ee3e 91bf b63c 7eca 943b 89be 2436
000001e0: 50d2 e03c f593 073d ba2a 213d a7a5 6c3e
000001f0: 321e 5336 64a5 bd3d 9e13 dc34 fa36 1436
00000200: 8676 473d 53fb 473c 66ad 4e3d af19 583c
00000210: 09e4 733d fb35 b036 1868 aa3c fec4 a13c
00000220: 7de3 383e 4e48 913c 1b64 1036 248e 7335
00000230: 7385 f03c da05 a633 725b 6334 fb64 de34
00000240: 85f6 9e3c e544 d335 0252 7e3d 134f d93e
00000250: 4160 ea3e e7c2 b036 0eda cc3c ea49 bc34
00000260: e7c8 0b3d dfeb 733c 372b 1d36 3283 283d
00000270: 9037 073d e83a b03b cbf0 b03e a8dd 8e3b
00000280: ca0d c432 4314 a83d 56b9 863c 5aab 533d
00000290: d3ed 3a3c f995 393d 6dcd 2d3d 98f3 843d
000002a0: 16fe c63c 838d 903e e994 363b 087f 4d3f
000002b0: ea55 293d 726b f73b f742 723f 8e09 0f3f
000002c0: 78af 3d3d b6cf 973c adfc 093c f7c2 643c
000002d0: 6a6a cf3c ce7f 5835 1a19 b23e f58e 693d
000002e0: 354a 2c3f eb08 133c 4835 4c3e df6a ad3d
000002f0: 9bd4 dc3d a618 5b3b 7c95 183d 45ff 423c
00000300: fcca 2d3e 103d ab3d a344 bf3c 9b33 c83b
00000310: 6092 be3d 93f5 193d a45c 4b3d c545 9f36
00000320: 0477 f53a ff93 c33b fe58 153e 28af 3f36
00000330: 26ec 6d3e 8f67 753e a45a 3c36 b3bf e53b
00000340: 439c a136 e7cc d73d 3e9b 493c 0493 453b
00000350: 4240 f535 d888 9834 2745 d93c 1bd8 d63d
00000360: 79ed 703f d1c2 b73a d692 973d 42f2 f63c
00000370: 41a4 a33e 3551 e23c 5780 8b3d 1fc2 8f3c
0.083089866 0.016844787 0.15248065 0.038030084 0.03577203 0.068247065 2.3983039e-06 0.12353127
0.04051052 0.0015017292 0.053109422 0.03162685 0.095802166 0.054512043 0.024670806 0.02033952
0.028468022 0.14415672 0.55443794 0.09111956 0.25792155 2.9880493e-06 3.0582191e-06 0.02163094
0.02487245 0.99658847 0.090220466 0.057016917 0.037913777 0.07644531 0.01213346 1.9885815e-06
0.002509501 0.052605998 0.12799118 1.1971412e-06 0.0046886923 0.22659004 0.16634142 0.34123173
0.09152369 0.027209194 0.098104544 0.2554309 0.026240245 0.076493815 0.1458441 0.12786214
0.011960047 0.00779878 9.3067473e-07 1.9269248e-06 0.46614084 0.11612993 4.5223186e-07 0.8524198
2.7088834e-06 0.057113394 0.038225535 0.046589274 0.031261705 0.110025704 0.009193579 0.07263074
0.07479866 0.019717531 3.2955586e-07 8.705123e-07 0.1043992 0.17666054 0.029502617 2.642072e-07
0.008359167 0.67377675 2.7212382e-06 7.4886657e-07 0.082760036 0.021220092 0.010458591 0.058528844
0.030766862 0.013580993 0.07501217 0.039402913 0.004191881 0.04813106 0.016969517 0.2856862
0.0017574732 0.0071685067 2.3570299e-06 0.02839783 0.08424458 0.24359943 1.8600014e-06 0.022362024
0.04026912 0.10566653 0.0284794 0.07328224 0.058740363 1.032868e-06 4.626061e-07 0.027772652
0.21591638 3.1386094e-06 0.037561785 0.280768 0.055169076 0.25990042 0.035563365 0.1476929
0.014785062 0.033025313 0.020309258 0.20037368 0.46675327 0.022308143 0.0045407405 2.454881e-06
0.027444035 0.033100087 0.039347388 0.23110066 3.1459026e-06 0.092600614 4.0992467e-07 2.208572e-06
0.048697017 0.012205916 0.050458334 0.013189717 0.059543643 5.251493e-06 0.020801589 0.019747254
0.1805553 0.017734673 2.1515941e-06 9.0731396e-07 0.029360509 7.731042e-08 2.117429e-07 4.1424195e-07
0.019404659 1.5740776e-06 0.062089927 0.4244314 0.4577656 5.2678984e-06 0.02500632 3.5071508e-07
0.034127142 0.014887779 2.3419977e-06 0.041140743 0.033011973 0.005378116 0.3455871 0.0043599196
2.2823674e-08 0.082069896 0.016445797 0.051677085 0.011409241 0.04530904 0.042432237 0.06491774
0.02429108 0.28232965 0.0027859753 0.8027196 0.0413417 0.0075506503 0.9463343 0.55873954
0.04630992 0.018531661 0.008422059 0.013962499 0.025319297 8.065225e-07 0.34784776 0.0570211
0.6730073 0.008974294 0.199422 0.0846765 0.10782739 0.003343144 0.037251934 0.011901681
0.16971964 0.08361256 0.023348158 0.0061096675 0.093052626 0.037587713 0.049648896 4.7466915e-06
0.0018727486 0.0059685702 0.14584729 2.8563172e-06 0.23234615 0.23965286 2.8066943e-06 0.0070113777
4.816365e-06 0.10537129 0.012305079 0.0030147443 1.8272624e-06 2.8411773e-07 0.026522232 0.104904376
0.94112355 0.0014019852 0.074010536 0.030144814 0.31961253 0.027626613 0.06811588 0.017548619

weight f4 [192, 224]
00000000: 5426 503b f303 793d cbb0 efbc 4f4a 9abc
00000010: 78d2 29bc 243b 5cbd 8960 a2b9 5c16 d6bd
00000020: b4a2 013e f8bd b2bc 5372 ea3c 7915 533e
00000030: 2031 fbba 22f0 65be 7302 ab3d 459b 033b
00000040: e5bc 293e de19 1b3e 39af 9cbd 8f85 a83d
00000050: 2d09 c2bc 69dd 15ba e3cc 88b9 5a6f f53d
00000060: 8c9a 4f3e aad3 953d 878e 62be 550d c6bb
00000070: fc25 773d 8801 a4bd a321 a63d 44c3 41b9
00000080: 0d02 45bc 22e4 653d ab3b d5bb 3b7f 15b9
00000090: 790a 63be 6f91 693d 9b25 973d 0a34 13bd
000000a0: fcb0 12bd 0b69 13bd 8a61 c43d 72cc 3cbe
000000b0: b954 f7bd c7d2 643d 70ba 18be 7fb9 1c3e
000000c0: 3442 32be a8aa 973c 2edf c839 7396 32ba
000000d0: 3ae4 4e3e 2879 0e3d e307 053a 1306 873e
000000e0: a4c8 ba39 8b4d 773c 78a1 873d e991 5bbd
000000f0: 1b69 b03d b4bf 5bbe 7971 1a3e 49d0 ef3d
00000100: f212 c5bc 1798 25be b31f 3038 5554 3339
00000110: 8d5d 1ebd f842 a93b de70 3dbd bfec b734
00000120: 3d93 edbd 7fde 57be 2ae1 0e3a 7dd5 8939
00000130: 2ca5 d73c 738d 4ebd 9b9b 9b3c 8144 afbd
00000140: dc60 043c c92e 70bd 3d2e da3d c259 07bc
00000150: 3c0c 96bb 6cfa 713d c505 1ebd da7e 423d
00000160: 350c 63bc 2f70 053e 5866 15ba ae7f 78bd
00000170: fae6 4a3e bfd1 5d3c aa79 1ab9 428b 5c3d
00000180: 688b 0bbd 8159 723d f03a 01bd 438f 8ebb
00000190: 4781 17bd 02d9 9c38 28fc 8cb9 f6c5 783d
000001a0: e568 9d3b 393c 30ba 923e 523c 4f97 e93c
000001b0: d39c fabb 605a 5bbe 419f 773d 0a6d 15be
000001c0: c89d 94bd d900 bd3d 74a5 173e e126 06be
000001d0: 8fe1 c43d 32d9 6a3d 0bb9 773c 407b b2b9
000001e0: 460e 64be 3f51 4ebe 1dae 6f3c 4a47 f0bc
000001f0: c419 beb9 b3e6 03be c07f 2db9 d5f2 48b6
00000200: 6934 793c 0a21 c5bd 445c 8f3e ee47 833d
00000210: 2d45 173e dd56 a6b8 8f28 8fbc 4b7f 1abd
00000220: c3c2 fe3a 8a87 b2be a989 01ba 0cd8 e739
00000230: a5b2 6c3e 4b5f d5b9 1cfe 3739 4bbe 41b9
00000240: f1bc 1dbe 98de dab8 e18f 12bd b661 383e
00000250: d65d dcbd 8027 f4b8 eb7b 49bd e6e3 8239
00000260: 13ed 993c f1ad 083e 0fa6 cb39 3cd6 b0bd
00000270: 3039 d13d fda3 1abe 22f1 083a e8ff b6bd
00000280: 5d93 6d37 e1ea 8abd 9c6e d23d f77c 0c3d
00000290: 9821 ac3d b355 3e3d 985a b03d 05f3 ab3d
000002a0: c66d ab3d b2ec 813d 2af2 523e baaf d43d
000002b0: 6dd4 6fbe 556a 353e 87b5 4d3e d34a 06bd
000002c0: e2df 87bd 38fd a63c 45d4 0cbe 3d5f 34be
000002d0: 1cfa 8ebd 753e 22ba a6fe fcbe 4897 223e
000002e0: e940 133d 5f40 103c 68b8 e2bd b757 2e3c
000002f0: c6eb 81bd c8fa 89bd 6485 13bb 4d57 42bc
00000300: 0355 543e ee63 31bd 0eee e43d 707d 2f3d
00000310: 02c5 323e b250 863c 7b2d b7bc 0412 89b9
00000320: cbaa f33b 389a 6a3d f531 3dbc e124 4bba
00000330: ae5d ee3d 065d 0bbe 5e0f a1b9 7afa 103d
00000340: 3f05 08ba 65dd 1e3e 71bd 34ba 8c6e 91bc
00000350: c197 fcb8 d012 60b9 caf4 2f3d 7731 40bd
00000360: 7ecf d4bc 5089 00be 70a1 2f3d 0a5b 29bd
00000370: 8485 94bc 416d a33d 504a a13c 729e ecbc
00000380: ba96 893d 6b1f 10be 4427 413d 348a 123c
00000390: 69eb 953c cb20 e23d 25cb 1bba 35d7 8fbd
000003a0: 8fa6 a2bd 0c2d 3c3c abe9 843d 2a41 8dbd
000003b0: 18ed ffbd 2505 743b cab3 993d cb89 14be
000003c0: 09c2 fb3d f48d 1c3e 712f c83d 5fca 133d
000003d0: 85de 2d3e 3374 0bba b681 9639 d234 b9bd
000003e0: 5f54 503e cdc0 073e d993 a93d f5c1 0abe
000003f0: fee8 95bd 6d41 c9bd 4191 9cbd 24eb 283a
0.0031761127 0.060794782 -0.029259106 -0.018834261 -0.010365121 -0.05376734 -0.00030970972 -0.104534835
0.12659723 -0.0218191 0.028618967 0.2061366 -0.0019164421 -0.22454885 0.083500765 0.0020081562
0.16575964 0.15146586 -0.076506086 0.08228599 -0.023686016 -0.00057168916 -0.00026092594 0.11984129
0.20273799 0.07315762 -0.22124682 -0.00604407 0.06033896 -0.080081046 0.081118844 -0.00018478656
-0.012024415 0.056125768 -0.006507357 -0.00014257144 -0.22171964 0.057023462 0.073802195 -0.0359383
-0.035813317 -0.03598885 0.095889166 -0.18437365 -0.120767064 0.055865075 -0.1491487 0.15305136
-0.17408067 0.018513992 0.00038313254 -0.000681258 0.20204249 0.034783512 0.00050747226 0.26371822
0.00035626173 0.015094171 0.066225946 -0.053605948 0.08613797 -0.21459848 0.15082349 0.11709649
-0.024056885 -0.16171299 4.1991192e-05 0.00017102186 -0.038663436 0.005165454 -0.046250217 3.4258662e-07
-0.11600349 -0.2108097 0.0005450422 0.00026289737 0.026323877 -0.050427865 0.018995097 -0.08557988
0.008079734 -0.058638368 0.106533505 -0.008261146 -0.004579095 0.05907671 -0.03857972 0.047484256
-0.013857891 0.13031076 -0.00056991493 -0.06066864 0.19814673 0.013538777 -0.00014731908 0.053843744
-0.034068495 0.05916739 -0.031550348 -0.004350574 -0.036988523 7.4790805e-05 -0.00026890752 0.060735665
0.004803764 -0.0006722841 0.012832301 0.028514532 -0.0076480894 -0.21421194 0.06045461 -0.14592376
-0.07256657 0.09228677 0.14809209 -0.13100769 0.096133344 0.05733604 0.015119801 -0.00034042634
-0.2227107 -0.2014818 0.014628914 -0.029330868 -0.0003625882 -0.12880974 -0.00016546156 -2.994367e-06
0.015210249 -0.09625442 0.2800008 0.06410204 0.14772482 -7.9316764e-05 -0.017475395 -0.037719052
0.0019436706 -0.34869033 -0.00049414724 0.0004422072 0.23115022 -0.00040697525 0.00017546903 -0.00018476804
-0.15404107 -0.000104365114 -0.035781745 0.18006024 -0.10760085 -0.00011642184 -0.049190443 0.0002496533
0.018789804 0.13347603 0.000388429 -0.08634612 0.10215986 -0.15101619 0.000522392 -0.08935529
1.41606115e-05 -0.06783081 0.10275003 0.034298863 0.08404845 0.046468448 0.086110294 0.08395962
0.08370547 0.06343974 0.20600191 0.1038508 -0.23420878 0.17716344 0.20088778 -0.0327862
-0.06634499 0.020384416 -0.1375285 -0.17614456 -0.06981298 -0.00061891164 -0.4941303 0.15878022
0.035950575 0.00880441 -0.11070329 0.01064103 -0.06343798 -0.06737286 -0.0022509927 -0.011861634
0.20735554 -0.04330819 0.11178218 0.042844236 0.17457965 0.0163959 -0.022360554 -0.000261441
0.0074361316 0.05727598 -0.011547555 -0.0007749331 0.11638962 -0.13609704 -0.00030719762 0.035395123
-0.000518877 0.15514143 -0.0006894684 -0.017752908 -0.00012044563 -0.00021369313 0.04295806 -0.046922173
-0.025977846 -0.1255238 0.04287857 -0.041346587 -0.018130071 0.07979823 0.019688755 -0.028884146
0.06718202 -0.14074485 0.047156587 0.008944083 0.018300729 0.11041411 -0.00059430517 -0.07023469
-0.07941925 0.011485349 0.06489881 -0.06897195 -0.12496394 0.0037234512 0.07504995 -0.14505689
0.12292869 0.15288526 0.09774674 0.036081668 0.16979416 -0.0005319744 0.00028706872 -0.09043278
0.20344685 0.13257141 0.08280153 -0.13550551 -0.0731983 -0.09826932 -0.076448925 0.000644373

weight f4 [192]
00000000: 555e f53e e001 af3e bad9 c03e 2f32 cf3e
00000010: c3c3 d73e 323c 023f ce60 f33e 5554 e73e
00000020: 109f bf3e c12e db3e 1c27 c73e c933 c83e
00000030: fce8 c63e 248b e13e 750d e33e eae4 fd3e
00000040: d262 003f b7e5 f43e 2e53 203f fd67 9c3e
00000050: 8026 e93e b1c4 2e3f 68bb 0f3f 04ce e33e
00000060: a9a6 8b3f 55fc ee3e 9257 e63e 5d4e da3e
00000070: 51fb 483f 71f3 e33e 86df 3f3f 8d51 2b3f
00000080: 36de d43e 7981 163f de6c f53e 9af2 113f
00000090: f06c 0f3f 36a9 143f 82e4 023f a9f1 d63e
000000a0: 5da0 b83e 4dbb cf3e bb27 f23e 9590 a03f
000000b0: 1b85 2f3f b249 023f fffd 073f ddf4 d13e
000000c0: 7746 fc3e dc22 e83e d2e1 c33e b52e e03e
000000d0: e30b bd3e 1e74 f53e 33ed fd3e 3cdd 563f
000000e0: 8079 1b3f 3f36 c43e fb1b 043f 5821 093f
000000f0: 0a6d 2e3f 52d6 da3e 2418 d23e a0ed 013f
00000100: ea8a 013f 59cf 953e 00e1 0f3f fd20 c43e
00000110: 994e ca3e 4818 163f f12e 0f3f f20b d73e
00000120: bdcc 553f 4cef d03e d122 073f ae4a 9d3e
00000130: e2f9 cc3e 1681 e93e e1e7 d33e 83d9 a63e
00000140: cd37 423f c9d0 df3e 1a09 8c3e 6e5b b23e
00000150: e2ca 083f ee90 ce3e e13b 033f 486e e73e
00000160: 3412 f03e 4773 fa3e de3e 2f3f 8c5b bc3e
00000170: 850c aa3f b146 e13e c4fe b63e d6ef 223f
00000180: 958d 013f 64ee 573f 571e f13e b6b8 db3e
00000190: dfbb 193f d4d5 dc3e c1dc ee3e 449a d13e
000001a0: 0f75 f73e 5984 4b3f 8c52 053f 3f53 bc3e
000001b0: 6257 e83e 85f9 d83e 5b1a d03e 6e4c 1e3f
000001c0: 1e40 cb3e 94e1 813f a599 cd3e 05a5 013f
000001d0: 095d 003f 1950 f43e 3d43 bd3e 7ec6 0c3f
000001e0: 7b41 ff3e e23e 0b3f eeb1 043f 02e9 463f
000001f0: 62fd 773f 5980 ac3e 4957 153f b988 4e3f
00000200: 5f0a cd3e 3a23 eb3e 62b4 043f 5470 d63e
00000210: 104f 273f fd6c d83e 5e4a f53e 744f e53e
00000220: e5bc be3e 7bbd e03e d50d 383f 714b 243f
00000230: 8e96 ed3e 8f01 e33e 28f6 e83e d516 143f
00000240: 7386 163f 1517 e93e b139 173f e7de fc3e
00000250: c7c9 0b3f 179a 313f 89d4 ce3e 643a 1b3f
00000260: e32e cb3e 80da f23e 2d67 1b3f 9f9b bd3e
00000270: 1152 c73e 616f 003f ae52 e93e f7aa b73e
00000280: 1f81 e93e 71fa 193f b981 e43e f3c6 d23e
00000290: 5a61 c83e a10d c33e 6363 c03e f3f8 003f
000002a0: 78fd ba3e 4c79 953e 4c3f db3e e9c1 c53e
000002b0: 0557 0a3f e05d e23e c6b1 c83e bd69 1d3f
000002c0: e143 ec3e a38e 0e3f 8fbe db3e 8c46 d33e
000002d0: fb93 143f 83da eb3e fa25 0b3f ee9e 083f
000002e0: 2ff0 ab3e 5d5c c83e 2d32 d13e 4772 093f
000002f0: 0183 d43e a2f0 cd3e d82f bb3e 9c9f 133f
0.47923532 0.34181118 0.37666112 0.40467975 0.42141542 0.508731 0.47534794 0.45181528
0.37426043 0.42809108 0.38897026 0.3910201 0.38849628 0.44051468 0.44346204 0.4958871
0.5015079 0.4783151 0.6262692 0.30548087 0.45537186 0.6826888 0.56145334 0.44493115
1.0910236 0.4667689 0.44988686 0.4263791 0.7850848 0.4452167 0.74950445 0.6692131
0.41575783 0.5879131 0.47934622 0.57010806 0.560256 0.58070695 0.51129925 0.41981247
0.36059847 0.40572587 0.47295937 1.2544123 0.6856248 0.508937 0.5312194 0.41007128
0.4927251 0.45339096 0.38258225 0.43785635 0.3692313 0.47940153 0.4959503 0.83931327
0.6073227 0.38322636 0.51605195 0.53566504 0.6813513 0.42741638 0.41034043 0.5075321
0.5060259 0.29259756 0.562027 0.38306418 0.3951309 0.586308 0.55931 0.420013
0.8351553 0.4080757 0.527875 0.3072104 0.40034395 0.45606297 0.41387847 0.32587823
0.75866395 0.43713978 0.27350694 0.3483538 0.53434575 0.40344948 0.5126324 0.45201325
0.46888888 0.48916075 0.684553 0.36788595 1.3285071 0.43999246 0.35741246 0.6364721
0.5060666 0.8434813 0.4709346 0.4291436 0.60052294 0.43131888 0.46652797 0.40938008
0.48331496 0.7949882 0.5207908 0.36782262 0.45379168 0.42377868 0.40645108 0.6183537
0.39697355 1.0146966 0.40156284 0.50642425 0.5014196 0.4771736 0.3696536 0.54990375
0.49854645 0.54392827 0.51834 0.7769929 0.96871006 0.33691671 0.5833631 0.8067737
0.40046975 0.45925313 0.5183774 0.41882575 0.65355015 0.4227065 0.479083 0.4478718
0.3725349 0.43894562 0.71896106 0.64177614 0.46403927 0.44337127 0.45500302 0.5784734
0.58798903 0.45525423 0.59072405 0.4938881 0.5460476 0.6937575 0.40396526 0.6063597
0.3968421 0.47432327 0.6070431 0.37032792 0.389298 0.5016995 0.45570892 0.35872623
0.45606324 0.6014777 0.4463022 0.4116741 0.39136773 0.38096336 0.37575826 0.50379866
0.36521506 0.29194105 0.4282173 0.38624504 0.5403903 0.44212246 0.3919813 0.6148947
0.46145537 0.55686396 0.42918822 0.4126476 0.580383 0.4606515 0.5435482 0.5336751
0.33581683 0.39132968 0.40858594 0.5369 0.41506198 0.4022265 0.3655994 0.5766542

bias f4 [192]
00000000: 61d7 e4ba a56f c7bc 3797 5cbc 23b7 753e
00000010: c229 0e3e e1e7 373d aef9 a5bd df4c f03b
00000020: 52b4 cf3d 9fc8 283e f9b6 a23d 3709 10bd
00000030: f724 033c 2825 bbbd f63a b4bd 62df 303e
00000040: d811 9b3e 5e43 5fbe f506 513e d5ea 01be
00000050: 1e89 5b3b 00e4 d93c e0e2 e93d 2731 c2bc
00000060: 52a5 ba3e d36c fd3d e8a6 243e dc87 183d
00000070: 37bc ba3d 5665 1d3e 7761 283e 80b8 45bd
00000080: 0198 05be 5b51 033e 286f 08be 1493 163b
00000090: 14b8 ed3c ec62 d53d 8fd7 cc3d 6f2e e63d
000000a0: e1c0 c3bc fee4 113e 2225 cabd 084c 0d3f
000000b0: 0532 69bd dfc7 cc3d f8f8 10be 5684 e9bd
000000c0: b3a7 e9bd 881d 0d3c befa d23d f59b bb3d
000000d0: f8be bc3c d876 85bd a662 433e 6dcb 903e
000000e0: 0cca 323c bb6b d6bd 3935 423e 5e34 a53d
000000f0: 129a 09be ff77 0ebe 5bf0 01bd a0c8 07bd
00000100: afae c03d ebe6 1dbe 7858 183d a409 53bc
00000110: 5815 d4bd 0a24 bf3c 0fac 6abd 14ab 83be
00000120: fc61 d73d 5ed7 403d cb25 1a3e 1ef0 55bb
00000130: be5a 2ebb 4030 28be e725 253e 97e2 f83d
00000140: 1858 ea3d 4195 75bc 6f9f cd3d d006 563d
00000150: ffb5 673d ba9d f63b c94a 623d ab74 313c
00000160: f4ca cf3d 640f 213e 9dbe 6c3e 2940 163e
00000170: 9c43 923e d0ee 583d b5d0 903d c210 523e
00000180: 1e0e 2f3e 3d53 043e 13cf 78bd 4dd4 27bd
00000190: c03f 8c3e 3e2f 033e 27ca f33d 6426 5a3e
000001a0: d54d 7f3c f377 323e e127 5c3d e876 d23d
000001b0: c59d 8e3c 7254 da3d 1420 0dbc 28aa af3d
000001c0: c551 50bd 19a8 223d 4dd4 0dbc ab87 9b3d
000001d0: d6fa 803c eb3b d0bd f9a5 453d 417f 05be
000001e0: 8735 14be 1299 e7bc d224 3d3e 20e1 c73d
000001f0: 9e9e 4fbd 13c0 e5bd 6a0d 983c 1e2f b73d
00000200: aeb9 c4bd 151c 033e 0f0e 6d3e 8d0a 9bbd
00000210: 9b16 803e 7318 58bd 876d b53d bda1 35bd
00000220: 3eec 08bc abac b13d dd7b 563e 0004 90bd
00000230: 7ec7 8c3c c9d1 533d 8ca3 8c3d 205f 5c3d
00000240: 0584 fd3d 17e6 d23b c976 fd3a 5982 a73c
00000250: 9bdb 943e 0e8e 643b e54c 2d3e dbd0 4a3b
00000260: 023f ed3c 08e6 923e 0ae3 c53c 494b 08bd
00000270: a407 efbc 71df 313e ec2a 9fbd 5ce0 353b
00000280: 67ef 873e 2ed2 d73d 22e2 1f3e 76c8 c23d
00000290: 62bf acbd f6e7 a73d b9a0 52bd 5f37 db3d
000002a0: 59db 43bd 6ffc a03d c204 00bd c6c0 b8bd
000002b0: 746f d13d d9bc 1b3e 6101 5a3d af06 803e
000002c0: f6fb d33d 936e 473e 5cd8 44bc 99bd 573e
000002d0: 84b1 1abc d050 d0bb 2714 1bbd f17d 6fb9
000002e0: b7f1 5d3d 2900 8abc 3365 cdbc 1d56 62bd
000002f0: d181 173e e647 363e 1cd7 fd3c 804f 973d
-0.0017459207 -0.024345228 -0.013463787 0.23995642 0.13883117 0.04489887 -0.08104263 0.0073333825
0.10141815 0.16482781 0.079450555 -0.035165038 0.008004419 -0.09137946 -0.088003084 0.17272714
0.3028705 -0.21803042 0.2041281 -0.12687238 0.0033498476 0.026597977 0.11420226 -0.023705078
0.36454254 0.12374272 0.16079295 0.03723894 0.091179304 0.15370688 0.1644343 -0.048271656
-0.13046266 0.12824003 -0.13323653 0.002297585 0.02901844 0.104192585 0.10002052 0.11239325
-0.023895683 0.1424751 -0.09870364 0.5519414 -0.056932468 0.0999906 -0.14157474 -0.11402194
-0.11408939 0.008612998 0.103017315 0.09160606 0.02304028 -0.06516808 0.190806 0.28280202
0.01091243 -0.10469767 0.18965615 0.08066629 -0.1343768 -0.13912962 -0.03172336 -0.033150315
0.09408318 -0.1542012 0.037193745 -0.0128807165 -0.103556335 0.023332614 -0.057292994 -0.2571646
0.10516736 0.04708039 0.1505348 -0.0032644342 -0.002660438 -0.16424656 0.1612774 0.121525936
0.11442584 -0.014989198 0.10040175 0.05225259 0.05657005 0.0075261267 0.055247102 0.0108310385
0.10146132 0.15728527 0.23119588 0.14672913 0.28567207 0.052962124 0.07071058 0.20514205
0.17095229 0.12922378 -0.060744356 -0.04097395 0.27392387 0.1281099 0.11903792 0.21303707
0.015582521 0.1742857 0.05374897 0.10276586 0.017409215 0.10660638 -0.008613605 0.085773766
-0.05085923 0.03971109 -0.0086565735 0.07594236 0.015744608 -0.101676784 0.048253987 -0.13036825
-0.14473544 -0.028271232 0.18471077 0.09759736 -0.05068838 -0.11218276 0.018561084 0.08944534
-0.09605728 0.12803681 0.23149894 -0.07570372 0.25017247 -0.05275769 0.08858781 -0.0443437
-0.008357106 0.08675512 0.20945688 -0.07032013 0.017184969 0.05171374 0.068671316 0.053801656
0.12378696 0.0064361203 0.0019337769 0.020447897 0.29073796 0.003487471 0.16923864 0.0030947241
0.028960709 0.28691125 0.024156112 -0.033274923 -0.029178448 0.17370392 -0.077718586 0.0027752137
0.26549837 0.105381355 0.15613607 0.09510891 -0.08434941 0.0819854 -0.05142281 0.107039206
-0.047816608 0.07860648 -0.031254537 -0.090211436 0.10226336 0.15208758 0.05322397 0.250051
0.10350792 0.19475774 -0.012014475 0.2106842 -0.009441737 -0.00635729 -0.037861016 -0.00022839733
0.054185595 -0.01684578 -0.02507267 -0.055257905 0.14795615 0.17800865 0.030986361 0.0738821
