models/nn_to_lev_cat01234_epoch16.pt (torch, 353189 bytes, 43 tensors)

weight f4 [224, 32]
00000000: 63ed b6bd 54d3 1f3e 3199 d63d 85fa a9be
00000010: 0645 bebc 739c c93d 2182 30be d124 8abd
00000020: e0da c7bd 7656 d1be cbcd 91be 3e8b 2b3e
00000030: 5e54 413d 10d7 d53c 3dea b2bd 112b 5abd
00000040: 94cf c0bd 4c29 38bd 8cd5 9dbc 7bb1 5cbd
00000050: 2d77 9d3d f273 be3d 44b8 ab3c dafb 0cbe
00000060: 5a43 183d f17a c33d 5a61 f2bd a6da e23d
00000070: 7498 8bbd 7ec0 84bd 6cf0 03be 6f2b b6bc
00000080: ed74 8fbe 319a 9ebd cc3e 243d cd80 253d
00000090: 909f 443d 3b9e febe a0b3 aabd 6c9b b1be
000000a0: 2493 3ebe 59b0 ef3d a77e e13d c8b0 be3e
000000b0: a2a8 e63b 76b0 78be bc14 9d3e 1acb 26be
000000c0: 1ccc 36be de06 5b3e 0cbe 943d de17 1dbe
000000d0: b769 713d bcac 5dbd 16c4 b5bd 3d75 4f3e
000000e0: 4623 463e 1d25 5e3e b2e9 d3bd c9a8 383e
000000f0: 5545 0b3e 504f d33c a5ba 5dbd b4d6 51bb
00000100: a9d6 fabe c804 813e 76d7 793e 79f2 793e
00000110: 769a 0f3e 0c65 f6be 87f4 13be ab59 e3be
00000120: ac9b 233f 494e bd3e 5895 32bf a024 243e
00000130: b924 14bd d02c 433e 8cfb 62be 0a4a a4bd
00000140: 008b 033e bd45 b5bd 88da 863d 2b39 bdbe
00000150: 86de 923e 17c7 91bc be87 6c3d b064 06be
00000160: 06ee 0b3e 1c91 463e 2862 a0be c673 fb3c
00000170: 0815 64bd dcec b03d 5d10 843b 4097 20bc
00000180: 2b67 9c3e 74d7 27be e6be d3bd 0f28 2bbe
00000190: a26f a5bd 4090 0e3d aa9e a33d f9f7 15be
000001a0: 7531 8c3c b49a c0be 936c 44be 8c50 1bbe
000001b0: 32d8 56be bd81 3c3d 07ff d73d 8081 1abe
000001c0: 3ed4 de3d 0415 063e 6e6a 003d 19ba 0f3d
000001d0: 70d6 39be 996f 89be f149 d2bd adb4 033d
000001e0: 6966 a83c bb5c 8fbc d37e 2abe 313d 2abe
000001f0: 647e cebd d64d 29be 6c85 ec3e 1175 1d3d
00000200: 68e8 8bbe afa8 bc3d a485 033e 0658 303d
00000210: d02a 8dbd 4a39 9fbd 129a c7be 372f 9bbe
00000220: 6c0b 23be 3164 613d 9a7a 133e 4b72 ec3e
00000230: 688c 903b a8b6 babd 3095 ec3c 5c77 663d
00000240: ce74 1f3c ee1b c83d 1bde e0bd 773e 8b3e
00000250: 0c34 39be a3f7 47be cc9a 933e a9c7 d23d
00000260: ac4b a0be 690c 2b3d 3925 5dbd 750b 01be
00000270: 5e2f 79be 4eb4 17be 5c40 4e3e 71b9 9b3d
00000280: 5ee2 6ebe d593 1fbe f874 5abe 91d4 a83d
00000290: d0c3 75bd 6ff8 4dbe 0455 043e f478 1e3e
000002a0: 57fc cabd 9a8d 1e3e d59d 52be ecad dabe
000002b0: adc5 5c3e afe5 3ebe a959 b4bd 85e5 f63c
000002c0: 7990 d43d d27f 2f3e fa5f b33d 4b82 ac3e
000002d0: f82a 0c3d e31a 1f3b 455f b7bc 0946 153e
000002e0: 943b 2abd c303 303e 75a7 453e 3b14 93bd
000002f0: cb4d 1b3e 4cea fa3e 2ca5 3dbe cfb1 8d3d
00000300: c3fe 513e 2ed8 ecbd 614c 98bc 9c0a 96be
00000310: d402 f43e d208 75be a8ff 71bf 2955 c33f
00000320: f87a 9e3e 3be7 823d 86b6 143e 8900 6abe
00000330: 7dcf bf3d 2ea3 12be ccc0 b63d 5fff 5a3c
00000340: 4fa9 86bb d283 45bb 28e6 e1bd 86e2 163e
00000350: 210a 11bc 231a 953d 9550 afbd 6d27 533d
00000360: b56d a93d 2b06 58bd 7eb0 cb3a 7eae 0cbd
00000370: aa52 fd3d 25a4 e9bd 32f6 003e 1a40 5b3c
00000380: dc06 a2be a5d5 f33e 7c27 613e 8c41 8abe
00000390: 2e5f 0dbe 94e5 583e 087c 1abd b76e ee3d
000003a0: 6c1f eebb aac7 41be 1039 58be 3b28 ecbd
000003b0: 9c25 813e 0c83 4a3e af1e 173d 9039 3c3e
000003c0: 31b4 d33d 5d81 18be cb61 ecbd ec35 a03d
000003d0: f4a5 5a3d 7212 0d3e f177 d73d 12a8 553d
000003e0: be4c 12bd d59a 2c3e 0e7f 2fbd d0b7 be3b
000003f0: 7d8c 243d 2468 913d b300 583d ab9d 8fbd
-0.08931997 0.15607959 0.10478438 -0.33198944 -0.023226272 0.098442934 -0.1723714 -0.067453034
-0.09758544 -0.40886277 -0.2847732 0.16752335 0.0471996 0.026103526 -0.08736084 -0.053263728
-0.094145924 -0.04496126 -0.019266866 -0.053880196 0.076887466 0.092994586 0.020961888 -0.13767949
0.037173606 0.095449336 -0.118349746 0.1107686 -0.068161875 -0.064820275 -0.12884682 -0.022237508
-0.28018895 -0.077442534 0.04009895 0.040406037 0.048003733 -0.49730095 -0.08335042 -0.3468889
-0.18610817 0.117035575 0.11010485 0.37244248 0.0070391456 -0.24286065 0.30679882 -0.16288415
-0.17851299 0.21389338 0.07262811 -0.15341136 0.05893871 -0.05411981 -0.08875291 0.20259567
0.19349393 0.21693845 -0.10347308 0.18033136 0.13600667 0.025794655 -0.054133076 -0.0032018842
-0.48991898 0.2519896 0.24398598 0.24408902 0.14023766 -0.48123968 -0.14448749 -0.4440435
0.6390941 0.3697379 -0.6975913 0.16029596 -0.036167834 0.19060063 -0.2216627 -0.08021934
0.12845993 -0.08851192 0.0658465 -0.36957678 0.28685397 -0.017795129 0.05774664 -0.13124347
0.13665017 0.19391292 -0.31324887 0.030694854 -0.05568412 0.08638927 0.004030271 -0.009801686
0.3054746 -0.16390783 -0.10339145 -0.167145 -0.08077933 0.034805536 0.07989247 -0.14645375
0.017113427 -0.3761803 -0.19182043 -0.15167445 -0.2098091 0.046022166 0.105466895 -0.15088463
0.10880326 0.13093954 0.0313515 0.035089586 -0.18148208 -0.26842955 -0.102680095 0.032154728
0.020556645 -0.017500272 -0.16649942 -0.16624905 -0.10082701 -0.16533598 0.46195543 0.03844172
-0.2732575 0.09211861 0.12843949 0.043052696 -0.068929315 -0.07774599 -0.38984734 -0.3030946
-0.15922326 0.05502719 0.14402238 0.4618095 0.004411269 -0.0911687 0.028879732 0.056266174
0.009732438 0.09770952 -0.10979863 0.27196094 -0.1808626 -0.1952806 0.28829038 0.102919884
-0.31307733 0.041759882 -0.053990576 -0.12602027 -0.24334475 -0.14814875 0.20141739 0.076037295
-0.2332854 -0.15583737 -0.21333683 0.08243669 -0.060001194 -0.20114301 0.12923056 0.15475827
-0.09911411 0.15483704 -0.2056802 -0.42710817 0.21559782 -0.18642305 -0.08806164 0.03013874
0.103791185 0.17138603 0.087585405 0.33693156 0.034220666 0.00242775 -0.022384295 0.14577498
-0.041560724 0.17188935 0.19302161 -0.07181593 0.15166394 0.4900688 -0.1852004 0.0691868
0.2050734 -0.115646705 -0.018591108 -0.2930497 0.47658408 -0.23929146 -0.94530725 1.5260364
0.30953193 0.0639176 0.14522752 -0.22851767 0.09365747 -0.1432006 0.08923492 0.013366549
-0.0041095386 -0.0030138385 -0.11030227 0.1473485 -0.008852513 0.07280376 -0.08560292 0.05155127
0.08272878 -0.052740257 0.001554027 -0.034346096 0.123692825 -0.11408261 0.12593916 0.013381982
-0.31645858 0.47623935 0.21987718 -0.27003133 -0.1380584 0.21181327 -0.03771594 0.11642211
-0.0072669294 -0.18923822 -0.21115518 -0.11531111 0.25224006 0.19776553 0.036894497 0.18381333
0.10337103 -0.14893098 -0.1154209 0.07822785 0.05338092 0.13776568 0.10520924 0.052162237
-0.03571772 0.16855939 -0.04284578 0.005820252 0.040173043 0.070999414 0.05273504 -0.07012495

bias f4 [224]
00000000: c7e3 7bbf c8db 09bf e4fb e03d bdfc dc3e
00000010: e94c c03c 8735 f1bd 47cb e9be 5b83 bcbd
00000020: 1b24 153d cb18 043e 821f 3c3e aab1 383f
00000030: bacf dd3e 01af 7dbd 8d2c 263e 4c92 f7bd
00000040: 18cd a5bc 41fe a5be 1d10 35be 3ea1 c63d
00000050: 42cb 073f 04ef f73d 8c4a 423e c789 973e
00000060: 5a70 e8bd 53d4 8e3d 4e86 3d3e 23bc 9c3d
00000070: 3449 24bf bc2c c23e b19c d73d 0948 873d
00000080: b669 663e 6047 1f3e 2172 efbe 9471 253e
00000090: a755 f13e 5e05 203f b0d5 34be 7b2a 82be
000000a0: 2048 32bf 080c 2f3e f993 06be 6093 ee3e
000000b0: 750d 003f 26f1 0d3f 8895 7c3f b5be 983e
000000c0: 03e9 073e 4930 3d3f f011 963e 4ff9 4a3d
000000d0: 1565 0cbc 4581 533e 6c64 62be 164f a73e
000000e0: 9342 263f 185b 3c3e fabc dabe 0a77 bf3d
000000f0: 74a3 823c 2631 f83d 0f7b 68be a8e8 adbf
00000100: fbd8 623d 3054 d03d da0e 4f3f b9ea b63d
00000110: 3de6 f2bc 426a 913e 33eb f03c 1cc4 a7be
00000120: 8462 823e 47e6 afbe 237e e5be a685 11bd
00000130: e8ad 88be 2696 283e 9682 8a3e 4ed7 cd3d
00000140: a3b2 d13e 3b69 1a3f fd96 acbe 4a32 893e
00000150: 608c 753e c81f 903e 922b 583e 50de e2be
00000160: ad08 033f a8d4 3abe 6403 91bd a90c bbbd
00000170: 351f a63e 8d58 8a3e 9096 483f 0837 febd
00000180: 1c0e a23e d164 aebd ff20 c3bd ad83 3dbd
00000190: f64d 023e edd2 603d 9cd9 b2be 63ca ccbe
000001a0: d465 023e c108 75bd 99e2 9dbe 067d 2f3d
000001b0: 5a48 4f3f d285 50bf c04b 13bf 557b d0be
000001c0: 6ee6 9cbd 4463 13bc 4a5d 07bf 018b 40be
000001d0: d1b2 7c3d 0fb2 a73e d944 11bf c936 d93e
000001e0: 5fde 2f3d be83 e03e 5377 2cbe a03e 583e
000001f0: b24b 96be 789a 29be b14d 1dbe a1b5 873e
00000200: 1a04 56be a490 6b3e eec2 de3e a68a d13e
00000210: ef10 aabc 26ec 54bd 5843 ed3d 4f90 67be
00000220: b7a4 7fbe cd77 8bbe 0182 73be 0df7 02bf
00000230: c502 923c a2e1 543e 8306 1f3e dec2 8bbe
00000240: a802 bf3e acf0 863c 038a 493e 6081 68be
00000250: b089 573e a0f2 763e 4130 d03e 1af5 0dbe
00000260: 24cb c33e 85e0 2e3d 17cf 37bf 7470 8cbd
00000270: 8677 393d 0180 c83e 5fbb 0fbe 810b da3d
00000280: 02a0 563f 2cb4 36be f6c9 bfbf d42d 403d
00000290: 106c acbd 388a 21be d675 3a3f 4989 8c3e
000002a0: b332 01bf 009c bf3e ee8a 92be 95d3 b7be
000002b0: 7e03 bbbd c4ed 3fbe 2f5c 903e 8d83 e2be
000002c0: c7fd ab3e bdb0 62bf bdb6 eb3e c9de 31be
000002d0: c9e9 323e f96c 6bbe 8fe9 06bd 4c50 c5be
000002e0: 1df0 413f 2b99 a43d 0711 1e3f d48c 7ebd
000002f0: 47d6 c53e dd2b d73d 237d 17bf 98cf d6bd
00000300: 8b20 7abd 38f9 2cbf 9dba 4abe db96 dd3d
00000310: 2c33 fdbd abbd 26be 059c a9be 53fa 043e
00000320: 1394 343f 7349 313d ddac 48be cacb 8c3b
00000330: 7a3f ca3e 6d5b 9a3e 59c8 9abd 4a95 2d3d
00000340: dc36 963e a685 223f 2479 b0be 3666 463d
00000350: de05 603e 0237 d5bf b17a 373e 14d0 e8bd
00000360: 00c3 6b3e eaee aa3d 99c4 eb3e 9612 d43c
00000370: 621a 2fbe 5c4c 673f 272f 6f3e f234 073f
-0.98394436 -0.53850985 0.10985544 0.43161574 0.023474174 -0.11777788 -0.456629 -0.092047416
0.036411386 0.12900083 0.18371394 0.72146094 0.43322545 -0.061934475 0.16227932 -0.12088451
-0.020239398 -0.32420543 -0.17681928 0.09698723 0.5304452 0.121061355 0.1897375 0.29597303
-0.11349554 0.069740914 0.18508264 0.07653072 -0.641742 0.37924755 0.105279334 0.066055365
0.22501263 0.15554571 -0.4676676 0.16156608 0.4713566 0.6250819 -0.1765964 -0.25423035
-0.69641304 0.17094433 -0.13142385 0.46596813 0.50020534 0.5544609 0.98665667 0.29832998
0.1327248 0.739018 0.2931056 0.049554165 -0.008569022 0.20654781 -0.2210862 0.32677525
0.64945334 0.18394125 -0.42722303 0.09348877 0.015947081 0.12118749 -0.22703193 -1.3586626
0.05538271 0.101723075 0.80882037 0.089314885 -0.029650802 0.2840138 0.029409027 -0.32766807
0.25465786 -0.34355375 -0.44822797 -0.035527848 -0.2669518 0.16463527 0.27052754 0.10050832
0.40956602 0.6031682 -0.33708945 0.2679618 0.2397933 0.28149247 0.21110371 -0.44310236
0.51185113 -0.18245184 -0.07080725 -0.09133274 0.32445684 0.27020684 0.7835474 -0.1241284
0.3165139 -0.08515323 -0.09527778 -0.046268154 0.12725052 0.054888655 -0.34931648 -0.3999816
0.12734157 -0.0598228 -0.30836943 0.04284384 0.80969775 -0.81454194 -0.5753746 -0.40719095
-0.076611385 -0.008995835 -0.5287672 -0.18803026 0.06169397 0.32753035 -0.5674568 0.4242461
0.04293668 0.4385051 -0.16842394 0.2111764 -0.29354626 -0.16562831 -0.15361668 0.2650576
-0.20900002 0.23004395 0.43508095 0.40926093 -0.020760028 -0.05198302 0.115851104 -0.22613643
-0.24965177 -0.27239838 -0.23780061 -0.5115822 0.017823586 0.20789197 0.15529828 -0.2729711
0.37306714 0.016472183 0.19681554 -0.22705603 0.21048617 0.24115992 0.40661815 -0.1386303
0.38240921 0.042694587 -0.7180037 -0.06857386 0.045280002 0.3916016 -0.1403632 0.106467254
0.838379 -0.17842168 -1.4983509 0.046918705 -0.08419049 -0.15775383 0.72836053 0.2744849
-0.50467986 0.37423706 -0.2862162 -0.35903612 -0.091315255 -0.18743044 0.2819533 -0.4424099
0.33592054 -0.8855093 0.46037856 -0.17370142 0.17471994 -0.22990789 -0.032937583 -0.38537824
0.7575701 0.08037027 0.6174473 -0.062146023 0.38640043 0.10506413 -0.5917532 -0.10488814
-0.06106619 -0.6756778 -0.1979775 0.10819789 -0.12363276 -0.1628329 -0.33126846 0.12986116
0.70538443 0.043282937 -0.19597192 0.0042967545 0.39501554 0.30147877 -0.075577445 0.0423787
0.2933873 0.6348518 -0.34467423 0.04843732 0.21877238 -1.6657412 0.17917897 -0.11367813
0.23023605 0.083463505 0.4604843 0.025887769 -0.17099908 0.9035089 0.23357831 0.52815163

weight f4 [224]
00000000: 7d87 e23e 85b7 ea3e ac8f 0c3f 465c 0c3f
00000010: c4ba 0c3f 712b a33e a52b 4d3f 62e2 ef3e
00000020: 0e18 033f aaa9 e63e 86f9 e23e da27 a33f
00000030: 1b96 8d3f ef1e 0c3f a5a7 0d3f 6c41 ff3e
00000040: 1032 983e be8a 4b3f bfe1 1c3f bf9f 1f3f
00000050: 9828 173f af08 0f3f 6f49 933f ee81 cb3e
00000060: ab45 0a3f f077 153f f47f 173f 1901 f13e
00000070: 487e d33e 3419 423f 829e df3e 205f dc3e
00000080: dcb3 233f 2523 023f c6f8 243f 44a6 fd3e
00000090: 9e38 d83e 6df3 7e3f 563f 143f e1e5 c63e
000000a0: a45e 503f 74de c63e 54ce 033f ea93 ac3f
000000b0: 44d3 013f 3b3d fb3e 360f 283f 812f 113f
000000c0: 0715 bd3e 6925 913f 5aac ce3e 045f d33e
000000d0: 721e ef3e 5052 b43e d0ae 8f3f 8e0a fa3e
000000e0: 0e22 643f 6676 0a3f 1ed7 763e e494 383f
000000f0: 1c98 1a3f d7a4 d33e b839 243f adcb 293f
00000100: de3f f13e 2dc7 ce3e 012b c43f 3582 0d3f
00000110: 971c ee3e 4ee7 f13e 0a2b e83e e9ae 963e
00000120: 7a3b e93e 6387 d83e 67ac c13e 6fce 243f
00000130: f4a7 e13e 2b1f 1c3f 7662 113f 48f6 1c3f
00000140: 7958 6d3f da0f 103f c761 903e fee5 123f
00000150: 6dcd ff3e 5036 e53e acd2 003f 1979 933e
00000160: e893 6e3f 4b11 fb3e a93f c83e 47f9 d43e
00000170: da9d 033f a18d c13e cd7d 813f a05f 183f
00000180: 1a71 fb3e c44b 193f 66de ee3e d037 c53e
00000190: 0362 113f 893e 223f 6a15 e43e 61f9 bb3e
000001a0: 3f3f 163f 1f5c ec3e f3e8 2e3f 17be 1a3f
000001b0: 8b24 9d3f d55f 8e3e c7d2 c43e 6300 e93e
000001c0: 0e9f c33e 74fc ea3e 6b6a 383f 015f 113f
000001d0: 065a e93e 9094 423f 170c f73e f7e5 403f
000001e0: 91b9 093f ba4f be3e dd82 de3e 3e4e 353f
000001f0: cfde 183f 033b c93e c4fb 383f 588e 103f
00000200: 358c dc3e 7fa0 2b3f f6a0 2e3f 983f fd3e
00000210: dab6 cf3e 61e2 db3e 052b 033f 0cff 393f
00000220: 990c 023f d339 bc3e bec9 f23e ee64 043f
00000230: a730 0b3f 2a69 1d3f 9c2e 703f e617 c53e
00000240: 81a9 103f f096 e83e 5ee6 b63e 38f0 cf3e
00000250: 53b5 3b3f 90e9 013f 19d4 893f a608 fc3e
00000260: 8c85 f53e 17ab 773f ed6b 283f a047 eb3e
00000270: 1f7e 0f3f 0494 873f afa8 f13e f713 dc3e
00000280: a035 593f 0e7b 163f 4a1d 3b3f 91c2 c63e
00000290: e009 b83e 43ec fb3e 69a7 5b3f f07c 583f
000002a0: 46b8 dd3e 869d 1a3f f603 173f 6772 fc3e
000002b0: 4733 443f 65cb ed3e 6c84 313f 3bf0 ef3e
000002c0: efae 423f 20ca 553f d5a5 443f 1d0a d93e
000002d0: 2c42 d43e fb39 fc3e 8c5c f53e 2829 f03e
000002e0: ba3a 813f 2938 043f 60ea 543f cb9e 313f
000002f0: ddde 193f 2bfb 133f d9f7 b73e 6d0d 073f
00000300: 81e9 bb3e 570d 133f ec84 f33e 6071 fc3e
00000310: c9a3 283f 4e3d d03e c6d6 0c3f ced6 d23e
00000320: 3880 413f d7fc 3b3f 7919 063f 9702 153f
00000330: 4762 3e3f 75be e13e b3ac da3e 4f04 fd3e
00000340: e8ed e63e 2cab 483f 543c cb3e 24ff c53e
00000350: 37ff f63e c4ee d13e 165a ff3e 76a8 b13e
00000360: 5e07 0d3f 203b 003f 0783 463f c785 f53e
00000370: e7bb bf3e 1dd0 7b3f 681f 833f a7c5 813f
0.44243994 0.4584314 0.54906726 0.548283 0.5497248 0.3186908 0.8014472 0.46852404
0.5120858 0.45051318 0.44330996 1.2746537 1.1061434 0.547347 0.5533393 0.498546
0.29725695 0.7950858 0.6128196 0.6235313 0.59046316 0.55872625 1.1506785 0.39747566
0.54012555 0.58386135 0.59179616 0.4707115 0.41307282 0.75819707 0.4367562 0.43041325
0.6394632 0.50834876 0.644421 0.49540913 0.42230695 0.9959019 0.5790914 0.3884726
0.8139441 0.38841593 0.51486707 1.348264 0.5071299 0.49070153 0.6564821 0.5671311
0.36930105 1.1339542 0.4036587 0.4128343 0.46702915 0.3521905 1.1225224 0.48836178
0.89114463 0.5408691 0.24105498 0.7210219 0.6038835 0.413367 0.6415057 0.6632641
0.4711904 0.40386334 1.5325624 0.55276805 0.46506187 0.47246784 0.45345336 0.2943032
0.4555319 0.42290792 0.37826845 0.6437749 0.4407345 0.6098506 0.56790864 0.61313295
0.92713124 0.5627419 0.28199598 0.5738219 0.49961415 0.44768 0.5032146 0.28803328
0.9319444 0.4903663 0.3911107 0.41596434 0.5141274 0.37803367 1.0116516 0.5952091
0.49109727 0.59881234 0.46654052 0.38519144 0.5679018 0.6337667 0.44547588 0.36713699
0.58690256 0.46164033 0.683242 0.60446304 1.2276777 0.2780749 0.3844206 0.45508108
0.38207287 0.4589573 0.7203738 0.5678559 0.45576495 0.7600794 0.4825141 0.753509
0.53798777 0.37170202 0.43459216 0.70822513 0.5971498 0.39302835 0.72259164 0.564672
0.4307572 0.6704177 0.68214357 0.4946258 0.40569192 0.4294615 0.5123752 0.72654796
0.5080047 0.36762866 0.47419542 0.51716506 0.5437111 0.6148859 0.9382112 0.38494796
0.5650864 0.45427656 0.3572263 0.4061296 0.73323554 0.50747013 1.0767852 0.49225348
0.4795345 0.9674544 0.6578968 0.45953083 0.5605182 1.0592046 0.47199008 0.42983982
0.8484745 0.58781517 0.73091567 0.38820317 0.35945034 0.4920369 0.8580232 0.8456564
0.43304652 0.6039661 0.5899042 0.49306032 0.76640743 0.4644424 0.69342685 0.4686297
0.7604818 0.83511543 0.7681554 0.42390528 0.41456735 0.49262986 0.4792217 0.469064
1.0096047 0.51648194 0.8317013 0.69382924 0.6010569 0.57805127 0.3593128 0.5275486
0.36701587 0.5744223 0.4756235 0.49305248 0.65874916 0.40671772 0.5501522 0.41179508
0.7558627 0.7343268 0.5238262 0.58207077 0.7436871 0.4409062 0.42709884 0.4941735
0.45103383 0.7838619 0.39694464 0.3867122 0.48241588 0.41002476 0.49873418 0.34698838
0.55089366 0.5009022 0.7754368 0.47953627 0.37448046 0.9836443 1.024396 1.0138444

bias f4 [224]
00000000: 5e9a 14be 5135 a63c 3b63 05be ffb2 053e
00000010: 1cae 2ebd 8ab7 70bc 7bfb 033e 3b33 8abd
00000020: 7bf8 d4bd 557c 4c3e 5caa 8b3c 7704 513e
00000030: 168c 03bd 1f2a 153e 170d 853e f730 b43d
00000040: f76f d63d 3057 bd3d 5798 703e 844f 113c
00000050: c186 6fbd 094a 2f3e e4aa 653e 4881 3fbe
00000060: cca8 9c3e 4a48 543e 1d05 5b3d ef8c e73d
00000070: 441c 38be dd38 55bd cc15 463c 4463 803d
00000080: df16 20bb 8786 533e ffa6 5e3e 3975 5e3d
00000090: d89d 86bd 2ca4 7fbe b3ea 33bd cff4 e03b
000000a0: 2aa1 d23e 4587 96bd 4bad 7a3e d70b 1c3c
000000b0: 3e30 6a3e 9cfe f23d d466 5f3e f29b 153e
000000c0: 2b93 09bc 8917 133e 5c1c 88bd ea83 6abd
000000d0: 1a3c 473e 1d49 10be 3d57 32be 38b3 113c
000000e0: b6f8 e2ba fb2a 173e f8df 3e3b 0aa0 5c3e
000000f0: 09fe c63d d91e 923c f514 4c3e 0607 babd
00000100: 8a8d 4d3b d6d2 9a3d c1ce 47bd 678d 8d3e
00000110: 57cf 543d 23f1 893e f4e9 833e 2ade e33d
00000120: 3db5 843d 43dd 973d cd4f 8b3c 6f28 ab3e
00000130: 6351 933c 35f4 5b3e 7fed a73d 2969 c73c
00000140: af34 a53e 07cf 003e 26a7 ebbd 1c5e 85bc
00000150: 89df 023e 30fb 2a3e 9842 153d 3785 aebe
00000160: 41bb 2d3e 091f 6d3e 0384 ca3d 56e7 083e
00000170: 5f75 223e 6ce4 3dbe 24be 293d ef50 f63d
00000180: c00a cdbd 13c8 ad3e f12f 0fbe 4824 aebd
00000190: 9877 7d3d 93ed 8d3e dbbb 36bd 6aaa 2a3e
000001a0: 681e a53b 8d5c 323d c99a 2e3d 3937 143e
000001b0: 34c3 d6bd ebb1 4e3d 156f 463d 5bf0 cbbd
000001c0: 3807 563d 8227 103e b24b 0a3d f571 303e
000001d0: 3dcb 1bbe d582 ab3d 3d45 8a3e c505 973e
000001e0: 310c 203d a675 5cbd 357b 003e 7254 c33d
000001f0: 7064 293e 07ad bebe 86f3 843d 9c62 a0be
00000200: 829b 973d e588 cc3e 28b5 1d3d d171 153e
00000210: 7902 5cbe b39b 2e3e 6298 c73d ec4c 5bba
00000220: 87b8 d93d e7f0 40bd 7b70 953d 0a2d 3fbe
00000230: ba05 a53e 28f5 033e 6f69 a5bd b6c2 c13d
00000240: ee02 193f af93 d6bd 7cff 65bd d175 22be
00000250: dee1 c13d 6bdb 133d c792 0d3d 30bb b1bd
00000260: e711 373e 42f4 ce3d b334 dc3d d689 213e
00000270: 303a 37be 6309 863e f758 bb3d 18ce 1fbc
00000280: e005 0ebe 64c2 ac3e 27c7 0a3e 66f8 52bd
00000290: 288c a13d 983d 863e dc8a 2d3e 43da 823d
000002a0: 8756 8bbe fe91 d63d 99da ed3d 15d0 5c3e
000002b0: ddd3 123e 45f4 2a3d becb ae3e 1950 b33d
000002c0: 4526 593d 6fb6 053d 18d5 b23e e1d6 ec3c
000002d0: 6a89 8f3d 7ddc 8abd 36a0 5f3e 80f8 ed3d
000002e0: 42d7 3b3e 97d6 863c 02ec fa3d 7d8f 773e
000002f0: 48dc 413e cc25 bfbc fb7f 3b3e 5813 943c
00000300: 4502 99bd 7ca9 e73d c2cf d5bd 06be 8f3d
00000310: 0bb8 813e 591d 6c3e 3809 99bd 8cf7 b3bd
00000320: f6b0 773e ce90 123e 7060 5c3e 5ae4 783e
00000330: 2a74 583d 13d4 a33d f230 8a3c b834 e3bd
00000340: 2f2e ad3c 744d d7bc dc9f 8dbc ac9c 19bd
00000350: 5cff 213e b656 1bbd fa5d 2e3e 3dac 223e
00000360: ad21 063d 7c5e 883e 8012 493e 5e97 123e
00000370: f00a 86bc cb12 be3d 1850 30be 17ea 863d
-0.14512011 0.020289095 -0.13026135 0.13056563 -0.042646512 -0.014692197 0.12888901 -0.06748053
-0.103989564 0.19969304 0.017049007 0.2041186 -0.03211602 0.14566849 0.2598655 0.08798402
0.10470574 0.09245145 0.23495613 0.008869056 -0.05847812 0.17118086 0.22428471 -0.1870166
0.30597532 0.20730701 0.053471673 0.11306178 -0.17979532 -0.052056182 0.012090158 0.062689334
-0.0024427695 0.20656787 0.21743391 0.05431101 -0.06573075 -0.2496497 -0.043925 0.006865121
0.41138583 -0.07350019 0.24480169 0.009524307 0.22869965 0.11864969 0.2181657 0.1461027
-0.008396904 0.14364447 -0.06646034 -0.05725471 0.1945652 -0.1409039 -0.17416091 0.008892827
-0.0017316553 0.1476249 0.0029125195 0.21545425 0.09716422 0.017836975 0.1992987 -0.09083371
0.0031364881 0.07559745 -0.04878116 0.27646944 0.051955547 0.26941785 0.2576443 0.11126359
0.06479881 0.07415249 0.017005825 0.33429286 0.017983144 0.21479876 0.08199596 0.024342136
0.32266757 0.12578975 -0.115064904 -0.016280226 0.12780584 0.16697383 0.036440462 -0.3408601
0.16965963 0.2315637 0.098884605 0.13369498 0.15865086 -0.18544167 0.041441098 0.120271556
-0.10011816 0.33941707 -0.13983132 -0.08503014 0.06188163 0.27720317 -0.044612747 0.1666657
0.005039025 0.043545295 0.042628083 0.14474191 -0.10486451 0.050462645 0.04844578 -0.099579535
0.052252978 0.14077571 0.033763595 0.17230971 -0.15214248 0.083745636 0.2700595 0.2949659
0.039074127 -0.053823136 0.12547 0.09537591 0.1654222 -0.37241384 0.06491761 -0.31325233
0.07402708 0.39948192 0.038502842 0.14594199 -0.21485318 0.17051582 0.097458616 -0.0008365649
0.10630899 -0.047104742 0.072968446 -0.18669525 0.32230932 0.12886488 -0.080767505 0.09460966
0.59770095 -0.10477387 -0.056151852 -0.15865256 0.09466909 0.036097925 0.034563806 -0.08678281
0.17877923 0.10105182 0.10752239 0.15775236 -0.1789329 0.26179036 0.09147828 -0.009753726
-0.13869429 0.33742058 0.13552533 -0.051506422 0.07888061 0.26218867 0.16947502 0.06389286
-0.27214453 0.104770645 0.1161396 0.21563752 0.14338632 0.04173686 0.34139818 0.08755512
0.053015012 0.032644685 0.34928203 0.028911056 0.070086315 -0.06780336 0.2183846 0.11619663
0.18343833 0.016459746 0.12252046 0.2417583 0.18931687 -0.023333453 0.1831054 0.01807563
-0.07471136 0.113116235 -0.10440017 0.07018666 0.25335726 0.2305807 -0.074724615 -0.0878745
0.24188599 0.14313051 0.21521163 0.24305859 0.052845158 0.07999434 0.016869042 -0.1109404
0.021140186 -0.02628205 -0.017288141 -0.03750293 0.15820068 -0.03792449 0.17028037 0.15886016
0.03274696 0.26634586 0.19635963 0.14315554 -0.016362637 0.09280928 -0.17218053 0.06587618

running_mean f4 [224]
00000000: 1660 eabc 6e44 4e3d 5cd0 1c3e 71f4 0b3f
00000010: e6de 993e b978 8b3e d5a6 933d 8657 093e
00000020: c70f 0d3e a081 083e d38d 4a3e d156 1d3f
00000030: 4b72 a03e 8999 083e 7a1b 573e c38a 2d3e
00000040: 31a6 723e 2baa 803e 4e23 1f3e d14d 193e
00000050: 89aa 133f 1c43 253e 1989 7c3e eb49 7e3e
00000060: 239d 183e 0e63 3d3e e515 0e3f c691 763e
00000070: f169 063e 16b6 613f 0ab0 b23e 93bf 603e
00000080: c853 a03e e47c 2e3e ff6f 343e 4b7c 3a3e
00000090: 79be 3a3f a04b 063f 2ab5 863e c77c 883d
000000a0: f162 aebb 42dd 383f c08f a53e 0638 ce3e
000000b0: ac49 003f dddb f93e d742 6a3f e6a8 8c3e
000000c0: 1cea 8f3e e368 143f a271 d83e 21f4 453e
000000d0: d5b3 f53d 7716 783e 6236 f83e a118 fa3e
000000e0: 1635 013f 477b b13e f8a8 2cbc 4927 103f
000000f0: b3eb 1b3e e5bd 8f3e 028e 663d 6bb2 163d
00000100: f6b6 843e f91a 4f3e 08ce 263f 8e5e 4c3e
00000110: acd1 183e 00ac c63e c275 393e e2f7 5e3e
00000120: 2597 d33e adce a03d 6356 063e d790 e53d
00000130: 733a 533e 9ec0 1f3e e9f3 b63e 4f70 d03e
00000140: 9d14 df3e 69d3 133f 2db0 453d 22e2 6b3e
00000150: d859 6f3e 01fb c13e a7fe cb3e 2421 793e
00000160: 7d77 103f 9ed0 413e 2825 2b3e 7ece ce3d
00000170: ca8d ec3e c05a f63e 98c7 263f 2bd5 1d3e
00000180: bad5 fc3e 196d e03d 229e 8c3e 269a 1c3e
00000190: c783 683e f3f9 cc3e 3601 4e3e 44b0 513d
000001a0: 3bd1 1a3e 9f59 8f3e 2f57 903c 13ce 5f3e
000001b0: 347b 303f 9011 75bd 0f27 dfbb 9a01 773d
000001c0: 437d 953e 304d 813e ece5 853e 7a2c b93e
000001d0: caca 293e 7524 973e a343 69bd b336 c03e
000001e0: 8314 9b3e 2da2 0a3f ae09 883e 8035 433e
000001f0: a61a cc3d c0da b43e f3f6 2f3e dfa5 803e
00000200: fff4 8c3e 6861 683e 4d50 173f 77f4 f83e
00000210: 3f01 1c3e c16d db3d a874 113e fbe1 1d3c
00000220: 8d32 c53d 30a2 153e 388c 593e 7270 8ebc
00000230: d5df 2d3e 61ef 9b3e 1240 683e 9143 023d
00000240: 74de d13e e474 703e b975 c73e 3e91 883e
00000250: 4b34 d43e 1cf9 a53e 3da6 de3e e68b 573e
00000260: c435 c03e 1219 9b3e 96f5 4f3e 1ccc ef3d
00000270: dae6 983e ebb2 9b3e 84c5 5b3d 451a 853e
00000280: 2318 2e3f 4fd3 5a3e 76de 723d 3d21 623e
00000290: 701a 8c3e a7a0 953d 6b6e 173f d3d2 e03e
000002a0: 64e0 703e d4c9 ce3e 732e 2d3e 7ac4 233e
000002b0: 1ef0 e93d 9ab9 383d 82bb c03e a92d e53d
000002c0: 6ae4 c63e 5ea4 b73e ed8b f63e 30e5 323e
000002d0: 7bc1 ab3e b062 393e 50bb ce3d 7dbe 2ebc
000002e0: dde3 4c3f 53bd d83e bbb0 0f3f 3963 a23e
000002f0: c137 133f b8ad e83d d375 8a3d b1f9 f23d
00000300: f94d 1d3e b862 453d 1ea0 903e c261 823e
00000310: 62dd ae3d 8d28 fd3d 7338 ee3d bc87 853e
00000320: 82e1 0d3f f36d 843e 7713 353e fa81 503e
00000330: ed77 a13e 6525 9f3e ac06 743e 9110 333e
00000340: 733a c23e 32e8 023f 4985 c13d b8a0 493e
00000350: 2dfc bd3e 1adc c23c a758 5d3e 385f 323e
00000360: 4f1d fb3e 421f fb3d 5130 da3e a5c9 0d3e
00000370: 4552 aa3d f94b 403f 3097 323f 4c37 fa3e
-0.02861027 0.05035823 0.15313858 0.54669863 0.3005287 0.27240542 0.07209555 0.13412294
0.1377555 0.13330698 0.19780664 0.61460596 0.313372 0.13339819 0.21006575 0.16947465
0.2369621 0.25129828 0.15540811 0.14971091 0.5768209 0.16138881 0.24661674 0.24832885
0.14903693 0.18494818 0.5550216 0.24079046 0.13126351 0.88168466 0.34899932 0.2194808
0.3131392 0.1703983 0.17620848 0.18211477 0.7294689 0.52459145 0.26310092 0.066644244
-0.0053218533 0.7221261 0.32336235 0.40277117 0.50112414 0.48800555 0.9150824 0.2747261
0.281083 0.57972544 0.42274195 0.19331409 0.11997191 0.2422732 0.4847899 0.48846915
0.5047163 0.34664366 -0.010538332 0.56309944 0.15226631 0.28074566 0.056287773 0.036791246
0.25920838 0.20225133 0.6515813 0.19957945 0.14923733 0.388031 0.18111327 0.21774247
0.41326252 0.0785192 0.13118891 0.11209267 0.20627765 0.15600821 0.35732964 0.40710685
0.43570414 0.5774446 0.048263717 0.23035482 0.23374116 0.37886813 0.39842722 0.24329048
0.56432325 0.18927237 0.16713393 0.10097979 0.46201926 0.48116112 0.65148306 0.15413348
0.4938181 0.10958309 0.27464396 0.15293178 0.22706519 0.40034446 0.2011765 0.05119349
0.15118878 0.27998063 0.017619697 0.21855955 0.68937993 -0.059831202 -0.006810076 0.06030426
0.2919713 0.25254202 0.2615198 0.36166745 0.16581264 0.29520002 -0.05694927 0.37541732
0.30289087 0.5415371 0.26569885 0.19063377 0.0996602 0.35323143 0.17184047 0.2512655
0.27530667 0.22693408 0.59106904 0.48624012 0.1523485 0.10714293 0.14204657 0.0096363975
0.096287824 0.14612651 0.21244895 -0.017387602 0.16979916 0.3045607 0.22680691 0.031802718
0.4099003 0.2348209 0.38957003 0.2667331 0.41446146 0.32416618 0.43486205 0.21049461
0.3754102 0.30292565 0.20308527 0.11708853 0.29863626 0.3040994 0.053655162 0.25996605
0.6800558 0.2136967 0.059294187 0.22082992 0.2736392 0.07306033 0.5915286 0.43910846
0.23523098 0.40388358 0.1691225 0.15992919 0.11422752 0.04509888 0.37643057 0.111903496
0.3884614 0.3586759 0.4815363 0.1747024 0.3354605 0.18104053 0.10094321 -0.010665533
0.8003519 0.42331943 0.56129044 0.31716326 0.5750695 0.11361259 0.067607544 0.11864031
0.15361775 0.04818985 0.2824716 0.25465208 0.08538319 0.1236125 0.116318606 0.2608012
0.5542222 0.25865135 0.17683206 0.20362082 0.3153681 0.31083217 0.2383067 0.17486788
0.37935218 0.5113555 0.0944925 0.19690216 0.37106457 0.023786593 0.2161585 0.17419136
0.49045798 0.12261821 0.42614987 0.13846453 0.08316473 0.75115925 0.69761944 0.48870313

running_var f4 [224]
00000000: faff 833d 858b 303e 6884 bd3d ae8e 0a3f
00000010: 3aaf d13e 3d60 cc3e dd31 dd3d 566f 1d3e
00000020: 53ed fd3d 4c83 8f3d 99ab d93d b75a 9d3e
00000030: e189 243d 3bed 123e a654 f93d fd6a 543e
00000040: e59a 823e 350f a33e dc57 323e b4fe a53d
00000050: e7ed 003f 3cb0 db3d a7c0 393e 747c d13d
00000060: 02b5 1f3e e5ac 203e f49b 273f 0ea0 843e
00000070: 390d a73e 84cc bb3f 6448 ac3e ac29 363e
00000080: 4ba5 633e f460 cd3d 1bb7 c73e dbfe ce3d
00000090: 943d 993f 8e9b 0d3e 35a2 e93e ff2e e03d
000000a0: 4274 b83d f15d 8a3f 15c7 0c3f 57ce 243e
000000b0: fad3 813e cd0d 783e 5702 c93e 0c94 253e
000000c0: 7fb6 7d3e 193f 113d 8bf0 a43e 29ec 483e
000000d0: 3d11 ec3d ddcb 693e 6efc 903f 5fd2 9a3e
000000e0: 902d 7c3d ae68 ae3e fccd be3d dd28 0e3f
000000f0: 9801 173e 688b ad3e 16d9 e93d 8250 053e
00000100: b4c1 623e 6d0b 543e d3f1 463d 9af9 3f3e
00000110: 82c4 223e 6c18 963e 1f79 833e d7db fe3e
00000120: 6664 c93e bc29 2a3e a848 6b3e a109 b83d
00000130: de63 b53e 1527 763d 5df8 6b3e 01d0 ea3e
00000140: d817 c03e c517 bf3e 2e76 093e 4cec ba3d
00000150: 1ca2 f83d c852 9e3e 0d19 af3e b531 033f
00000160: 2af1 063f 40c1 853e 2e14 3c3e 9e81 183e
00000170: 0d60 d83e 5adf 023f 1cf5 5c3e 3592 453e
00000180: d5c1 f33e 2c5f 0e3e f450 933e 391f 553e
00000190: 0c65 6e3e 7ce0 103f f62b 9b3e 1d01 343e
000001a0: bd16 a83d 091b e43e fa2c 123e 868e 2c3e
000001b0: f94a 283e 6a49 2c3d 5e75 e53d ca61 063e
000001c0: 3edb fd3e 83e8 c13e 3277 153f 79f4 373f
000001d0: 3545 273e 99e0 0b3e dfa7 0b3d f28a 203e
000001e0: 047d a63e 8141 0e3f 4d3a b03e 6f88 963d
000001f0: 77ea f83d a7be 223f 611d 803e acd5 db3d
00000200: 382c d63e 0ce4 f83d 0f9d 053f d482 dc3e
00000210: aa45 0f3e 6e72 ae3d 5a02 a53d 0c29 893d
00000220: d23d 0f3e b6b5 433e eefe 903e e404 803d
00000230: 9bb5 0b3e 29c8 853e 37e8 263e f35c bd3d
00000240: 1ae3 463e b59b a53e ecf7 d43e 77be bd3e
00000250: 0e98 da3e 8049 953e 681b 973e 732d 9b3e
00000260: 9d77 743e a007 c73e 59ca 8f3e 2cb6 eb3d
00000270: 18d0 ae3e ddd4 973d 967c dd3d 4f80 313e
00000280: 65eb 513d eba2 a13e 4f0e 463d f7d1 573e
00000290: d692 c03e 352e cc3d ddc3 1e3e d861 123f
000002a0: 1141 873e 99b3 943e 7d9f 713e 8a44 3f3e
000002b0: d5e0 0b3e 11cc b03d 6a50 8d3e c7eb 2f3e
000002c0: cda6 ac3e 4b65 5c3f a32c 783e d2a8 533e
000002d0: 4fb2 b13e 78de 553e 5aba 9d3d 2b3a 573d
000002e0: a8d3 3a3f 6a83 413f efa6 9f3e 6149 c63e
000002f0: 7827 e03e 5dac 4b3d 5ab7 483e 0f47 043e
00000300: 4360 413e f9d1 373e 0293 a23e 5282 803e
00000310: 3e58 d33d 7804 5a3e 86b7 873e 4a78 863e
00000320: be84 823d a4b8 853e 3044 a03e c29c 1a3e
00000330: 5169 cb3d 87bf 463e f812 a03e 02a1 473e
00000340: b663 a93e a840 f03d 1aee 5a3e 2d85 423e
00000350: 7d1f aa3e 65b7 e23d c9fd 2a3e 9155 1c3e
00000360: 0f04 943e b8b7 8a3d 1450 943e dbfb df3d
00000370: c6b2 343e 5a0e 973d b298 b43f 36e1 af3e
0.06445308 0.17240722 0.0925377 0.5412396 0.40954 0.39917174 0.10800526 0.15374503
0.123987816 0.07007465 0.10628433 0.30733272 0.040170554 0.14348309 0.121743485 0.20743938
0.255088 0.3184754 0.17416328 0.081052214 0.5036301 0.107269734 0.18139897 0.10228816
0.15596393 0.15690954 0.6547234 0.25903362 0.32627276 1.4671788 0.3364898 0.17789334
0.22231023 0.10028258 0.39006886 0.101072036 1.1971917 0.1382887 0.45631567 0.10946464
0.090065494 1.0809919 0.54991275 0.16094337 0.25357038 0.24224015 0.39259598 0.16169757
0.24776648 0.035460565 0.3221477 0.19621338 0.115267254 0.22831674 1.1327035 0.30238625
0.06156689 0.3406424 0.09316632 0.555311 0.14746702 0.3389542 0.11418359 0.13018993
0.22144204 0.20707484 0.048570465 0.18747559 0.15895274 0.29315507 0.25678346 0.497771
0.3933441 0.16617483 0.22976935 0.089862116 0.35427755 0.060095865 0.23043962 0.4586182
0.3751819 0.37322822 0.13423988 0.09127101 0.12140295 0.30922532 0.341988 0.5124772
0.5271174 0.26124 0.18367073 0.14893195 0.4226078 0.5112206 0.21577877 0.19294055
0.4760882 0.13903493 0.287727 0.20812692 0.23280734 0.56592536 0.30306977 0.1757855
0.08207462 0.44551876 0.1427497 0.16851243 0.1643485 0.0420622 0.11204027 0.13123241
0.4958133 0.37872705 0.58385 0.7185741 0.16334994 0.13659896 0.03409564 0.15678003
0.32517254 0.555687 0.3441948 0.073502414 0.121540956 0.6357216 0.25022414 0.10734114
0.4183061 0.121528715 0.5219278 0.43068564 0.13991418 0.085179195 0.08057089 0.06697282
0.13988426 0.19112286 0.28319496 0.06250933 0.13643496 0.26129273 0.1629952 0.09246244
0.1942257 0.32345358 0.415954 0.37059376 0.42694134 0.2915764 0.29513097 0.30308113
0.23873754 0.38873005 0.28084067 0.11509356 0.34143138 0.07413647 0.108147785 0.17334102
0.05124988 0.3156961 0.04835349 0.21076189 0.37612027 0.09969751 0.15504403 0.5718055
0.2641683 0.29043272 0.23595996 0.1867849 0.13659985 0.086326726 0.27600414 0.17179786
0.3372101 0.8609206 0.24235778 0.20669869 0.3470635 0.20885646 0.07701559 0.052545708
0.7297921 0.75591147 0.31182048 0.3872786 0.43780112 0.049724925 0.19601193 0.12917732
0.18884377 0.17951192 0.31752783 0.25099427 0.10319565 0.21290767 0.26507205 0.26263648
0.06372975 0.26117432 0.31302023 0.15098861 0.09932197 0.19409 0.31264472 0.19495013
0.33083886 0.11731082 0.21379891 0.18996115 0.3322715 0.11070136 0.16698374 0.15267016
0.28909346 0.06773323 0.28967345 0.109367095 0.17646322 0.07375784 1.4109099 0.3435151

weight f4 [192, 224]
00000000: ffee fd3c 7595 8bbd 4ba5 5d3d 065c 8fbe
00000010: 0883 013e 0311 4f3e 1eba 8d3d e241 a3bd
00000020: c36b 133e 9413 6b3d bfd8 acbd 74dc 24bd
00000030: 83ac 81bc e629 533e 071c a1bd d1ef a03d
00000040: 628b a3be 9527 413c 7456 873d 26c7 7ebd
00000050: c21c 833d 6584 263d 0169 6fbd 83f8 1bbe
00000060: f11c bcbd 3696 94bd 23e7 b2bd e9d3 cdbd
00000070: 1fd9 163e 1092 773d 8bbc 9dbd a934 f2bd
00000080: 2d22 d73d b808 373d 0c06 b93c 326a 69bb
00000090: 1dfa 173e 6960 e63d 958f 633d 620b d33d
000000a0: 9a1a 80bd efcf 283c 0e15 013e bfc5 ecbd
000000b0: ab28 953d 08e3 95bd 2d74 0b3e 4aae c5be
000000c0: 01ff 92be 83d3 9a3d 0ff9 24be f559 3bbc
000000d0: 9eb1 863d 3e7d 4cbd 1f44 343d 5bf9 10be
000000e0: e0b2 98bc 5998 0d3e 874b 18be 9aea 36be
000000f0: 0d06 0ebe 5c53 873e 3de8 e4bd df5f fbbd
00000100: 36dc 63be a6be f13d d967 82bc 62e1 d73d
00000110: 2774 4fbe 3176 babe f062 d9bc 924e 7abc
00000120: 4c5d 5e3d 00e1 fe3c 8255 493d a3db 2d3e
00000130: 8538 1cbe f022 24be b417 fe3d 3b0c 27bd
00000140: 85e5 923d ca8b 31be 8335 5cbd 5653 d93c
00000150: 2f8b 73bd 40bb dfbd 3285 63bd ad66 243e
00000160: fb4b 123e f9f2 b03d a0ff a6bc 115f 92bd
00000170: 28fc 02bd 2f2a 8bbe 85a9 da3d 0c21 6f3d
00000180: 08ac 413b a41c 283d 8f5f abbd 9cb4 4e3c
00000190: 41aa debc 2fcf 3a3e c870 de3d ac73 8a3e
000001a0: 68cd d33c 722d ee3d 44ce d23c bbab e3bc
000001b0: f41b c53c 4023 14be d6f6 e13d d603 12bc
000001c0: d1d5 7d3d 4a3e 60bc 7cb3 8f3d 38bb 11be
000001d0: d12e 423c aa21 c03d aeb4 e4bd 173b a23b
000001e0: c8e6 fabc 59a6 e33d 533c 16be db87 103d
000001f0: 31dd c1bc 9391 0d3d 5980 fc3c a7cd da3d
00000200: 8260 57be b722 4d3d fcc9 91bd 3092 e3bd
00000210: 8f8b 07be dd38 39bc 1ec9 89bd 95b3 dcbd
00000220: 2730 2f3d 4bdf 183e b3dd debd 09f3 99bb
00000230: f5d1 bc3c 5678 d03c d6be a0bd 374a 3d3e
00000240: 1441 6ebd da3c dc3c 5903 29bc f25c 13be
00000250: b470 e4bd 4c21 b43b 4130 52bd b8dc 443e
00000260: 1954 04bd d243 89bd 3b31 3e3e 2242 a03d
00000270: 2cb5 16be 9416 ff3d 7e6e 52bd af2e 3d3e
00000280: 13b0 e93d c31b 833e 0904 2c3e 6e1a abbd
00000290: 511a 5c3e 713e 8abb 3d4e 1dbe bb03 9e3d
000002a0: 6176 35bd b280 acbd 3014 18be b7f3 a43d
000002b0: 5a90 dd3a a889 6d3d a165 31bd 3cb7 5cbe
000002c0: 567e 02ba 634f 0a3d e546 073d 93d4 7fbd
000002d0: 5fcc d8bd 3f52 3b3e 8508 a93d 4821 9dbd
000002e0: 19fe d63c e4a5 2b3e aef4 2dbd d00e b53c
000002f0: 54ab 9dbe fccc c13d 6631 8e3e 0c4c 8e3d
00000300: e48c adbc 54e8 7bbe 5be0 e33d 5f83 d9bc
00000310: 1f3c b5bd ece9 363c 2f50 7fbe c174 52bd
00000320: 2df6 babc ee52 09bd 6003 813d 1ced 843c
00000330: 8e2b a7bc 505a e93d 846b 81bc 79dc 973d
00000340: 81bc 6b3e 019b 8abc 6c29 47be 1dbd 9a3d
00000350: d18b 7e3b 6df3 edbd 40db af3d 15fb 15bc
00000360: 2fd2 b43d ccee 68bd 0459 1dbd 6960 9b3d
00000370: 3a09 2cbe 7d9d d93d 7fad 2bb9 4e86 1dbc
00000380: d26d acbe fa2f 1cbe a2dd f3bc ca3a 84be
00000390: 05fa 57be a637 22be 3b2b 183e 034a 11be
000003a0: 3a25 043e cf70 e13d d4d1 efbd afcf 0ebe
000003b0: 4835 5ebd 89d6 9bbb b703 e1bd 03f4 823d
000003c0: de36 4a3e e077 3ebb b777 16be 9afb f03d
000003d0: 0054 e7bc e5ad 4fbd 26b9 753d 7729 0b3e
000003e0: 7103 34bc ac7c 02bd cb61 45bd c8a1 13be
000003f0: 062c 15be dc82 9dbb e15b 49bd 7d42 e8bd
0.030997751 -0.06815616 0.054112714 -0.27999896 0.1264764 0.20221333 0.06920265 -0.079715505
0.14396577 0.057391718 -0.084397785 -0.040249303 -0.01582933 0.20621452 -0.07866674 0.07858241
-0.31942278 0.011789222 0.066082865 -0.06220164 0.064019695 0.040653605 -0.05844975 -0.15231518
-0.09185208 -0.07255213 -0.08735492 -0.10050184 0.14731263 0.06044203 -0.07701977 -0.118264504
0.105045654 0.04468605 0.022585891 -0.0035616276 0.14841504 0.112488575 0.055556852 0.103049055
-0.06255074 0.0103034815 0.12605688 -0.115611546 0.072831474 -0.073186934 0.13618536 -0.38609535
-0.28710178 0.07559874 -0.16110633 -0.011435022 0.065768465 -0.049924128 0.044010278 -0.14157622
-0.018639982 0.13827647 -0.14872561 -0.17862931 -0.13869496 0.26430786 -0.111771084 -0.12274145
-0.22251973 0.118039414 -0.015918659 0.10541035 -0.20259152 -0.36418298 -0.026536435 -0.015277522
0.054288194 0.031113148 0.049153812 0.16978316 -0.15255935 -0.16028953 0.12406865 -0.04078315
0.071726836 -0.17338482 -0.05376197 0.026528995 -0.059458908 -0.10924387 -0.055546947 0.16054793
0.14286797 0.08640093 -0.020385563 -0.07147039 -0.031978756 -0.2718062 0.106768645 0.058381125
0.0029552002 0.04104294 -0.08367836 0.012616303 -0.027180793 0.18243097 0.10861355 0.27041376
0.025854781 0.11629762 0.02573312 -0.027791848 0.02406118 -0.14466572 0.11033408 -0.008912047
0.06197149 -0.013686726 0.07016656 -0.14231575 0.011851982 0.09381421 -0.111672744 0.0049508917
-0.030627623 0.11115713 -0.1467145 0.035285812 -0.023665043 0.03456266 0.03082292 0.10683756
-0.21032909 0.050081935 -0.071186036 -0.111118674 -0.13236831 -0.011305061 -0.06727813 -0.1077644
0.04277053 0.1492893 -0.108821295 -0.0046981615 0.023049334 0.025448006 -0.07848899 0.18485342
-0.058167532 0.026884485 -0.01031574 -0.14390925 -0.11154309 0.0054971334 -0.05131555 0.19224823
-0.032306764 -0.06702389 0.18573467 0.07825114 -0.14717549 0.12455478 -0.051374905 0.1847484
0.114105366 0.25607118 0.16798414 -0.083546504 0.21494414 -0.0042188694 -0.15361877 0.07715555
-0.044302348 -0.08422984 -0.14851451 0.080542974 0.0016903982 0.057992607 -0.04330981 -0.21554273
-0.0004977932 0.033767115 0.033026595 -0.062458586 -0.10585856 0.18293093 0.08253578 -0.076723635
0.02624421 0.16762501 -0.042469673 0.02210179 -0.30794775 0.09462926 0.27772063 0.069480985
-0.021185346 -0.24600345 0.11126777 -0.0265519 -0.08849358 0.01116417 -0.24932931 -0.051380876
-0.022822464 -0.033526354 0.06299472 0.016226344 -0.02040651 0.11394179 -0.015798338 0.07415099
0.23021127 -0.016919615 -0.19449395 0.07555602 0.0038840661 -0.116186954 0.085867405 -0.009154101
0.08829152 -0.05686836 -0.03841497 0.07586748 -0.16800395 0.10625742 -0.00016372463 -0.00961454
-0.33677536 -0.15252677 -0.029768769 -0.25826102 -0.21091469 -0.1584154 0.14860241 -0.1418839
0.12904826 0.11007845 -0.117099434 -0.13946413 -0.05425003 -0.004755799 -0.10987037 0.06394198
0.19747493 -0.002906315 -0.14694105 0.11766739 -0.028238297 -0.050702948 0.059991024 0.13590036
-0.010987149 -0.031857178 -0.048188966 -0.14417183 -0.14567575 -0.0048068594 -0.04915989 -0.11340807

weight f4 [192]
00000000: 45c9 ad3e 9103 ec3e 31f2 1b3f 415b 153f
00000010: 8345 a43e 52d9 df3e 0553 0f3f 1d19 a53e
00000020: e57e d23e 5ae1 273f 72a5 c33e 4c23 de3e
00000030: 9ee2 d93e af38 f33e e933 be3e 8501 b53e
00000040: e2c0 d23e d007 193f b6d6 ee3e e82e 053f
00000050: 9e45 dc3e 7016 293f d4d4 6c3f b17d b93e
00000060: 29dd 1b3f 9e29 fb3e 8b8e 213f a8e4 373f
00000070: 5693 d23e 1aef b13e de4d 143f 42f9 2e3f
00000080: fd0a 163f aa39 e23e e784 013f 23d9 d13e
00000090: e997 c53e baeb d23e 0cd2 b63e f243 7d3f
000000a0: 273a 423f 3c46 0c3f 62f6 ee3e 015c 083f
000000b0: 7662 f23e 9eb9 a23e 93ff ce3e 9534 b93e
000000c0: a3df ab3e f0fc 173f c154 ad3e 97f9 b63e
000000d0: 7658 103f 8e5e 023f e11a ac3e 85d9 e23e
000000e0: fba4 363f 69c6 143f 9d01 0a3f 9084 103f
000000f0: dd1f 2f3f c741 d73e 5cdf 103f c2bf 253f
00000100: 5ca3 f83e 3f30 de3e 1015 dd3e 579e f83e
00000110: d44d fd3e f5ff d53e 80b4 fe3e 3b59 0a3f
00000120: 664f 163f 8240 c93e 7a20 d73e 4a0f ad3e
00000130: 6168 cb3e 7771 d63e 3e7a 1d3f 973b 0e3f
00000140: 8484 dd3e 7f42 1a3f ab41 f53e 01f0 d03e
00000150: 603a dc3e 3bed 153f 73f4 fc3e 1a2b d33e
00000160: 8634 9b3e baab f03e f26b df3e fd31 223f
00000170: f2e1 2b3f 4a43 ff3e fda6 453f 765b 253f
00000180: 0195 fa3e f965 c63e 945d 013f 87ca ca3e
00000190: f94d 203f 7ec9 b13e 1499 cf3e fb33 083f
000001a0: 4cc1 ee3e 6eec f03e c82f f53e 58a0 ba3e
000001b0: 7784 1f3f 8ac3 bd3e 9d74 0a3f 81bb e43e
000001c0: fe22 ee3e 9f93 8e3e 2278 f83e aeaf cd3e
000001d0: f09e cd3e f498 783e 63f6 d53e e573 e13e
000001e0: 0ad3 bf3e a031 653f 9f45 363f 88a4 793f
000001f0: 5d23 d63e c90f eb3e 6dbd 703f f94c fa3e
00000200: 3c25 cc3e 6fc0 a83e f761 0c3f 94be 983e
00000210: 94a8 033f 9f98 0f3f 518e 423f 292a c73e
00000220: 953a 0f3f 81ff 2f3f a432 a23e e9fc 2e3f
00000230: f45c d83e 449f ec3e a37c 393f de07 0c3f
00000240: 26e5 dc3e e6ef b63e a8ea db3e 5f57 d53e
00000250: 7eae e63e 22ce c63e 2d9f cb3e 2085 f23e
00000260: 02b8 073f 2893 ff3e 8040 bd3e 3531 fc3e
00000270: c7f3 b33e d255 093f 4d56 dd3e 9d54 043f
00000280: 3a69 ca3e 0da5 4c3f 56ca b43e f97c 6f3f
00000290: 81f6 fb3e 9852 e43e 791f c93e fdaa 0e3f
000002a0: 5249 e93e 7d07 143f d7aa f83e 3265 fd3e
000002b0: 01f6 9f3e e002 f13e c4dd eb3e 741f 903e
000002c0: 0fdc f23e aea0 da3e ae1e 053f 76bd 0a3f
000002d0: dfc9 0f3f 45c7 c23e 871a be3e f609 d83e
000002e0: 6016 a73e 7c3b e63e 5590 083f e4c9 e23e
000002f0: 8232 fe3e cbe8 083f 5e7b d53e 9e1c 323f
0.3394262 0.4609647 0.6091643 0.5834237 0.32084283 0.4372049 0.5598605 0.32245722
0.41112438 0.65578234 0.38212162 0.43386304 0.42555708 0.47504184 0.3714898 0.35352722
0.41162783 0.59777546 0.46648186 0.520247 0.43021864 0.6604986 0.9251225 0.36228707
0.6088434 0.4905519 0.6310813 0.71833277 0.41128033 0.34752733 0.57931316 0.6834909
0.58610517 0.4418462 0.5059342 0.40985975 0.3859246 0.4119547 0.35707128 0.989318
0.75869983 0.5479467 0.4667235 0.53265387 0.47340745 0.3178224 0.40429363 0.3617293
0.3356906 0.59370327 0.33853725 0.35737297 0.5638498 0.5092553 0.33614257 0.4430658
0.7134549 0.5811525 0.5390871 0.56452274 0.68407995 0.42042372 0.5659082 0.64745724
0.48562133 0.43396184 0.43180132 0.48558304 0.4947344 0.41796842 0.49747086 0.54042405
0.587149 0.39307028 0.42016965 0.33800727 0.39728072 0.41883442 0.6151465 0.55559677
0.43265164 0.60257715 0.47901663 0.40808108 0.43013287 0.5856511 0.4940525 0.4124382
0.3031351 0.47006017 0.43637043 0.63357526 0.6714164 0.49856025 0.7720793 0.64592683
0.48941806 0.38749674 0.50533414 0.3960764 0.62618977 0.3472404 0.40546477 0.53204316
0.4663185 0.47055382 0.47888017 0.36450458 0.623115 0.37063247 0.5408419 0.44674304
0.46511072 0.27847 0.48529154 0.40173095 0.40160322 0.24277097 0.4178954 0.44033733
0.37465698 0.89528847 0.71199983 0.9751668 0.41823855 0.4591048 0.9403904 0.4888685
0.39872158 0.32959315 0.5483698 0.298329 0.51429105 0.56092256 0.7599841 0.38899353
0.55948764 0.68749243 0.3167926 0.6835466 0.42258418 0.4621526 0.72455806 0.54699504
0.43143576 0.35729903 0.42952466 0.4166822 0.45055002 0.38829142 0.3976988 0.4736719
0.5301515 0.4991696 0.36963272 0.49256292 0.35146925 0.53646576 0.43229905 0.5169161
0.39533406 0.7993935 0.3531062 0.9355007 0.49211505 0.44594264 0.39281824 0.5572966
0.4556375 0.57823926 0.4856784 0.49491268 0.31242374 0.47072506 0.4606763 0.28148997
0.47433516 0.42700714 0.5199994 0.54195344 0.56167406 0.38042656 0.37129614 0.421951
0.32634258 0.44967258 0.53345233 0.44294655 0.4964791 0.53480214 0.41695684 0.69574916

bias f4 [192]
00000000: 15a9 4ebe a537 163e 4f54 133e a0da 933d
00000010: f424 25be 1d04 33be 293a ad3e 9f26 753e
00000020: 0d68 c73c cca5 9d3e a373 da3d 7b45 45bd
00000030: 7cd4 163e 5201 b9bd 511a 81bb 6e9a 793d
00000040: 75bc 543e 149f 8bbe 56d5 703e 1ed7 d13d
00000050: c79a c0bc 43b0 053e 4360 113e 103f 963d
00000060: f924 8c3d 338f e03d 82fd a6bd e6f6 8cbd
00000070: daa2 613e a5d8 a53d e969 5b3e 1f1c c73d
00000080: 4cbe 993e a999 913a 0ef5 56be b342 80bb
00000090: d764 a83d 2bc7 adbd 07dc 963e 8389 f83d
000000a0: 9d86 33be 4d02 1c3e 8e34 09be 596d 2abe
000000b0: 9d97 e1bd 7bb5 453d 3d39 193e 117c ce3d
000000c0: 0ccf 9a3d baf2 883d bd6e 803d 02a9 9fbe
000000d0: 3754 5abe f63e 343e c143 1c3e de34 95bc
000000e0: c1da 30bd abe8 693e 2137 883d 298d 553e
000000f0: fed2 743d ec8b b03e 59bf e23d a4c7 2dbc
00000100: 1ce2 33be ccca 803e 7344 b0be 01c2 5c3d
00000110: e71f 65bd 7460 123e 538f 0c3e 4581 673e
00000120: 87fb ba3e 0d54 1b3e d37c 1c3e 7ef7 583e
00000130: afe0 b13c 8c65 d43d ff1d f2bb 5a7d c9bd
00000140: cb99 a53e 974a f03d c4ea 6f3e 732a 08be
00000150: 1f0e e2bd a2a7 2cbe 3aa5 b9bd 43cc de3d
00000160: fe41 a13d e909 893e 08df a0bb ddb3 153e
00000170: 44cf 873e 146b 5b3c 62a9 40be da9e 97bd
00000180: 3fef 1a3d fd27 3f3d 7412 513e c964 263d
00000190: b0ee 593d 641f 9d3e e102 273e b0dd 673e
000001a0: 74ad 14bd 27fe 543e 2b62 da3d d5cf 813c
000001b0: a14e 9e3e 04d9 103e b4af e53d f727 ca3d
000001c0: 56e5 93bd 1318 153e e309 d8bd e1aa 083e
000001d0: 414e a1bd 73b6 543d 6a73 0f3d efd5 a1bd
000001e0: f8aa 0dbd 106a 9039 dd1c b43e 8654 9e3e
000001f0: ac3d a9bc b840 8e3e 76e4 783e f300 c33c
00000200: 02a9 8f3d 08ef c03e fa44 073e 8e22 d83c
00000210: 0f31 533d 6571 ac3e 8a89 a03d d597 6b3d
00000220: 3a01 8d3e 06c2 7e3d c62e 433e 3884 5cbe
00000230: 2468 033e 6922 e7bd bf44 29bd e8ef adbc
00000240: 7bac 31bc 1b6d ee3d 5b90 ddbe 3e17 963e
00000250: 47f0 4d3a 59eb d9be bb95 1d3d 987e b73c
00000260: d29b bd3d 65b8 ac3d b1b1 663e 7ed2 40be
00000270: dd6e 393e 188a 543e a320 673e 46d7 f5bc
00000280: 8e48 c03b 670d a63d ac52 033e 4506 cd3e
00000290: c17a e23c aa1c ad3c 12d8 303e 8dfb 17bd
000002a0: b704 80bd ce44 233e b553 bf3e 50c8 be3d
000002b0: 094d cd3b 2356 833e 6ae8 27be d3c8 e7bd
000002c0: 914e 893e 1bb4 6dbe bca3 5e3c 56d5 dd3c
000002d0: 6692 e1bd 6c85 52bd f6f9 e43d 4bfa b73d
000002e0: d96a 6cbd 8bd4 033e fe8c 4cbe d300 ac3d
000002f0: 7150 383e 6b00 aabe 7477 0bbb f14d ca3e
-0.20181687 0.14669664 0.1438763 0.07219434 -0.16127378 -0.17482038 0.33833435 0.23940514
0.024341607 0.30790555 0.10666587 -0.048161965 0.14729494 -0.09033455 -0.0039399047 0.06093829
0.20775016 -0.27269804 0.23518881 0.102461085 -0.023511304 0.1305552 0.14196877 0.07336247
0.068429895 0.10964813 -0.081538215 -0.0688303 0.22034779 0.08097962 0.2142712 0.097221605
0.30027997 0.0011108416 -0.20991918 -0.003914201 0.08222359 -0.08485254 0.29464743 0.12135603
-0.1753182 0.15235253 -0.13398954 -0.16643275 -0.11015246 0.048268776 0.14963241 0.100822575
0.07559022 0.066869214 0.06271122 -0.3118363 -0.21321188 0.17602143 0.15260221 -0.018213686
-0.04317737 0.22842662 0.0665114 0.2085463 0.05977153 0.34481752 0.11071653 -0.01060668
-0.17566723 0.25154722 -0.34427223 0.053895954 -0.055938628 0.14294606 0.13726549 0.22607906
0.36520025 0.15168782 0.15281992 0.21188161 0.021713583 0.10370931 -0.0073888297 -0.09838362
0.32343897 0.11732977 0.234294 -0.13297443 -0.1103785 -0.16860822 -0.090647176 0.108788036
0.07873915 0.26765373 -0.0049094 0.14619394 0.2652532 0.013392229 -0.18814614 -0.074033454
0.03782582 0.046668995 0.20417196 0.04062346 0.053206146 0.30688012 0.16309692 0.22643161
-0.03629823 0.20800076 0.10663255 0.015846172 0.30919364 0.14145285 0.11215153 0.09870904
-0.07221477 0.14559965 -0.10548761 0.13346435 -0.07876254 0.05193181 0.035022177 -0.07902133
-0.034586877 0.00027544843 0.3517827 0.3092386 -0.02065929 0.2778375 0.24305901 0.023804164
0.070146576 0.37682366 0.13209906 0.026383664 0.051560458 0.33680263 0.078387335 0.057517845
0.27539998 0.062196754 0.19060811 -0.21534812 0.12832695 -0.1128586 -0.041325327 -0.02123256
-0.010844345 0.11641904 -0.43274197 0.29314607 0.00078559335 -0.4256237 0.038472872 0.022399232
0.09258236 0.08433608 0.22528721 -0.18830296 0.18108697 0.20755804 0.22571044 -0.030009877
0.005868024 0.08108025 0.12824506 0.40043846 0.027646424 0.021131832 0.17269924 -0.037105132
-0.06250899 0.15944216 0.3736855 0.0931555 0.006265287 0.25651655 -0.16397253 -0.11317601
0.26817754 -0.23213236 0.013588842 0.027079266 -0.110142514 -0.051396772 0.11180489 0.089832865
-0.057719085 0.12874047 -0.19975659 0.08398595 0.17999436 -0.33203444 -0.0021280916 0.3951259
