models/nn_to_lev_cat02_epoch16.pt (torch, 340127 bytes, 43 tensors)

weight f4 [224, 16]
0.33550808 0.1662527 -0.36693302 0.36125258 -0.19436422 -0.10315502 -0.37307027 0.28551614
0.5484949 -0.05154583 0.09019204 -0.057110574 0.12533554 -0.09512497 0.014291802 -0.03277967
0.2611389 0.12712586 -0.20491558 -0.025742713 -0.03533647 -0.037388038 0.06999531 0.10287293
-0.22483672 0.035505008 0.0822775 -0.17267646 -0.028317546 -0.34614727 0.38672432 -0.13408405
0.25812954 -0.017926155 -0.0911886 0.18401052 0.027621767 0.36060017 0.019478034 -0.4201454
-0.004691279 -0.05202527 -0.07165789 0.31855488 0.23058972 -0.19081697 0.106234 0.35328728
0.433909 -0.08925274 -0.37755388 -0.1284602 -0.51098025 0.57173103 -0.20128284 0.3635719
-0.15870632 -0.13686489 0.3266128 -0.20106204 0.049747266 -0.20609435 0.14384173 -0.0059780204
0.019396693 -0.0832164 0.35182297 0.12771168 -0.042119384 -0.24191183 0.08612269 -0.0039653266
0.43962643 0.22917882 -0.094436646 -0.09085945 -0.2059753 0.15074678 0.06085011 0.8235831
-0.07746354 -0.42648205 0.47344947 -0.3309889 0.5313595 -0.17661811 0.638342 -0.6329862
-0.03944515 0.023713838 0.020550165 -0.041705087 -0.034434743 0.21378767 -0.19571331 0.0010815866
0.4171947 -0.19444041 -0.28250623 -0.25307122 -0.21077737 0.018480139 0.16714115 -0.1311043
-0.24189761 -0.08879474 -0.01147187 0.0052298293 -0.4054749 -0.1186022 0.4379723 0.30294833
0.12669449 -0.13962363 -0.22596686 0.030561507 -0.021294609 -0.3748853 -0.13436316 -0.11854913
-0.05279845 -0.225974 0.03630804 0.022440089 -0.12722042 -0.02321606 0.06508613 -0.47538516
0.2442447 -0.10713395 0.20459948 0.0717338 -0.30246443 0.1575756 0.08863104 0.012390653
-0.097581044 -0.43967086 0.27044147 0.06921942 0.11916701 -0.26333126 0.19494583 -0.1309123
-0.29977742 0.17332128 0.26870194 0.25864622 0.37273338 -0.52758986 0.42911875 -0.27470526
-0.24255243 -0.087870054 0.32845023 -0.24635229 0.07016723 0.043367304 -0.062093362 -0.08997248
0.18789305 -0.015099646 -0.20978734 -0.5612606 0.39767814 0.117399424 -0.6655816 0.76992667
0.11341219 -0.028735809 -0.07918346 0.048229646 0.10458734 -0.041606452 -0.09176861 -0.06920177
-0.5107493 0.041207664 0.41987586 -0.57481563 0.29643714 0.34667334 0.08061439 -0.49727708
0.50263506 0.03189117 0.0036405614 -0.08439134 -0.015467181 0.060212858 -0.057744104 -0.001166536
4.449717e-05 7.248946e-05 0.00011469142 -0.00018124685 -0.0002288224 -0.00022930613 1.535191e-05 5.3267726e-05
8.515965e-05 -0.00025796142 -0.00016929868 -0.00023514844 0.00010890269 -3.5003464e-05 -0.00032085634 0.00025935975
-0.25885427 0.07413202 0.19845423 0.42323872 -0.379306 -0.059133466 -0.6072045 0.9187423
-0.27214405 -0.109805115 0.17879505 -0.07611878 -0.13146377 0.24727991 -0.12474621 -0.012262799
-0.19242929 0.23784992 0.16552942 0.23226579 -0.27265814 -0.4053232 -0.18679985 -0.12902363
-0.19509645 0.039262466 -0.0061369753 0.1416791 0.1486821 -0.0985933 -0.22543658 -0.40840793
0.16766767 0.0459585 -0.023977946 -0.10026478 -0.17001846 -0.12823197 -0.026213132 0.061880633
-0.08775032 0.1564847 -0.02906746 -0.16510966 0.15489528 -0.115405835 -0.06650549 -0.22381464
00000000: b7c7 ab3e 263e 2a3e a5de bbbe 19f6 b83e
00000010: 6a07 47be f042 d3bd 1103 bfbe 2c2f 923e
00000020: 296a 0c3f b821 53bd 9bb6 b83d c7ec 69bd
00000030: f657 003e e1d0 c2bd 2a28 6a3c fa43 06bd
00000040: ffb3 853e 482d 023e 64d5 51be 62e2 d2bc
00000050: f9bc 10bd 3324 19bd b359 8f3d 0baf d23d
00000060: 993b 66be b36d 113d 1b81 a83d 19d2 30be
00000070: 33fa e7bc 373a b1be bb00 c63e 544d 09be
00000080: 8e29 843e dfd9 92bc 17c1 babd 416d 3c3e
00000090: 0b47 e23c 96a0 b83e 6690 9f3c 4c1d d7be
000000a0: 4db9 99bb 7318 55bd 5fc1 92bd a019 a33e
000000b0: b61f 6c3e 8665 43be 3691 d93d 12e2 b43e
000000c0: 5229 de3e 24ca b6bd be4e c1be 128b 03be
000000d0: 9acf 02bf f75c 123f 171d 4ebe 1926 ba3e
000000e0: e983 22be 4f26 0cbe cb39 a73e 35e3 4dbe
000000f0: cac3 4b3d 660a 53be 3f4b 133e 45e3 c3bb
00000100: d0e5 9e3c 5c6d aabd 2422 b43e dac6 023e
00000110: 6085 2cbd bcb7 77be 1861 b03d 92ef 81bb
00000120: b716 e13e daad 6a3e 0068 c1bd 8514 babd
00000130: 30eb 52be 5d5d 1a3e f73d 793d 58d6 523f
00000140: 34a5 9ebd db5b dabe f867 f23e 6177 a9be
00000150: 2d07 083f 61db 34be 626a 233f 620b 22bf
00000160: 3d91 21bd 8643 c23c d258 a83c f4d2 2abd
00000170: 720b 0dbd 28eb 5a3e 1269 48be 06c4 8d3a
00000180: 8b9a d53e 631b 47be a8a4 90be 8d92 81be
00000190: 06d6 57be a963 973c 0d27 2b3e 3540 06be
000001a0: 02b4 77be 04da b5bd 83f4 3bbc fd5e ab3b
000001b0: 689a cfbe b6e5 f2bd e83d e03e 0b1c 9b3e
000001c0: 33bc 013e 7ff9 0ebe db63 67be 205c fa3c
000001d0: 0872 aebc f7f0 bfbe 7f96 09be e3c9 f2bd
000001e0: 3043 58bd ba65 67be bdb7 143d 47d4 b73c
000001f0: 1246 02be 9b2f bebc e04b 853d af65 f3be
00000200: 481b 7a3e 0b69 dbbd 8782 513e 2ce9 923d
00000210: 9edc 9abe 805b 213e 3184 b53d 2a02 4b3c
00000220: 92d8 c7bd 8a1c e1be 4e77 8a3e e9c2 8d3d
00000230: d50d f43d 5bd3 86be e19f 473e e00d 06be
00000240: 6d7c 99be 227b 313e 4d93 893e 476d 843e
00000250: e9d6 be3e 2110 07bf 74b5 db3e 2ba6 8cbe
00000260: aa5f 78be 37f5 b3bd a12a a83e c643 7cbe
00000270: d6b3 8f3d eaa1 313d 9c55 7ebd 7e43 b8bd
00000280: 0967 403e 8164 77bc 7ed2 56be c6ae 0fbf
00000290: 789c cb3e 1c6f f03d 8e63 2abf ea19 453f
000002a0: a644 e83d 5c67 ebbc f02a a2bd 738c 453d
000002b0: e331 d63d 876b 2abd 2ef1 bbbd a8b9 8dbd
000002c0: 77c0 02bf 5ec9 283d f8f9 d63e 1e27 13bf
000002d0: 9cc6 973e 2b7f b13e 2819 a53d 1a9b febe
000002e0: b1ac 003f 51a0 023d 7c96 6e3b 5ed5 acbd
000002f0: 0f6a 7dbc c2a1 763d 1585 6cbd 74e6 98ba
00000300: 79a2 3a38 7c05 9838 7d86 f038 150d 3eb9
00000310: 0cf0 6fb9 e571 70b9 fac7 8037 c96b 5f38
00000320: bd97 b238 ff3e 87b9 c585 31b9 2e92 76b9
00000330: b062 e438 afd0 12b8 9c38 a8b9 adfa 8739
00000340: 8c88 84be 87d2 973d 9637 4b3e bfb2 d83e
00000350: 6534 c2be ef35 72bd c171 1bbf b232 6b3f
00000360: 7756 8bbe 81e1 e0bd 0d16 373e 2ae4 9bbd
00000370: 709e 06be f236 7d3e f17a ffbd e8e9 48bc
00000380: 2f0c 45be ee8e 733e 8b80 293e 15d7 6d3e
00000390: d999 8bbe 8686 cfbe 7648 3fbe c51e 04be
000003a0: 5dc7 47be aed1 203d ae18 c9bb 5314 113e
000003b0: 1f40 183e 49eb c9bd d9d8 66be d81a d1be
000003c0: 13b1 2b3e fb3e 3c3d 666d c4bc 9f57 cdbd
000003d0: 5219 2ebe 3e4f 03be ecbc d6bc 8c76 7d3d
000003e0: 71b6 b3bd 863d 203e e21e eebc 8212 29be
000003f0: de9c 1e3e e559 ecbd 0834 88bd aa2f 65be

bias f4 [224]
-0.8653973 -0.5701061 -0.4240126 0.13407141 -0.5802794 0.4861302 -0.15180424 -1.0771745
-0.5701129 -0.7746977 -0.40478715 0.012003675 -8.417294e-07 0.49206614 -0.3974732 -1.3477687
0.25370085 0.031640038 -0.0788478 0.16396758 -0.96290284 -0.5265621 0.27146047 -0.038270127
0.03237184 -0.5435887 -0.38768747 -0.21853435 -0.30545962 -0.59577966 -0.406615 -4.0040027e-06
-0.2893817 -0.8692233 -0.14024402 -5.911237e-06 -0.26831257 -0.6479272 0.0061644292 -3.7446334e-06
0.038320065 0.07383989 0.3304334 -0.7633319 -0.3686328 0.38410428 0.19247255 -0.52507323
-0.17501143 -0.32140765 -0.44049558 -0.5165925 0.55615383 0.20184962 -0.7258719 -1.030083
-0.67682534 -0.49410364 -1.794293e-06 -0.61722493 -0.29134062 0.06702171 -0.26003775 -4.5439353e-07
0.030332586 0.072542846 0.29415533 -0.3089556 -0.22912171 0.04921218 0.4680302 -0.50967336
-0.1242426 -1.5750438 -1.8713345e-06 -0.39127782 -0.07468311 0.18841836 -0.23731354 -0.2031604
-0.6108289 -0.06617045 -0.2491055 -0.4275014 -0.3667853 -0.44367385 -0.5434759 -7.176251e-06
-0.07675767 -0.6825535 -0.63034093 -0.64014554 -0.50469387 -0.26095423 0.7234234 -4.837254e-07
-0.7725929 -0.43033686 -2.9822434e-06 0.35844186 -2.0567113e-05 -0.6702399 -0.44642782 0.84807086
-0.14268458 -0.68761104 -0.4475414 0.04478971 -0.5256427 -0.68359745 -0.4377091 -2.5495494e-06
-0.9637911 0.31883755 -0.4156065 -0.8427962 -0.2612166 0.11090953 -9.57587e-06 -0.1919672
-0.14481273 -0.5806727 -0.24817567 0.100058645 -0.9144796 -0.98478544 -0.08254923 0.00782819
-0.5059912 0.38566673 0.21900651 -0.608284 0.2121116 -0.16605015 -0.3296542 -2.6039072e-06
-0.27292258 -0.31252834 -9.23847e-06 -1.8885628e-07 -0.00027485413 -0.005633256 0.014701757 -0.12416983
-0.6725153 -0.57287574 -4.9334594e-06 -0.38173714 -1.4487438 -3.9478677e-05 -0.87899834 -0.67748785
0.01346668 0.32160687 -1.4762073e-06 -0.6528681 -0.857658 -0.12297911 -0.15507172 -0.64108
-0.15145232 -0.74155235 -0.79560524 -0.20136917 0.19695565 -4.904232e-07 -0.5107794 -0.41768003
-0.696695 -0.14263834 -0.73996013 -0.25988045 -0.21600999 -0.77977574 -0.1757456 -1.1188898e-06
0.07340722 0.3175953 -0.33127123 -0.22912534 -0.6140308 -0.3031995 -3.4082177e-06 -0.014374604
0.14130066 -0.51011825 -0.04940542 0.29410183 -2.4000903e-05 -5.8624227e-07 -0.32697624 -0.2540684
-0.42088786 0.0229772 -0.26519886 -5.193779e-06 -2.874775e-06 0.2822799 -0.026432874 -0.4864771
-0.36671764 -0.050808832 -1.0269377 -1.2547826 -0.19384024 -0.72493637 -0.22162487 -0.32640493
0.07516159 -0.79768836 0.3018842 0.16539375 -1.7415746e-06 0.005966526 0.36676332 0.036039356
-8.8553986e-07 -0.38583034 -4.8271943e-07 -0.5102636 -0.5505541 -0.37160125 -0.74972075 -0.023612045
00000000: ad8a 5dbf 79f2 11bf 2e18 d9be 044a 093e
00000010: 318d 14bf 0fe6 f83e 9272 1bbe dbe0 89bf
00000020: ebf2 11bf 9752 46bf 4340 cfbe 10ab 443c
00000030: 34f3 61b5 18f0 fb3e 9b81 cbbe af83 acbf
00000040: 14e5 813e fc98 013d f57a a1bd 1ee7 273e
00000050: cd80 76bf c6cc 06bf defc 8a3e 23c1 1cbd
00000060: 5698 043d a128 0bbf f97e c6be 78c7 5fbe
00000070: 3465 9cbe 0485 18bf d72f d0be 1f5a 86b6
00000080: d729 94be 6b85 5ebf 219c 0fbe 2459 c6b6
00000090: 4460 89be 8fde 25bf fbfe c93b 504c 7bb6
000000a0: 80f5 1c3d 5e39 973d 912e a93e b869 43bf
000000b0: 70bd bcbe 51a9 c43e 8617 453e 336b 06bf
000000c0: 3236 33be 8b8f a4be a388 e1be 683f 04bf
000000d0: 1960 0e3f abb1 4e3e bed2 39bf c2d9 83bf
000000e0: 6d44 2dbf 27fb fcbe 70d3 f0b5 7402 1ebf
000000f0: 992a 95be ae42 893d ab23 85be 5ff3 f3b4
00000100: 0b7c f83c 5891 943d 879b 963e 6e2f 9ebe
00000110: e29e 6abe b692 493d a8a1 ef3e f479 02bf
00000120: e772 febd 099b c9bf 902a fbb5 9155 c8be
00000130: 75f3 98bd bef0 403e 5202 73be 4809 50be
00000140: 485f 1cbf 5f84 87bd 8315 7fbe 77e1 dabe
00000150: 48cb bbbe 3829 e3be 3d21 0bbf 87cb f0b6
00000160: 2033 9dbd d4bb 2ebf 065e 21bf 94e0 23bf
00000170: 9e33 01bf cb9b 85be 4732 393f 5bd9 01b5
00000180: a6c8 45bf 1d55 dcbe 8d22 48b6 b185 b73e
00000190: 8a87 acb7 d894 2bbf 3092 e4be 2c1b 593f
000001a0: e81b 12be 4707 30bf 2524 e5be 6a75 373d
000001b0: 8590 06bf 3e00 2fbf 681b e0be ed18 2bb6
000001c0: 03bb 76bf ad3e a33e 60ca d4be 7ec1 57bf
000001d0: 2fbe 85be 8924 e33d 0ca8 20b7 0d93 44be
000001e0: ca49 14be f7a6 14bf c321 7ebe 8ceb cc3d
000001f0: 561b 6abf e61a 7cbf 920f a9bd cf41 003c
00000200: a488 01bf 1c76 c53e 3e43 603e 80b8 1bbf
00000210: c933 593e 0d09 2abe 6fc8 a8be c9be 2eb6
00000220: 82bc 8bbe b703 a0be edfe 1ab7 6bc8 4ab4
00000230: 4c1a 90b9 2d97 b8bb a3df 703c c04c febd
00000240: f629 2cbf fca7 12bf 188a a5b6 0d73 c3be
00000250: 7070 b9bf e895 25b8 0906 61bf d86f 2dbf
00000260: 5aa3 5c3c a8a9 a43e 1922 c6b5 5d22 27bf
00000270: 7a8f 5bbf 79dc fbbd 1fcb 1ebe d21d 24bf
00000280: 5116 1bbe 60d6 3dbf c9ac 4bbf b833 4ebe
00000290: beae 493e a0a5 03b5 70c2 02bf 28da d5be
000002a0: 9b5a 32bf c90f 12be 076e 3dbf 0d0f 85be
000002b0: b931 5dbe 629f 47bf a8f6 33be c32c 96b5
000002c0: 8656 963d da9b a23e 629c a9be d59f 6abe
000002d0: 1f31 1dbf f73c 9bbe bcb8 64b6 7683 6bbc
000002e0: 1fb1 103e 1c97 02bf 565d 4abd 8494 963e
000002f0: 8c55 c9b7 435e 1db5 6e69 a7be 4115 82be
00000300: 9d7e d7be ae3a bc3c 25c8 87be 3946 aeb6
00000310: 42ec 40b6 fe86 903e c189 d8bc 8713 f9be
00000320: 6ac2 bbbe ec1c 50bd b272 83bf b79c a0bf
00000330: 0e7e 46be 6e95 39bf a1f1 62be 8c1e a7be
00000340: 52ee 993d 4e35 4cbf 9190 9a3e fb5c 293e
00000350: 0cc0 e9b5 d982 c33b 67c8 bb3e 019e 133d
00000360: d6b5 6db5 8e8b c5be 3a94 01b5 a3a0 02bf
00000370: 1df1 0cbf 8542 bebe b3ed 3fbf 0c6e c1bc

weight f4 [224]
0.5720676 0.33293766 0.47486797 0.8513754 0.5266852 1.2954152 0.64563483 0.44907996
0.4634507 0.3853161 0.7505283 0.8059472 4.63745e-05 1.286389 0.34034514 0.33423513
0.5757798 0.49184313 0.6128367 0.48607376 0.39361775 0.79602134 0.35733345 0.6752765
1.1133286 0.6932763 0.46452454 0.38304633 0.4526556 0.6861926 0.46017885 -9.776749e-06
0.5100084 0.44063026 0.687718 7.4963864e-06 0.77082324 0.5857074 0.47010064 1.7139972e-05
0.61264247 1.1663901 1.393533 0.3995931 0.40658817 1.4570789 0.78232706 0.321543
0.72317797 0.4072349 0.39145187 0.29471734 0.4250193 0.3626302 0.2700448 0.39953047
0.57729363 0.3353166 5.9271474e-07 0.486613 0.6468457 0.8777802 0.6718021 9.960738e-06
0.38715345 0.6653296 0.66161126 0.3833466 0.43141264 0.49985635 1.1226381 0.41885448
0.28064635 0.86815727 0.0001658294 0.50521904 0.51121193 0.65291893 0.4458482 0.65968084
0.5824334 0.5757362 0.5882392 0.5110997 0.4400709 0.549288 0.44492275 -1.2755261e-07
0.5333182 0.35396346 0.66220707 0.4346932 0.622748 0.60729116 0.6689435 -6.303643e-05
0.500933 0.4133371 -5.439134e-06 0.62389934 5.6954805e-06 0.5365136 0.48865578 1.4488182
0.38479143 0.3447994 0.3159736 0.63132644 0.38061485 0.44546354 0.4753149 7.9695434e-05
0.5535094 0.99303114 0.8500092 0.5340075 0.56913483 0.7674697 3.4637927e-05 0.5909044
0.30847952 0.2699846 0.46993032 0.66320705 0.3775566 0.5291097 0.7313367 0.66384184
0.47439522 1.4998187 1.6222749 0.48804528 0.506117 0.6706976 0.44281164 -1.825676e-05
0.30849528 0.7389603 1.2143019e-05 -1.922433e-05 0.4242859 0.40453735 0.66145724 0.47157985
0.31773865 0.32883865 9.580099e-05 0.42377555 0.36814603 -0.00024612105 0.39954415 0.18493815
0.7997596 0.49705884 -1.5263835e-05 0.680519 0.5361164 0.62132066 0.5169042 0.53271294
0.46628058 0.76622725 0.58174217 0.7483194 0.61452764 -1.6307185e-05 0.3961984 0.42102942
0.43548226 0.6889115 0.46324527 0.5601992 0.35172468 0.44832927 0.48405102 -1.5428337e-06
1.1215804 1.6107517 0.5851616 0.84931284 0.58824694 0.59086627 -6.231637e-05 0.75530964
0.4896863 0.46866563 0.31069744 0.8220941 -9.924166e-05 6.4737724e-05 0.5597025 0.5309455
0.43896678 1.1647482 0.4628773 6.0648872e-05 1.3145045e-05 1.1771778 0.6395093 0.4645348
0.54798526 0.58551615 0.45849884 0.42124432 0.44040823 0.8108423 0.71894175 0.35112384
1.4069301 0.5276676 1.7285879 1.1460445 4.804743e-06 0.42604437 1.3201988 0.40060967
0.00018944641 0.42837647 2.8603003e-05 0.31440818 0.45539936 0.69218165 0.43390763 0.5850597
00000000: 0673 123f ce76 aa3e e521 f33e bdf3 593f
00000010: d7d4 063f 2ad0 a53f 5348 253f cfed e53e
00000020: 6949 ed3e 2748 c53e 9f22 403f 8e52 4e3f
00000030: 3d82 4238 65a8 a43f b841 ae3e de20 ab3e
00000040: 4e66 133f ddd2 fb3e dee2 1c3f a9de f83e
00000050: 4488 c93e 0ec8 4b3f 69f4 b63e ecde 2c3f
00000060: 8d81 8e3f 8e7a 313f 29d6 ed3e a61e c43e
00000070: 7ac2 e73e 51aa 2f3f 909c eb3e d106 24b7
00000080: e98f 023f 4a9a e13e 490e 303f 7889 fb36
00000090: ac54 453f ecf0 153f 08b1 f03e cfc7 8f37
000000a0: 23d6 1c3f 454c 953f 4a5f b23f 7897 cc3e
000000b0: 532c d03e 9081 ba3f 9646 483f 49a1 a43e
000000c0: 3122 393f 1881 d03e 616c c83e 31e5 963e
000000d0: 219c d93e aaaa b93e 5043 8a3e 428f cc3e
000000e0: 84c9 133f 9eae ab3e 0c1b 1f35 5725 f93e
000000f0: ae97 253f 34b6 603f 39fb 2b3f 0b1d 2737
00000100: fa38 c63e 0a53 2a3f 5b5f 293f 0146 c43e
00000110: 1ee2 dc3e 2ced ff3e 9bb2 8f3f 1874 d63e
00000120: e1b0 8f3e 8e3f 5e3f 7ee2 2d39 0956 013f
00000130: c9de 023f b225 273f 3746 e43e d8e0 283f
00000140: 5b1a 153f 7363 133f d896 163f 6ed7 023f
00000150: f950 e13e 239e 0c3f eacc e33e 65f5 08b4
00000160: 8b87 083f b33a b53e 6786 293f 1b90 de3e
00000170: 6a6c 1f3f 6f77 1b3f e23f 2b3f 6d32 84b8
00000180: 253d 003f eca0 d33e ce81 b6b6 deb7 1f3f
00000190: ce1b bf36 f558 093f 1731 fa3e e072 b93f
000001a0: 6203 c53e 8c89 b03e 4bc7 a13e 9c9e 213f
000001b0: f3df c23e cc13 e43e 795c f33e 2922 a738
000001c0: cbb2 0d3f 4a37 7e3f 349a 593f b7b4 083f
000001d0: d2b2 113f e578 443f 3148 1138 8345 173f
000001e0: 07f1 9d3e 6c3b 8a3e b59a f03e f0c7 293f
000001f0: 194f c13e bc73 073f e238 3b3f 8af1 293f
00000200: eee3 f23e 0ffa bf3f b4a6 cf3f 12e1 f93e
00000210: e290 013f d7b2 2b3f 35b8 e23e 1826 99b7
00000220: 18f3 9d3e 812c 3d3f dfb9 4b37 ef43 a1b7
00000230: 003c d93e 851f cf3e 4355 293f ea72 f13e
00000240: a4ae a23e 8a5d a83e c4e8 c838 1cf9 d83e
00000250: a37d bc3e cf09 81b9 0d91 cc3e 6d60 3d3e
00000260: 0cbd 4c3f 7f7e fe3e d60a 80b7 7e36 2e3f
00000270: ed3e 093f df0e 1f3f d553 043f e05f 083f
00000280: 54bc ee3e 7827 443f 0eed 143f dc91 3f3f
00000290: af51 1d3f 6acb 88b7 84da ca3e 2b91 d73e
000002a0: 88f7 de3e 815c 303f 7c2e ed3e 3769 0f3f
000002b0: 4215 b43e 6a8b e53e 89d5 f73e 5d13 cfb5
000002c0: f28f 8f3f 1d2d ce3f 27cd 153f 916c 593f
000002d0: 5a97 163f 0343 173f d9af 82b8 f95b 413f
000002e0: 2ab8 fa3e f1f4 ef3e bc13 9f3e c274 523f
000002f0: f61f d0b8 cdc3 8738 aa48 0f3f 0bec 073f
00000300: 41c0 e03e 7816 953f 41fe ec3e 3b61 7e38
00000310: 8a89 5c37 c3ad 963f e2b6 233f 81d7 ed3e
00000320: c348 0c3f 63e4 153f 5cc0 ea3e 56ad d73e
00000330: 307d e13e 5c93 4f3f 910c 383f 81c6 b33e
00000340: 4916 b43f 3915 073f 5e42 dd3f 96b1 923f
00000350: 6e38 a136 7d22 da3e 46fc a83f b61c cd3e
00000360: 22a6 4639 2954 db3e 7bf0 ef37 1cfa a03e
00000370: 1b2a e93e d132 313f 2429 de3e 79c6 153f

bias f4 [224]
0.0767801 0.050057136 0.1467762 -0.131795 0.009288558 -0.034331914 0.20238982 0.12050945
0.2273015 -0.10781442 0.1443663 0.086069934 9.887492e-05 -0.063992426 -0.0022394627 -0.014823001
-0.122964576 -0.40379024 -0.09895684 0.08071582 -0.1401801 0.13047448 0.029609513 -0.15497386
0.14631733 0.13170911 -0.22327043 -0.18474777 0.123170726 -0.059592716 0.04666707 -4.135486e-05
0.17169079 0.07338484 0.096522644 5.5666886e-05 0.09363652 0.08289255 0.11596689 8.032492e-05
-0.09045187 -0.070159115 -0.19753514 0.05573707 -0.24509719 0.11293679 0.1167475 -0.13128021
-0.003432758 -0.028711395 0.28703716 -0.20848392 0.03847488 -0.069254644 -0.09554766 0.15994896
0.29503557 0.062207527 -1.1646293e-05 0.082961716 -0.016935237 0.07479618 0.06917717 1.1967412e-05
0.0032146317 0.036168 0.034416333 0.08927641 0.080191456 -0.09342696 0.14515188 0.14577742
-0.1627695 0.13562553 0.00016959311 0.022467673 0.112696014 -0.06369386 0.0832105 0.21386483
0.041531492 0.10971922 0.17979196 0.13264102 0.08465607 0.01086468 -0.24248625 0.00024008543
0.036310896 -0.0810154 0.20922028 0.08292749 0.15542437 0.2605631 0.028990151 -6.0442835e-05
-0.20739062 -0.08668232 0.00017429245 0.22824174 -5.971524e-06 0.10702284 0.11421268 0.14599876
-0.0052167303 0.18116985 0.24374281 0.05784739 0.008831537 0.24622717 0.2714332 -0.00012182485
0.1121125 0.030103862 0.212927 0.18104216 0.21343261 0.10540556 0.0007325906 0.2274636
-0.093145296 -0.016435182 -0.279109 0.15481079 0.08081286 -0.082084656 0.19064704 0.19577345
-0.12319659 0.19489507 0.1362973 -0.048475184 -0.12694478 -0.048517153 -0.03438697 4.3755563e-07
-0.108702615 0.115086295 -0.00010579873 6.596854e-05 0.17833757 0.19069278 0.085333884 -0.21818946
-0.18862258 0.024989894 2.2451368e-06 0.406671 0.06809287 -0.0001360127 -0.008255141 -0.07203759
-0.024599627 -0.055428352 -2.1575805e-05 0.080250844 0.15186897 0.2873748 0.3454688 0.08617434
-0.17836112 -0.09529849 0.15174073 -0.33661392 -0.009754042 -0.00010456195 -0.06853199 -0.096506156
-0.19786304 0.2273878 -0.097254254 0.04807192 -0.08087576 0.26706567 0.40844643 -6.812067e-06
-0.0033536528 -0.20501256 0.15931684 0.085823156 0.27297553 0.116336435 4.8650803e-05 -0.08612623
-0.14310811 -0.021922415 -0.18118359 0.22590831 -1.5889467e-05 0.0001326461 0.36675197 0.119057424
-0.04460184 -0.017843375 0.0012660094 0.0003545932 -6.12817e-05 0.005361534 -0.107397616 0.22255242
0.071577385 0.009704954 -0.02340944 0.069950834 0.02504875 0.017269623 0.32199618 -0.2493005
0.122412466 0.07697019 -0.030616619 0.20699975 2.3007202e-05 -0.45405948 0.023784533 0.07561023
-0.0002929933 -0.02301786 0.00014284828 -0.07642318 0.12938738 0.12735541 0.02711012 0.057131622
00000000: e33e 9d3d b608 4d3d 804c 163e 45f5 06be
00000010: 092f 183c 9f9f 0cbd 473f 4f3e a9cd f63d
00000020: b9c1 683e cecd dcbd c2d4 133e 6f45 b03d
00000030: 125b cf38 760e 83bd f3c3 12bb 2cdc 72bc
00000040: dad4 fbbd 98bd cebe e2a9 cabd 564e a53d
00000050: 5f8b 0fbe 1a9b 053e a68f f23c 78b1 1ebe
00000060: 36d4 153e c1de 063e 01a1 64be 852e 3dbe
00000070: ef40 fc3d 7e17 74bd f825 3f3d 7174 2db8
00000080: b6cf 2f3e ca4a 963d aaad c53d dd7b 6938
00000090: 81c4 bf3d 92c3 a93d 0c80 ed3d 1d74 a838
000000a0: d43e b9bd 95af 8fbd a746 4abe 8e4c 643d
000000b0: c2fa 7abe 674b e73d 5019 ef3d 526e 06be
000000c0: 1ff8 60bb 2934 ebbc 89f6 923e cf7c 55be
000000d0: d697 1d3d 61d5 8dbd 7eae c3bd a9c9 233e
000000e0: e70e 973e 52cd 7e3d 7364 43b7 d5e7 a93d
000000f0: c4bb 8abc bd2e 993d c3ac 8d3d a5c7 4837
00000100: 92ac 523b e624 143d 24f8 0c3d 8dd6 b63d
00000110: 6b3b a43d a256 bfbd b2a2 143e ad46 153e
00000120: 0cad 26be 6be1 0a3e ced4 3139 200e b83c
00000130: 2bcd e63d ed71 82bd 446a aa3d 62ff 5a3e
00000140: ed1c 2a3d 78b4 e03d 621b 383e 0cd3 073e
00000150: 2960 ad3d c501 323c 514e 78be 71bf 7b39
00000160: bcba 143d 67eb a5bd d73d 563e e3d5 a93d
00000170: 9127 1f3e 8768 853e c17c ed3c 0084 7db8
00000180: 355e 54be 8086 b1bd 46c2 3639 34b8 693e
00000190: 005f c8b6 ca2e db3d 56e8 e93d b380 153e
000001a0: 1bf1 aabb 9784 393e b797 793e 63f1 6c3d
000001b0: 27b2 103c fa22 7c3e 4bf9 8a3e 387c ffb8
000001c0: 3d9b e53d 609c f63c 8909 5a3e 1e63 393e
000001d0: 148e 5a3e dfde d73d 530b 403a 38ec 683e
000001e0: f6c2 bebd 13a3 86bc 60e7 8ebe b886 1e3e
000001f0: 3681 a53d 001c a8bd fa38 433e d678 483e
00000200: 7e4e fcbd 9392 473e 8591 0b3e ea8d 46bd
00000210: d0fd 01be ecb9 46bd 5ad9 0cbd 30e9 ea34
00000220: 7a9f debd 5db2 eb3d 43e0 ddb8 9758 8a38
00000230: 209e 363e f844 433e 88c3 ae3d 0f6d 5fbe
00000240: 4726 41be 9bb7 cc3c 28ab 1636 2e37 d03e
00000250: 4674 8b3d a29e 0eb9 9240 07bc 7288 93bd
00000260: 2885 c9bc d708 63bd b0fd b4b7 8e5a a43d
00000270: 8a83 1b3e ca22 933e 49e1 b03e 2c7c b03d
00000280: 4ca4 36be db2b c3bd ec61 1b3e a958 acbe
00000290: 6bcf 1fbc 4548 dbb8 805a 8cbd 05a5 c5bd
000002a0: 9c9c 4abe 59d8 683e 3d2d c7bd 10e7 443d
000002b0: 31a2 a5bd d5bc 883e e41f d13e 3693 e4b6
000002c0: f5c8 5bbb d0ee 51be f423 233e 0dc4 af3d
000002d0: 73c3 8b3e cc41 ee3d 670e 4c38 f362 b0bd
000002e0: ef8a 12be a396 b3bc 3188 39be 8254 673e
000002f0: 5f4a 85b7 eb16 0b39 eac6 bb3e 61d4 f33d
00000300: 6bb0 36bd 452c 92bc 3af0 a53a b2e8 b939
00000310: 5d84 80b8 cfaf af3b 48f3 dbbd c8e4 633e
00000320: 2a97 923d 8701 1f3c 27c5 bfbc 6242 8f3d
00000330: 0933 cd3c 0679 8d3c afdc a43e a148 7fbe
00000340: 63b3 fa3d 8ca2 9d3d b4cf fabc bef7 533e
00000350: 97ff c037 7c7a e8be c8d7 c23c 89d9 9a3d
00000360: e59c 99b9 f38f bcbc 8bc9 1539 c283 9cbd
00000370: 207e 043e 7569 023e 0b16 de3c d902 6a3d

running_mean f4 [224]
-0.12576917 -0.11463907 0.022390338 0.099692285 0.016892254 0.35136357 0.09246631 -0.06375474
-0.095111616 -0.13318804 -0.09463468 0.043582126 6.581344e-06 0.35700253 0.13214318 -0.104738206
0.17218633 0.4871587 0.24652082 0.14652978 -0.035929795 0.27165553 0.31599364 0.044630572
0.038282864 0.04045986 -0.0018553655 0.0726264 -0.018114284 0.21093827 -0.022369498 -6.0947273e-06
-0.054113373 -0.1349631 0.18491179 -4.9493874e-06 -0.05036309 0.17326036 0.41175646 -5.5105706e-06
0.051185768 0.07385598 0.28329483 -0.014969742 0.07539088 0.33010602 0.23832278 -0.122422114
-0.053412803 0.104943305 0.07185939 0.0431631 0.614681 0.28537646 -0.13712248 -0.10267266
0.019873252 -0.096414566 -5.680557e-07 -0.12370632 -0.0419605 0.10285879 -0.080372386 -9.429808e-07
0.08323841 0.08268541 0.2704504 0.19043921 -0.014507756 0.12357717 0.34414518 -0.07260337
0.04869668 -0.021193665 -3.3080366e-06 0.07632354 0.06903842 0.1371251 -0.020363346 -0.016361775
-0.022152398 0.0559274 0.001237885 -0.09972218 -0.11342721 -0.058593486 0.014726596 -1.3029354e-05
0.15025698 -0.097603254 0.08558573 -0.11198463 -0.14607814 0.17163838 0.62643254 3.418803e-06
0.057923675 0.21554492 -2.0717994e-06 0.6347346 -1.2443158e-05 -0.031135956 -0.11896534 0.68265194
0.14071177 -0.06040234 -0.10425827 0.12685795 -0.06301842 -0.072031 -0.0032274092 5.8853443e-06
-0.12737489 0.22288203 -0.10627577 -0.10103661 0.05932164 0.09562543 -1.29125e-05 -0.00025019466
0.10475562 -0.043472357 0.14429186 0.1278167 -0.13731913 -0.035960235 0.007765369 0.3527918
-0.06282597 0.26048365 0.17410398 -0.14636177 0.4001811 -0.020395359 -0.03036092 4.38176e-06
0.2067919 0.3682876 -1.3654518e-05 1.6387908e-06 0.24975182 0.34773597 0.3561659 0.28814596
0.041469503 -0.118373685 2.7892372e-06 -0.035065588 -0.0922242 -1.2085608e-05 -0.1214459 -0.1332678
0.044169392 0.3989233 -4.0097184e-06 -0.120742306 -0.018646771 0.09306327 0.14155105 -0.1461509
0.18343034 -0.10312389 -0.07675202 0.036221553 0.14635316 -2.3261943e-07 -0.04435068 -0.0876607
0.064620405 0.19273362 -0.117877364 0.1632306 0.31098428 -0.022198694 0.03437176 9.908861e-07
0.08528283 0.25935084 -0.043785132 -0.07583948 -0.12265285 0.05119793 -1.01144515e-05 0.19362633
0.4462557 0.13243987 0.36404395 0.25868332 -2.4641526e-05 3.1637007e-06 0.09801631 -0.05476481
-0.08776513 0.0948851 -0.062033687 -9.66109e-06 -1.3940974e-05 0.20549272 0.030648582 -0.13228387
0.03633562 0.051620793 -0.036366656 -0.10461746 0.15187229 -0.12219236 -0.02556166 -0.08095556
0.050382208 -0.08141653 0.19369225 0.11989788 3.1195313e-07 0.22059461 0.25093466 0.19258088
-7.2220355e-06 -0.05837129 -1.6556155e-06 0.011265632 0.056045555 -0.08511427 -0.03273641 0.03718626
00000000: a2c9 00be e4c7 eabd f16b b73c 782b cc3d
00000010: a061 8a3c ede5 b33e fa5e bd3d d891 82bd
00000020: e1c9 c2bd 7262 08be d4cf c1bd 2c83 323d
00000030: 51d5 dc36 09c9 b63e 8b50 073e fc80 d6bd
00000040: 9d51 303e dd6c f93e f46f 7c3e e70b 163e
00000050: 1f2b 13bd 6f16 8b3e ebc9 a13e 8cce 363d
00000060: 7ece 1c3d 3db9 253d bc2f f3ba 26bd 943d
00000070: 6864 94bc 3400 583e 3d40 b7bc 4f81 ccb6
00000080: fca5 5dbd c433 0abe 8459 3d3e ea12 a6b6
00000090: 8749 4ebd 2a6b 313e bed1 d23e 71e7 b8b6
000000a0: 2ba8 513d ce41 973d 050c 913e a643 75bc
000000b0: 8966 9a3d a803 a93e e30a 743e 72b8 fabd
000000c0: 62c7 5abd 84ec d63d 042b 933d cacb 303d
000000d0: bc5b 1d3f dd1c 923e d669 0cbe 0b46 d2bd
000000e0: 3bcd a23c 0075 c5bd 7e7c 18b5 bd59 fdbd
000000f0: c6de 2bbd a1a7 d23d 479a a4bd 2621 7db5
00000100: e678 aa3d f856 a93d 7a78 8a3e 7f02 433e
00000110: f0b1 6dbc 0716 fd3d cc33 b03e 13b1 94bd
00000120: 2c76 473d 569e adbc a3ff 5db6 844f 9c3d
00000130: 0464 8d3d 866a 0c3e 08d1 a6bc 2109 86bc
00000140: f278 b5bc 2114 653d 8740 a23a 243b ccbd
00000150: 864c e8bd b9ff 6fbd d247 713c a698 5ab7
00000160: f7dc 193e 37e4 c7bd 9247 af3d 3358 e5bd
00000170: 8295 15be f9c1 2f3e e25d 203f 976e 6536
00000180: 6041 6d3d cfb7 5c3e 3e09 0bb6 f77d 223f
00000190: f5c2 50b7 d510 ffbc 1aa4 f3bd 47c2 2e3f
000001a0: bf16 103e 7268 77bd 5c85 d5bd 0de7 013e
000001b0: cd0f 81bd fd84 93bd f182 53bb b97a c536
000001c0: 906e 02be 303b 643e 1ca7 d9bd 48ec cebd
000001d0: 3ffb 723d 44d7 c33d c4a2 58b7 8f2c 83b9
000001e0: 1d8a d63d 1210 32bd 3fc1 133e 62e2 023e
000001f0: 639d 0cbe 0a4b 13bd a374 fe3b 20a1 b43e
00000200: e7aa 80bd 1d5e 853e 5048 323e dcdf 15be
00000210: 8ae4 cc3e 2b14 a7bc 77b7 f8bc 0807 9336
00000220: 41c1 533e 3190 bc3e b515 65b7 6cf4 db35
00000230: f1be 7f3e 730a b23e 605b b63e de87 933e
00000240: eddb 293d e76d f2bd bb2e 3b36 efa0 0fbd
00000250: 0be0 bcbd 4bc3 4ab7 a1b8 f8bd 5b77 08be
00000260: f7ea 343d ad3f cc3e 388b 86b6 be47 f7bd
00000270: 1dc1 98bc f597 be3d c2f2 103e 95a8 15be
00000280: 2ad5 3b3e 9e32 d3bd 2a30 9dbd 0d5d 143d
00000290: 9add 153e f1c5 79b4 0fa9 35bd 7487 b3bd
000002a0: b457 843d f65b 453e b069 f1bd ec25 273e
000002b0: 5539 9f3e 09da b5bc 67c9 0c3d 96fe 8435
000002c0: c4a8 ae3d a2c9 843e 0a58 33bd bb51 9bbd
000002d0: 6b31 fbbd ecb4 513d 3db1 29b7 fb45 463e
000002e0: a17b e43e 519e 073e f863 ba3e 2472 843e
000002f0: 46b5 ceb7 f74f 5436 c6bc c83d 1151 60bd
00000300: 34be b3bd 1f53 c23d 0917 7ebd 1116 22b7
00000310: 07e4 69b7 af6c 523e bc12 fb3c 6c75 07be
00000320: a9d4 143d 5370 533d 34f5 14bd ae41 d6bd
00000330: 6984 1b3e fd3f fabd b066 d1bc 07cc a5bd
00000340: 935d 4e3d b6bd a6bd 4357 463e 058d f53d
00000350: 837a a734 8ee3 613e 827a 803e ec33 453e
00000360: d054 f2b6 bc16 6fbd 8436 deb5 7c93 383c
00000370: 0690 653d 6450 aebd 9d16 06bd 9f50 183d

running_var f4 [224]
0.005018208 0.01344087 0.11148469 0.025811212 0.041535098 0.048563965 0.1226841 0.043450814
0.022850059 0.0074435924 0.010151943 0.02348169 1.7786178e-07 0.0349327 0.29375157 0.0031146887
0.03202485 0.83707154 0.3558266 0.06370405 0.06928588 0.5518685 0.30837148 0.04147609
0.01578739 0.16220029 0.043773543 0.076723784 0.046712816 0.24091908 0.037234657 2.1991063e-07
0.019810906 0.005578801 0.15052548 7.9033276e-07 0.010302854 0.2834184 0.649255 4.7291545e-07
0.017071065 0.027087547 0.108844176 0.078559585 0.13854018 0.21552461 0.16565654 0.0078095933
0.009466621 0.097678035 0.09215138 0.14659357 0.49033707 0.27307445 0.0027237437 0.015859101
0.043090664 0.017403523 1.929978e-07 0.0068520824 0.030721523 0.086572774 0.0064291605 4.5448154e-08
0.073589176 0.03677758 0.10238225 0.32332674 0.048343264 0.11429911 0.053439204 0.017293893
0.06665363 0.05984913 1.2281282e-06 0.08839113 0.080803566 0.03479738 0.03997101 0.03816194
0.029710717 0.04095822 0.05050969 0.01236088 0.0045182365 0.024029091 0.102465905 1.0393985e-06
0.24792281 0.009649841 0.21065971 0.012597903 0.0009873643 0.30183354 0.21202843 1.7997257e-07
0.13248698 0.40890583 2.8364914e-07 0.60757864 6.009754e-06 0.061164573 0.0061711133 0.030043563
0.21508163 0.053716656 0.0076709436 0.09532343 0.024687698 0.019905955 0.042990204 2.790052e-07
0.006314348 0.031664744 0.010190433 0.013840572 0.087422475 0.041144006 3.361704e-06 0.05399489
0.106775306 0.034518413 0.108498245 0.06792221 0.001947068 0.08350174 0.017056469 0.39190486
0.02639422 0.01489883 0.05247688 0.0022524868 0.50832754 0.020859852 0.05950014 5.64816e-07
0.4416789 0.3613223 4.856533e-06 1.0652994e-08 0.32866552 0.4352567 0.5666202 0.46682543
0.13042106 0.0071471413 5.5933964e-07 0.050392758 0.0034094732 2.6733317e-06 0.0074389954 0.0039618346
0.037873615 0.29954535 3.0808704e-07 0.007775798 0.07050873 0.08948133 0.20843259 0.0016068275
0.23609225 0.028998962 0.0379423 0.069367975 0.0333134 3.8504325e-08 0.038553335 0.009519131
0.11000294 0.3591669 0.011081786 0.27191547 0.599594 0.06772055 0.061349697 4.831707e-08
0.05773196 0.084443286 0.0259066 0.005280335 0.009813523 0.100378014 3.3967314e-07 0.10802746
0.6877852 0.3269119 0.72837424 0.094567135 1.3208296e-06 1.237429e-07 0.086382166 0.0144864395
0.010344793 0.1198422 0.022360818 2.44442e-06 7.6804207e-07 0.055658203 0.029283375 0.005244862
0.051542092 0.07096365 0.065075606 0.0071909674 0.24851309 0.008000782 0.032215744 0.015058589
0.0070101963 0.027330246 0.010182316 0.036659397 3.2307088e-07 0.20422971 0.024882635 0.19718224
9.0289024e-07 0.033404347 5.7631606e-08 0.119553626 0.13015226 0.011060221 0.04624432 0.03146702
00000000: c86f a43b 1837 5c3c 1652 e43d 0972 d33c
00000010: b520 2a3d 02eb 463d cd41 fb3d 7bf9 313d
00000020: 0c30 bb3c 61e9 f33b 5654 263c ac5c c03c
00000030: 46fa 3e34 9715 0f3d 9b66 963e ce1f 4c3b
00000040: 7d2c 033d 524a 563f e72e b63e 4577 823d
00000050: c1e5 8d3d 4147 0d3f dee2 9d3e d5e2 293d
00000060: 8e54 813c d517 263e e34b 333d 5c21 9d3d
00000070: f055 3f3d 7eb3 763e 5e83 183d 9320 6c34
00000080: 7b4a a23c 60ce b63b 5a23 1a3e 4127 5435
00000090: 4dcd 283c 371c 913e 9335 263f 01e5 fd34
000000a0: 9ed8 8b3c b4e6 dd3c b2e9 de3d d9e3 a03d
000000b0: 7add 0d3e 7cb2 5c3e dea1 293e 9ee7 ff3b
000000c0: e319 1b3c 6c0b c83d ddb9 bc3d a01c 163e
000000d0: 760d fb3e 6ad0 8b3e d680 323b f2ea 813c
000000e0: d67f 303d d591 8e3c d53a 4f34 6f87 e03b
000000f0: b4ab fb3c 114d b13d b5ab d23b c632 4333
00000100: ecb5 963d 16a4 163d c9ad d13d 158b a53e
00000110: 9603 463d a715 ea3d 11e3 5a3d ecab 8d3c
00000120: b381 883d 5d24 753d 2ad6 a435 6906 b53d
00000130: 577c a53d b387 0e3d a4b8 233d b24f 1c3d
00000140: e463 f33c cec3 273d 40e3 4e3d 4a85 4a3c
00000150: b70d 943b a8d8 c43c a5d9 d13d 7681 8b35
00000160: 7adf 7d3e 5e1a 1e3c 2eb7 573e 6f67 4e3c
00000170: 736a 813a ed89 9a3e fb1d 593e 7c3e 4134
00000180: abaa 073e 1b5c d13e 7148 9834 468a 1b3f
00000190: 65a7 c936 b487 7a3d 0d37 ca3b eb1d f63c
000001a0: 5c3e 5c3e ff05 5c3d 8a5c fb3b ee38 c33d
000001b0: db3d ca3c d011 a33c 7f16 303d 2fca 9534
000001c0: 97e8 ce3b e4b2 013d c6f5 263c 91c3 623c
000001d0: 8e0a b33d 9e86 283d a399 6136 bf29 5d3d
000001e0: 03ad da3d 2e63 0d3d 5434 de3d cd1a 8b3d
000001f0: c334 ff3a f602 ab3d 02ba 8b3c c1a7 c83e
00000200: b138 d83c 391a 743c fff1 563d 759e 133b
00000210: c121 023f 48e2 aa3c 6bb6 733d dc9d 1735
00000220: bd23 e23e 3dff b83e 4df5 a236 5d04 3732
00000230: d946 a83e f7d9 de3e 050e 113f be03 ef3e
00000240: 198d 053e 9132 ea3b 8725 1635 a368 4e3d
00000250: 7871 5f3b 7d67 3336 d1c2 f33b 47d2 813b
00000260: 5d21 1b3d 025e 993e 2967 a534 1fcc fe3b
00000270: e266 903d fd41 b73d 5a6f 553e 2f9c d23a
00000280: 2bc2 713e 3b8f ed3c 6369 1b3d cc10 8e3d
00000290: a273 083d f45f 2533 1aea 1d3d 21f6 1b3c
000002a0: 3949 e13d b9e4 b73e 6190 353c 8138 8b3e
000002b0: fe7e 193f 12b1 8a3d d249 7b3d 2e85 4f33
000002c0: 5978 6c3d 9af0 ac3d 143a d43c a906 ad3b
000002d0: e6c8 203c fd92 cd3d 525c b634 803d dd3d
000002e0: b112 303f ff60 a73e bc76 3a3f 6aac c13d
000002f0: 5c47 b135 30de 0434 22e9 b03d 8858 6d3c
00000300: 357d 293c d46f f53d 092e b73c d10a 2436
00000310: 732b 4e35 dbf9 633d b0e3 ef3c 17dd ab3b
00000320: cd1d 533d 6455 913d 5c46 853d 35a2 eb3b
00000330: 377a 7e3e b615 033c a8f4 033d 4db8 763c
00000340: cab5 e53b aee3 df3c bbd3 263c 2a28 163d
00000350: 8672 ad34 9821 513e abd6 cb3c 24ea 493e
00000360: 255e 7235 ffd2 083d 9f86 7733 88d8 f43d
00000370: a246 053e ee35 353c af6a 3d3d 90e3 003d

weight f4 [192, 224]
0.11292622 0.16116285 0.056861997 0.24272633 -0.00026357037 -0.17840706 -0.021071551 -0.046733398
-0.16304846 0.013465087 -0.32961464 -0.116582565 -4.7311918e-05 -0.2288188 -0.0719511 0.09569951
-0.009225133 -0.06890839 -0.106809616 0.05973824 -0.074540995 -0.074720316 0.0023024809 0.10405616
0.16269232 0.06477323 -0.031298332 0.017590322 -0.009012416 -0.19565931 0.06252018 -0.0001092887
-0.1291192 -0.03284098 0.011069846 0.00015035844 -0.107663535 0.066269875 -0.015125972 0.0003173656
0.035601232 -0.00036618795 -0.049552497 -0.10846763 -0.020288391 -0.037062697 -0.107667066 0.05347495
0.068554625 -0.007109226 0.12683417 0.00068323733 0.011502188 0.1624979 0.111587666 -0.100371316
-0.019777995 -0.017612033 0.0001128348 -0.038573574 0.091026984 -0.21478276 -0.16778411 -2.4082745e-05
-0.17808309 0.147614 -0.041951627 0.091485776 -0.18453032 0.06345323 -0.18964198 -0.006727047
-0.06980575 -0.01721899 0.0002653262 0.19141547 0.10923299 -0.035395168 0.06288421 -0.0256824
0.084046274 -0.09693039 -0.095515735 -0.0016231152 -0.0045616203 0.04987253 0.12194472 0.00046855691
0.053625293 -0.13820596 -0.16933952 -0.045923784 0.115161955 -0.08017382 -0.04820058 9.339182e-05
-0.14947334 -0.009675895 -0.00032034476 0.031358704 2.0484324e-06 0.025283167 -0.01068483 0.20995276
-0.0494939 -0.13691588 0.0020608418 -0.04124272 0.017583454 0.19578944 -0.118951134 -0.00035648316
-0.06410614 -0.11362962 -0.21127406 -0.018527767 -0.2410012 0.1282615 -3.989966e-06 0.1152407
-0.03354931 -0.0075571937 0.12956198 -0.07830309 -0.044763908 0.06255081 0.17339367 -0.103471495
0.16532569 -0.42345527 0.32112592 0.19484073 -0.19606395 0.008748665 0.0478049 -0.00019755478
0.059612196 -0.02650672 -0.00047189445 0.00016934657 0.017207704 0.055912 -0.13472682 0.048501126
0.03105014 -0.03793788 -0.00016062119 0.03984895 -0.007392922 0.00045522113 -0.12123073 -0.024578447
0.20237216 -0.091222554 -0.00022121788 -0.1647679 0.0067414604 0.046320565 -0.027378727 -0.121698454
0.02284721 -0.040508088 -0.0026448157 0.14570546 0.03257088 -0.00015246618 -0.3194308 -9.15264e-05
0.13411139 -0.031545628 -0.07290553 0.033178598 0.003175781 0.1353719 0.011993486 9.509193e-05
-0.119642675 0.38098177 0.037731595 -0.22675875 0.18237966 -0.031200016 -0.00015350706 0.26736853
-0.0976978 -0.1099291 0.011943093 -0.032293726 0.00026449392 0.00018931393 0.013432274 -0.05992424
-0.051645495 -0.23176678 -0.006339138 0.00065412954 -7.0621304e-06 -0.24714391 0.10641728 -0.098357484
-0.05102564 -0.031746358 -0.037494484 -0.042085487 0.04636858 -0.06443496 -0.06297413 0.077397205
-0.3957565 0.017068164 -0.022761261 -0.11575617 0.00010088138 0.094210275 0.18233137 0.012334803
0.0009065485 0.08080068 0.00015427171 0.10506062 0.12781477 0.15439835 0.08062675 -0.021793056
0.016790932 -0.08139529 -0.12147301 -0.18700899 0.17778528 -0.23858158 -0.052237403 -0.0076532946
0.008699988 0.0214689 0.2144441 -0.2429065 -7.9855556e-05 0.16707407 0.10989282 -0.10419214
-0.004839618 0.16461094 0.1261344 -0.006136913 0.072554335 -0.06434274 0.09285471 -0.21322814
0.3604751 -0.03403825 0.037047524 0.0068258387 0.017713811 0.0026102723 0.012967577 -0.00012759815
00000000: dd45 e73d e007 253e 20e8 683d 408d 783e
00000010: d12f 8ab9 57b0 36be 3f9e acbc 856b 3fbd
00000020: 2df6 26be ab9c 5c3c 40c3 a8be d7c2 eebd
00000030: c970 46b8 7a4f 6abe 195b 93bd 1bfe c33d
00000040: 0325 17bc d81f 8dbd 00bf dabd 16b0 743d
00000050: f3a8 98bd f706 99bd 38e5 163b 651b d53d
00000060: d198 263e d4a7 843d ae32 00bd 9419 903c
00000070: d0a8 13bc ea5a 48be 950a 803d ed31 e5b8
00000080: d337 04be 4384 06bd 4d5e 353c 89a9 1d39
00000090: b37e dcbd 80b8 873d edd2 77bc 1764 a639
000000a0: 99d2 113d eafc bfb9 8ff7 4abd 4724 debd
000000b0: d733 a6bc 0ecf 17bd 8d80 dcbd 8d08 5b3d
000000c0: 5e66 8c3d 83f4 e8bb d1e0 013e 481b 333a
000000d0: ac73 3c3c d965 263e 1388 e43d 7a8f cdbd
000000e0: 7605 a2bc 1c47 90bc b9a1 ec38 53ff 1dbd
000000f0: 5b6c ba3d 03f0 5bbe 99cf 2bbe 4d05 cab7
00000100: 6a5b 36be 2028 173e 78d5 2bbd e55c bb3d
00000110: 84f5 3cbe c4f3 813d 8231 42be 8f6e dcbb
00000120: 51f6 8ebd d70e 8dbc 7b1b 8b39 6b02 443e
00000130: 8cb5 df3d 86fa 10bd 70c9 803d e663 d2bc
00000140: 7420 ac3d 7183 c6bd c19d c3bd b5be d4ba
00000150: a579 95bb 2347 4c3d 27be f93d a5a8 f539
00000160: 32a6 5b3d dd85 0dbe 5767 2dbe 941a 3cbd
00000170: 08da eb3d 2c32 a4bd f96d 45bd 5adb c338
00000180: 8a0f 19be a587 1ebc f2f3 a7b9 fc71 003d
00000190: cd77 0936 a51e cf3c 6d0f 2fbc dbfd 563e
000001a0: 1eba 4abd ad33 0cbe 300f 073b 20ee 28bd
000001b0: 2d0b 903c 077d 483e a79c f3bd 5ce6 bab9
000001c0: 144a 83bd a5b6 e8bd 3a58 58be 8bc7 97bc
000001d0: 05c9 76be fc56 033e 8ce1 85b6 5103 ec3d
000001e0: 006b 09bd 56a2 f7bb e5ab 043e 5f5d a0bd
000001f0: 5c5a 37bd a41a 803d 1c8e 313e dde8 d3bd
00000200: 234b 293e 21cf d8be 9e6a a43e 5484 473e
00000210: fdc4 48be 9056 0f3c 12cf 433d b526 4fb9
00000220: eb2b 743d 9f24 d9bc 9a68 f7b9 a092 3139
00000230: 2cf7 8c3c fb03 653d d4f5 09be 1ea9 463d
00000240: dd5c fe3c c064 1bbd 6c6c 28b9 a738 233d
00000250: 5340 f2bb bfaa ee39 d147 f8bd bd58 c9bc
00000260: a63a 4f3e e4d2 babd b9f6 67b9 ebb8 28be
00000270: 78e7 dc3b a2ba 3d3d 5a49 e0bc 0a3d f9bd
00000280: 122a bb3c cfeb 25bd a554 2dbb d033 153e
00000290: 0b69 053d 54df 1fb9 6f8c a3be ddf1 bfb8
000002a0: 7f54 093e fd35 01bd 7f4f 95bd 48e6 073d
000002b0: c420 503b ee9e 0a3e 5480 443c 176c c738
000002c0: 3807 f5bd 0b10 c33e 728c 1a3d 7233 68be
000002d0: bcc1 3a3e 2d97 ffbc bdf6 20b9 87e4 883e
000002e0: c915 c8bd 8222 e1bd f6ac 433c 6d46 04bd
000002f0: c6ab 8a39 9282 4639 0a13 5c3c 1f73 75bd
00000300: 3a8a 53bd 4554 6dbe 8bb8 cfbb e479 2b3a
00000310: 3df7 ecb6 4b13 7dbe 4ef1 d93d a66f c9bd
00000320: 4300 51bd 7808 02bd d193 19bd d561 2cbd
00000330: fbec 3d3d 7af6 83bd 95f8 80bd 6d82 9e3d
00000340: 99a0 cabe 89d2 8b3c d375 babc 9211 edbd
00000350: 4790 d338 51f1 c03d 13b5 3a3e ea17 4a3c
00000360: 71a5 6d3a d47a a53d ffc3 2139 062a d73d
00000370: e0e1 023e 9a1a 1e3e a31f a53d 5a87 b2bc
00000380: 238d 893c 93b2 a6bd d7c6 f8bd 497f 3fbe
00000390: 580d 363e bb4e 74be e3f6 55bd 7dc8 fabb
000003a0: 658a 0e3c 8cdf af3c 3c97 5b3e 7bbc 78be
000003b0: 2078 a7b8 7715 2b3e 7d0f e13d b062 d5bd
000003c0: a995 9ebb c58f 283e 6029 013e 2818 c9bb
000003d0: 5e97 943d 20c6 83bd 9c2a be3d 7a58 5abe
000003e0: 3190 b83e b16b 0bbd 25bf 173d 49ab df3b
000003f0: 8e1c 913c 1a11 2b3b f675 543c decb 05b9

weight f4 [192]
0.6399621 0.65644723 0.35579017 0.6144463 0.42968315 0.33336538 0.38266397 0.5069616
0.45181295 0.4076745 0.34292948 0.35168877 0.3029872 0.3998345 0.48412132 0.35973203
0.40191796 0.54572177 0.482635 0.31674755 0.5717927 0.6336048 0.71541214 0.38785517
0.3805592 0.48822746 0.38934916 0.3767349 0.42390963 0.3934565 0.34943917 0.5463142
0.37979463 0.78758997 0.46456414 0.37592927 0.35288867 0.396106 0.34735414 0.40659714
0.4048413 0.3578465 0.22040251 0.9029189 0.3629666 0.3860638 0.43005845 0.3257033
0.41562736 0.58571917 0.47572312 1.052976 0.79003996 0.6765513 0.39481014 0.5298052
0.43367743 0.80997443 0.39913222 0.42655456 0.3982281 0.5076246 1.076421 0.52249014
0.59369856 0.30840218 0.30940711 0.60799205 0.89969677 0.43547863 0.39319098 0.35796413
0.6771647 0.4274383 0.55017906 0.560772 0.4335007 0.3540395 0.44751292 0.32452652
0.49643794 0.5183584 0.5944937 0.41709992 0.40094268 0.35327104 0.4390165 0.29865283
0.8107945 0.30368772 0.38812563 0.45064014 0.52631253 0.48929963 0.3965747 0.34419677
0.41061732 0.588041 0.69581574 0.41630834 0.60427225 0.40712 0.6615868 0.43660522
0.39776006 0.4212947 0.4878647 0.3212877 0.3752867 0.54974586 0.52536714 0.43043488
1.0082049 0.4546117 0.39081517 0.53805774 0.47839838 0.53298825 0.47708848 0.5183016
0.3519369 0.3450842 0.45955777 0.7356995 1.0817199 1.0331111 0.3309138 0.6003514
0.6897498 0.6038084 0.54981506 0.39808267 0.46104854 0.34537715 0.54112804 0.670612
0.35733336 0.9653947 0.4024263 0.4174218 0.4053361 0.5821133 0.39071643 0.57784176
0.43336728 0.5832957 0.523857 0.4589415 1.2806741 0.44182733 0.7220892 0.28243145
0.26712832 0.6897516 0.4116059 0.40426943 0.5349383 0.45625997 0.9709873 0.48354265
0.43550482 0.45138547 0.33195344 0.62801254 0.35486954 0.3600506 0.4032953 0.36678463
0.491458 0.4516815 0.5554751 0.43358573 0.47923294 0.47425005 0.39845824 0.3482464
0.5611625 0.45013893 0.4567449 0.38620928 0.41894364 0.42324105 0.4281951 0.30389458
0.6049941 0.49081975 0.4501451 0.36025935 0.6737972 0.40412587 0.41606727 0.36473396
00000000: 8ed4 233f ed0c 283f 212a b63e 5a4c 1d3f
00000010: 6eff db3e deae aa3e 88ec c33e 3cc8 013f
00000020: 0754 e73e b6ba d03e 7494 af3e 8d10 b43e
00000030: 2321 9b3e 1cb7 cc3e c0de f73e cc2e b83e
00000040: 31c8 cd3e 6cb4 0b3f ef1b f73e bc2c a23e
00000050: 0261 123f ed33 223f 4025 373f f494 c63e
00000060: a8d8 c23e f3f8 f93e c658 c73e 66e3 c03e
00000070: af0a d93e 2173 c93e b1e9 b23e 3fdb 0b3f
00000080: 7174 c23e 7f9f 493f 5adb ed3e cd79 c03e
00000090: d3ad b43e 68ce ca3e 67d8 b13e 802d d03e
000000a0: 5c47 cf3e a837 b73e 32b1 613e b125 673f
000000b0: c2d6 b93e 28aa c53e 9f30 dc3e 95c2 a63e
000000c0: 1ccd d43e b1f1 153f fb91 f33e ebc7 863f
000000d0: 0f40 4a3f 7732 2d3f 8e24 ca3e 50a1 073f
000000e0: f80a de3e 7c5a 4f3f 0f5b cc3e 5c65 da3e
000000f0: 8ee4 cb3e b0f3 013f 2ac8 893f eac1 053f
00000100: a1fc 173f e4e6 9d3e 9c6a 9e3e 5ea5 1b3f
00000110: 8752 663f 0ef7 de3e 5450 c93e 1347 b73e
00000120: aa5a 2d3f 31d9 da3e 89d8 0c3f c18e 0f3f
00000130: cef3 dd3e aa44 b53e 6a20 e53e 5728 a63e
00000140: 1d2d fe3e 23b3 043f bd30 183f 1f8e d53e
00000150: 5c48 cd3e f1df b43e c5c6 e03e 06e9 983e
00000160: 3a90 4f3f f57c 9b3e 67b8 c63e 4eba e63e
00000170: 6bbc 063f 7b85 fa3e d70b cb3e 8f3a b03e
00000180: 6f3c d23e db89 163f fb20 323f 5e26 d53e
00000190: 96b1 1a3f 0872 d03e c15d 293f b88a df3e
000001a0: 35a7 cb3e f0b3 d73e 67c9 f93e d27f a43e
000001b0: 9425 c03e 25bc 0c3f 767e 063f f661 dc3e
000001c0: dc0c 813f ddc2 e83e ed18 c83e 27be 093f
000001d0: a2f0 f43e eb71 083f f144 f43e 6aaf 043f
000001e0: 1331 b43e e0ae b03e 284b eb3e cd56 3c3f
000001f0: cc75 8a3f fc3c 843f 896d a93e a1b0 193f
00000200: 7193 303f 3093 1a3f aec0 0c3f 7ed1 cb3e
00000210: 8e0e ec3e 46d5 b03e 5e87 0a3f 3aad 2b3f
00000220: 66f4 b63e 1b24 773f d20a ce3e 4fb8 d53e
00000230: 3788 cf3e 6105 153f fc0b c83e 70ed 133f
00000240: 51e2 dd3e de52 153f 7e1b 063f 61fa ea3e
00000250: 21ed a33f 3137 e23e d6da 383f db9a 903e
00000260: 0bc5 883e 9093 303f 02be d23e 67fc ce3e
00000270: b7f1 083f e89a e93e a092 783f e792 f73e
00000280: 7dfa de3e ff1b e73e cdf5 a93e 6ec5 203f
00000290: 76b1 b53e 8d58 b83e b97c ce3e 32cb bb3e
000002a0: 62a0 fb3e cc42 e73e 9e33 0e3f f3fe dd3e
000002b0: 055e f53e e7d0 f23e b802 cc3e 5a4d b23e
000002c0: 58a8 0f3f 9c78 e63e 78da e93e 39bd c53e
000002d0: c87f d63e 0db3 d83e 633c db3e 1298 9b3e
000002e0: e5e0 1a3f ba4c fb3e 6b79 e63e ea73 b83e
000002f0: f97d 2c3f 96e9 ce3e c506 d53e 69be ba3e

bias f4 [192]
0.08528487 0.05653093 0.14522861 0.057192847 0.050459594 0.17284693 0.0014033855 -0.07294407
0.031234762 -0.11893214 -0.23072189 0.056777917 -0.20931172 -0.10089584 0.22112262 0.22627942
-0.1333667 -0.019179462 0.03573613 0.03675728 0.19783424 0.12654461 -0.075664386 0.06114201
0.07637766 0.0033219468 0.04154816 0.00395546 -0.03753862 0.08555852 0.03849393 0.13391119
-0.073889025 0.2645067 0.08191258 0.120376155 0.024701731 -0.120162755 0.076341845 0.14064424
0.068537526 -0.0062319473 -0.11881395 0.13015167 -0.06380022 -0.06253805 -0.025543531 0.008774764
0.08549234 -0.0067271236 0.35298973 -0.06921008 0.22112821 0.052355234 -0.11557572 0.11929528
0.22353779 0.04229961 -0.10411376 -0.29119164 -0.014784463 -0.09500767 0.35813504 0.09579479
0.20036314 0.006080693 -0.09281398 0.20417324 0.15379067 0.07504722 -0.18055768 0.030324303
0.0057996246 0.08486016 0.113393396 0.34571943 -0.22245927 0.09453835 -0.015165635 -0.082329914
0.030492032 0.10831325 0.304872 0.13421479 -0.066967234 0.027778666 0.045174927 0.002385863
0.28911108 0.02936119 0.08417001 0.06981626 -0.101358555 0.04496347 0.13608576 -0.1993055
-0.12930004 -0.23447418 0.15421975 0.18862891 0.05361815 -0.085089095 0.19012642 -0.14885129
0.0132537875 0.109534286 0.109966435 -0.07387136 -0.0071160602 0.062368903 0.15050426 0.17236547
-0.044450313 -0.062132552 0.11486218 0.15591833 0.00866173 -0.02303136 0.100705884 0.23493929
0.05958548 0.12549603 -0.034718744 0.15629792 0.1347914 0.2209036 0.19208975 0.12277507
0.20906308 -0.011598668 -0.12657417 0.13617657 -0.008828337 0.024301916 0.023434144 -0.018116439
-0.057486456 0.16820912 0.069060355 -0.09269905 0.19385338 0.07738493 0.17450474 -0.21099535
0.22911385 0.07482944 0.25920695 0.007341023 0.067723565 0.26098597 -0.019104756 -0.101316914
0.1633133 0.2643298 0.07753491 0.2857562 0.12986195 0.021766124 0.09082882 -0.3336049
-0.03582924 0.05128107 0.042696275 0.15179352 0.06803403 -0.11486333 -0.028499227 0.17201684
0.1564242 0.33869213 0.12681928 0.100428626 0.004499382 0.027172562 -0.16231763 0.11979238
0.15555814 0.12067945 0.3234796 0.10628863 -0.10573096 0.24979474 0.30591157 -0.05388002
0.12488087 -0.048815385 0.14330652 -0.28957874 0.26615295 0.16375887 -0.03030363 0.025800658
00000000: d5a9 ae3d fa8c 673d cfb6 143e 0c43 6a3d
00000010: b8ae 4e3d c9fe 303e cef1 b73a b363 95bd
00000020: 0be0 ff3c b292 f3bd 5c42 6cbe f68f 683d
00000030: d055 56be 7aa2 cebd f86d 623e cbb5 673e
00000040: 4891 08be 3f1e 9dbc 0c60 123d cd8e 163d
00000050: 0f95 4a3e e994 013e eef5 9abd 0b70 7a3d
00000060: e46b 9c3d 05b5 593b 672e 2a3d ce9c 813b
00000070: 19c2 19bd 4e39 af3d d0ab 1d3d 0420 093e
00000080: 2153 97bd 6c6d 873e c8c1 a73d c687 f63d
00000090: 495b ca3c e417 f6bd 1d59 9c3d 0b05 103e
000000a0: 675d 8c3d 5d35 ccbb ba54 f3bd 7b46 053e
000000b0: b1a9 82bd f313 80bd ab40 d1bc 07c4 0f3c
000000c0: 9c16 af3d 346f dcbb 12bb b43e 04be 8dbd
000000d0: 6f6f 623e 7172 563d f7b2 ecbd 1551 f43d
000000e0: 17e7 643e 5b42 2d3d 9839 d5bd 1217 95be
000000f0: 883a 72bc 6293 c2bd 7a5d b73e 0f30 c43d
00000100: ff2b 4d3e 8d40 c73b 4215 bebd ca12 513e
00000110: 4d7b 1d3e 5bb2 993d 1de4 38be ac6a f83c
00000120: c70a be3b 2acb ad3d cc3a e83d 2302 b13e
00000130: 5dcc 63be 539d c13d 4979 78bc 969c a8bd
00000140: 6dca f93c 56d3 dd3d 2f18 9c3e 9a6f 093e
00000150: 1e26 89bd 1690 e33c 5809 393d 245c 1c3b
00000160: 5e06 943e e186 f03c 5461 ac3d d4fb 8e3d
00000170: 1395 cfbd 9e2b 383d 115a 0b3e be16 4cbe
00000180: 3b67 04be 001a 70be c8eb 1d3e f027 413e
00000190: b59e 5b3d 3143 aebd 80b0 423e 796c 18be
000001a0: 6a26 593c 8353 e03d 1536 e13d de49 97bd
000001b0: d72d e9bb 8976 7f3d ca1d 1a3e 9380 303e
000001c0: 8811 36bd b47e 7ebd dd3c eb3d 0ea9 1f3e
000001d0: eee9 0d3c 43ac bcbc e33e ce3d ed93 703e
000001e0: e70f 743d 0882 003e 3e35 0ebd 900c 203e
000001f0: c206 0a3e 8e34 623e 2db3 443e 7f71 fb3d
00000200: a214 563e 5708 3ebc a99c 01be df71 0b3e
00000210: bba4 10bc d014 c73c f6f8 bf3c ed68 94bc
00000220: eb76 6bbd 033f 2c3e 846f 8d3d 00d9 bdbd
00000230: 8081 463e fd7b 9e3d 5fb1 323e 2a0f 58be
00000240: d29c 6a3e 2d40 993d c6b6 843e f78c f03b
00000250: a7b2 8a3d f49f 853e 9481 9cbc 3e7f cfbd
00000260: 9a3b 273e 3c56 873e 9fca 9e3d a34e 923e
00000270: 88fa 043e df4e b23c 7604 ba3d 43ce aabe
00000280: aec1 12bd 190c 523d 4ae2 2e3d c36f 1b3e
00000290: 6d55 8b3d 773d ebbd 3677 e9bc 2f25 303e
000002a0: aa2d 203e 0e69 ad3e eadc 013e 86ad cd3d
000002b0: 8d6f 933b fe98 de3c 9836 26be b555 f53d
000002c0: a24a 1f3e ca26 f73d 1e9f a53e daad d93d
000002d0: 7989 d8bd 31ca 7f3e 71a0 9c3e 4cb1 5cbd
000002e0: 8bc1 ff3d a4f2 47bd f2be 123e aa43 94be
000002f0: 3345 883e 68b0 273e 513f f8bc e75b d33c
