models/nn_to_lev_cat012_epoch16.pt (torch, 344229 bytes, 43 tensors)

weight f4 [224, 22]
000000 0e 2b 6b be 22 6f 28 be 1a ba 3b bd 47 fc 8d 3e
       -0.22965643 -0.16448644 -0.045831777 0.27731535
000010 0d e2 40 be c2 53 a5 3d 32 af 5e 3e 59 dd 8c 3e
       -0.18836232 0.08072616 0.21746519 0.27512625
000020 46 d6 c3 3e 73 9d 43 be eb 8b a6 3c 0a 68 47 be
       0.38249415 -0.19103031 0.02033039 -0.19473282
000030 cf 44 29 3e 31 26 83 bd 00 f2 03 be 89 68 df bc
       0.16530155 -0.06403769 -0.12885284 -0.027271526
000040 bb d8 56 be 0f f6 88 3e 08 f0 c3 bd ae dd 49 be
       -0.20981114 0.26750228 -0.09567267 -0.1971347
000050 74 03 8c 3e d7 19 6d 3e a4 88 c2 be c0 78 9b 3e
       0.27346385 0.23154388 -0.37994874 0.30365562
000060 0b fb 23 3e 22 d3 ac 3e 82 95 8e 3e 86 de 1f bf
       0.16013734 0.33754832 0.2784844 -0.6244892
000070 c8 a8 04 bf c2 d6 8e 3d f7 4b fd 3e d9 00 74 bc
       -0.5182004 0.069745556 0.4947202 -0.01489278
000080 18 1d fe 3d 08 aa 1f be 57 bd 19 be 6e 66 fd 3d
       0.12407893 -0.15592206 -0.15013634 0.123730525
000090 94 e1 30 3b 9d 5b 92 bd 8f d5 6c 3e 94 c9 dc bd
       0.0026989924 -0.0714638 0.23128341 -0.107806355
0000a0 d9 67 50 3e 95 29 15 3e 36 97 a1 be 3c c1 b4 3d
       0.20352115 0.14566644 -0.31560677 0.08825919
0000b0 1e 8e ba be 5f 3c 79 bc 43 d0 2a 3f f9 2e 81 bc
       -0.36436552 -0.0152121475 0.6672403 -0.015769469
0000c0 a4 19 04 bf 45 f9 47 bd 6d 68 80 be 9a f8 78 3e
       -0.51601624 -0.048821706 -0.2507967 0.24313584
0000d0 f3 02 13 3e e9 f2 04 3e e8 29 2c 3d 08 95 12 be
       0.14356594 0.12983288 0.042032152 -0.14314663
0000e0 69 a7 28 3e 8f 80 ea bc e4 12 a3 bb 7b fa d9 3d
       0.16470112 -0.028625755 -0.004976617 0.106434785
0000f0 b3 ee b9 bd a2 ab b7 bc 4d ba 1d be 6b d5 f2 bd
       -0.090787314 -0.022420708 -0.154031 -0.118571125
000100 18 88 a3 3e a3 13 19 be e0 06 73 be 18 d6 1c bf
       0.3193977 -0.14948897 -0.23733091 -0.6126418
000110 0f c3 2b 3f ca f2 05 3e d8 55 18 bd dc 2e 8d be
       0.6709451 0.13080898 -0.037191242 -0.27574813
000120 9c 72 3d be f0 56 5e be 90 5e d8 3e 5e fc 4d 3d
       -0.18500751 -0.21712852 0.42259645 0.050289504
000130 94 6d 94 bd dc 05 18 3d 23 90 9a bd 9b aa d4 3d
       -0.07247463 0.037114963 -0.07547023 0.10384103
000140 45 6e 2c bd fc 59 d7 3c 36 45 80 3d 77 a4 54 3d
       -0.04209735 0.026288025 0.06263201 0.05191466
000150 88 e8 87 bd ed c2 19 3d 34 1d 4e 3e d8 f4 88 3d
       -0.06636149 0.03753941 0.20128328 0.06687325
000160 e5 3b 2b 3e 77 6b f3 3e 09 0f aa be d2 70 b2 3e
       0.16722067 0.47542927 -0.33214596 0.348517
000170 01 ba 8b be bd b7 88 be f9 7b 98 3d d7 b3 44 3e
       -0.27290347 -0.2670268 0.07445521 0.19209228
000180 2c 85 80 bd c4 48 b0 be 0a 3e 08 3e 46 e5 10 3e
       -0.062754005 -0.34430516 0.13304916 0.14149961
000190 37 8f ff bd d0 6e 3c be 83 11 bb bc 1b 69 47 3e
       -0.12478488 -0.18401647 -0.022835499 0.19473688
0001a0 7b 83 9b be 66 fa 93 be 36 de 3e bd 9b 06 01 3e
       -0.3037375 -0.28901976 -0.046598636 0.12600176
0001b0 c6 5c 72 3d a8 a9 89 bb 12 3e 97 be 72 83 17 bd
       0.059170507 -0.004201133 -0.29539543 -0.03699059
0001c0 62 d9 25 3d e1 b7 e5 3d 74 55 42 3e 30 7f 97 3d
       0.040490516 0.11216713 0.1897791 0.07397306
0001d0 7e 1b 10 3d 14 92 e3 3d 0d b7 1b be f0 a6 c8 bd
       0.03518247 0.111118466 -0.15206547 -0.09797466
0001e0 20 e8 20 3e 26 54 2c be 57 b2 9c be 6b c3 c6 3d
       0.15713549 -0.16828975 -0.30604813 0.09705242
0001f0 9e a5 9a 3e 88 f3 71 3e c6 6e 1f be 13 62 e7 be
       0.3020448 0.23628056 -0.155696 -0.45192012
000200 ca 3e 8a be db c7 31 be 23 4b 0b 3f 31 a5 30 3e
       -0.2700103 -0.17361395 0.54411525 0.17250516
000210 5e 2c bd be ac bd 8a 3e a3 48 f4 3d b7 14 26 bd
       -0.36947912 0.27097833 0.11927917 -0.0405471
000220 04 b0 d7 3e 31 df b7 be 6e d0 a6 bd 63 0e fd 3e
       0.42126477 -0.3591247 -0.081452236 0.4942504
000230 70 ba 65 be c7 b6 2d 3e d0 e1 21 be 78 3f c1 bc
       -0.22434402 0.16964255 -0.15808797 -0.023589835
000240 7d 6c 1e 3e b3 f8 4e 3d 76 a3 82 be 3e d7 b0 be
       0.15471072 0.050530147 -0.25515336 -0.34539217
000250 74 a5 3c b8 c8 e9 2b 3e b1 7c a8 be d7 64 d9 3d
       -4.4976783e-05 0.16788399 -0.32907632 0.10614937
000260 b8 5d 04 3e 00 3b f3 3e 32 00 13 bf 3c c7 89 3e
       0.12926376 0.4750595 -0.57422173 0.26909816
000270 64 d3 a4 3e 6a 37 b7 3d 82 1b 63 bc dc 7d 69 bc
       0.32192528 0.08946116 -0.013861539 -0.014251199
000280 b1 e2 fc be c1 a7 21 be b0 c0 06 3f 1c a8 82 bc
       -0.49391702 -0.1578665 0.5263777 -0.015949301
000290 a4 12 13 3e ae c8 3e be 01 73 d9 3d 82 05 0b 3d
       0.1436258 -0.1863124 0.106176384 0.0339408
0002a0 82 78 76 be 2c 97 5f bd 56 6b 23 3d 2a cc 9f bc
       -0.24069408 -0.054587528 0.039897285 -0.019506533
0002b0 e4 a1 9f be 98 45 e5 3d a5 8a e0 3e 48 f7 8e 3d
       -0.311782 0.111949146 0.43855777 0.06980759
0002c0 69 fc 0b bf 7c 4e 4d 3f d4 6f 8d be 7b 92 ac 3e
       -0.5468202 0.8019788 -0.2762438 0.33705506
0002d0 9c 28 db be d0 29 d0 3d 60 f4 09 bf d0 32 11 3f
       -0.4280442 0.10164225 -0.5388851 0.5671816
0002e0 b7 48 54 bb 1d 1a 28 3d 6c 22 51 bd 9f 6a c8 3c
       -0.0032391974 0.04104053 -0.051058218 0.024464903
0002f0 d4 99 e9 3b d4 b9 0c bc 8c dd 52 ba 18 f2 30 3d
       0.0071289334 -0.008589227 -0.00080438773 0.04319963
000300 58 71 cd bd 0f 29 c4 3d a9 0f 2a 3d 7c 4a 4b bd
       -0.10031384 0.09578144 0.04151884 -0.04963158
000310 50 dc b0 3c c5 82 bf bb 5b 5c 1e bf 3c 61 a8 3e
       0.021589428 -0.0058444464 -0.61859673 0.32886684
000320 4a f7 92 3e d8 9e 2f be 19 5a 8e 3d d9 12 1b 3e
       0.28704292 -0.17150438 0.069507785 0.15143909
000330 bb 9c 01 3f 20 b2 bf 3c 58 8c d9 be 64 39 88 3e
       0.50629777 0.023400366 -0.42489886 0.26606286
000340 b6 bb a2 be 51 43 82 3d 35 95 29 3e fc 6b bc be
       -0.31783837 0.06360496 0.16560824 -0.36801136
000350 78 54 3d 3e 19 05 7f 3e 60 40 33 3d e3 1e a6 be
       0.18489254 0.24904288 0.043762565 -0.3244544
000360 d4 3e 7a 3d 05 8b a6 bd 47 05 13 3d 04 7b 34 3d
       0.061095074 -0.081319846 0.035893705 0.04406263
000370 40 a9 f4 be b9 a6 c0 3e 45 e8 c0 3d ac 13 77 be
       -0.47785378 0.376272 0.09419302 -0.24128598
000380 9f 21 48 3d bf e8 58 3e e2 6f 6b bf 94 43 d7 3e
       0.04886019 0.21182536 -0.91967595 0.42043746
000390 24 9c 15 3f a7 26 36 be c1 83 89 3e 78 f7 95 bd
       0.58441377 -0.17788182 0.26858333 -0.073225915
0003a0 11 98 d7 3a c8 49 4c bd 37 7a 20 3d d8 81 80 3d
       0.0016448518 -0.04987505 0.039179053 0.06274766
0003b0 63 d7 ba bd 3a 8f 1b 3d 4d 89 15 bd e9 79 94 3e
       -0.09123113 0.03797839 -0.036507893 0.2899926
0003c0 d5 0a 58 be 68 00 95 bd eb 7f f1 bd 4a 5c 43 be
       -0.21097882 -0.07275468 -0.117919765 -0.19078174
0003d0 35 a8 2a 3e a5 08 94 be 1b 34 82 3e 5c 1c 0c bc
       0.16665728 -0.28912845 0.25430378 -0.008551683
0003e0 df d6 27 bd 9d de df be e1 62 10 bf f3 7e aa bd
       -0.0409764 -0.43724528 -0.5640088 -0.08324995
0003f0 92 1a 15 3e 07 f7 ac 3d 26 21 bc bd 5e 2e 42 3e
       0.14560917 0.08445554 -0.0918601 0.18963

bias f4 [224]
000000 73 bc 23 bf f1 f1 af bd b1 64 1d be 2f 1e 10 bf
       -0.63959426 -0.085910685 -0.15370442 -0.56296057
000010 c2 ba b7 3e 93 24 4b be 60 b1 2a be 35 ed c9 bd
       0.35884672 -0.1983817 -0.16669226 -0.09859697
000020 09 18 d2 bd 80 77 99 bd 41 76 ae 3e 5b fe be 3b
       -0.102584906 -0.07493496 0.34074596 0.0058286614
000030 e7 e8 35 3f 71 eb 8a bf 44 be 32 bf ae 38 7f 3d
       0.71058506 -1.0853101 -0.6982157 0.062309913
000040 8d 9b 74 3d 83 f8 6d be cb 2c 3b bf a3 50 1f be
       0.059718657 -0.23239331 -0.73115224 -0.15558104
000050 dc a3 04 3d 6e 93 d1 bc ac 2a f2 3d de f7 4c be
       0.03238283 -0.025582995 0.11824545 -0.20016429
000060 d8 25 53 bd 94 74 ed be c7 d0 0b 3e 5c e2 c5 3e
       -0.051549762 -0.46378005 0.13653861 0.3864926
000070 29 88 13 be e3 c6 42 3d 57 b5 36 bc a7 15 81 bd
       -0.1440741 0.047552954 -0.011151633 -0.06302958
000080 e6 bd cf 3e f9 f7 05 3f b2 01 75 be 3b f9 b8 be
       0.4057457 0.523315 -0.23926428 -0.36127648
000090 5b d4 80 3e 6f be 6b be a8 d0 07 b7 91 94 00 3f
       0.25162014 -0.23021863 -8.095209e-06 0.50226694
0000a0 51 46 ab bd 99 a3 83 be c5 2e 9c bf b7 72 8a 3e
       -0.08363021 -0.25710753 -1.2201773 0.27040645
0000b0 4a de 38 3f 94 98 c4 be 87 d3 c5 be d3 2c 73 3e
       0.72214186 -0.38397658 -0.38637945 0.23747568
0000c0 2f f0 23 bd 97 3d 69 be 52 ee b0 3d 6a 24 5e bc
       -0.04002398 -0.22777401 0.08639206 -0.0135584865
0000d0 bf 3a 4d be a1 7a af 3e 3f 2d f3 be 87 6e cd 3d
       -0.20041941 0.34273246 -0.47495458 0.10030847
0000e0 2a ae 4a bf 6b d2 26 be a0 6b 37 3e a0 34 97 bd
       -0.79172003 -0.16291206 0.1791215 -0.07383084
0000f0 33 35 80 bf 4e 13 fd be 84 96 91 3e 8e b3 e5 be
       -1.0016235 -0.4942879 0.28435147 -0.44863552
000100 06 83 8c 3c 86 84 97 be 95 76 b6 3c 36 97 3e be
       0.01715232 -0.29593295 0.022273341 -0.1861237
000110 ba 9c db bc 5f 33 5d be fd 60 93 be 3b af 45 3e
       -0.026808131 -0.21601628 -0.28784934 0.19305126
000120 bc f5 54 bf 04 e3 8a be db 73 34 bd f9 56 1e be
       -0.8318746 -0.27126324 -0.0440558 -0.15462865
000130 4f 94 82 3e 5d e6 32 3e 81 95 2e bf f8 33 9c bf
       0.25503775 0.17470689 -0.68196875 -1.220336
000140 7a 06 17 bf ab 42 56 3f 17 be 0c bf b3 cc b6 3e
       -0.5899426 0.8369548 -0.54977554 0.35703048
000150 d2 c6 13 bf 2b 75 9a be ad 77 ee bc 0a 51 37 3f
       -0.5772525 -0.30167517 -0.0291098 0.7160803
000160 9f 89 e5 3e 1f 22 8f 3d 2c af d4 bd e0 b1 4b be
       0.4483156 0.0698893 -0.10384974 -0.19892073
000170 28 91 a6 bc d2 13 f3 be 8a 95 ab be df 9f b0 be
       -0.020332888 -0.4747606 -0.33512527 -0.34496972
000180 f1 b0 d5 3e 23 97 5b be bc 7e 36 3e ad 9e 67 bd
       0.41736558 -0.21444373 0.17821783 -0.05654781
000190 3c 84 e4 bd f2 69 bb 3c 32 fe 27 bf bd 6b 94 3e
       -0.11158034 0.022877667 -0.65622246 0.28988448
0001a0 2c ce 50 3e 72 93 8d 3e 30 f8 15 3d 43 e1 34 bf
       0.20391148 0.27651554 0.036613643 -0.7065622
0001b0 1e 28 05 bf 0f 67 9b 3d 70 c9 fc 3d 51 5a 86 3e
       -0.5201434 0.07588016 0.12343109 0.2624078
0001c0 71 32 8d 3e f3 03 fe be cd 55 22 3f 21 61 67 be
       0.27577546 -0.49612388 0.6341217 -0.22595645
0001d0 f7 61 13 bc a6 85 27 3e a9 70 2b 3e 67 f8 d4 bd
       -0.008995525 0.16359577 0.16742195 -0.103989415
0001e0 36 1e 0a bd 3c bb 9f be cb 75 07 bf a9 63 61 be
       -0.033720218 -0.31197536 -0.5291411 -0.22010674
0001f0 fc 86 59 be 23 63 11 bf 11 78 5c bb 21 d9 a5 be
       -0.21242899 -0.56791896 -0.00336409 -0.3239222
000200 45 4d 0f bf f8 32 1b bf 62 83 9b 3d 72 b5 7c bf
       -0.5597728 -0.6062465 0.07593419 -0.98714364
000210 9e e6 04 be 2c df 42 3e 8e b6 7c 3e 34 1f 18 3e
       -0.12978598 0.19030446 0.24679014 0.14855653
000220 85 03 31 3c 59 05 91 be 39 3f d4 3e a6 81 5d be
       0.010804062 -0.28324392 0.41454485 -0.21631488
000230 7a b2 3c be 7c c6 29 3e 33 4e 00 bf 24 ce cf bd
       -0.18427458 0.16579622 -0.5011932 -0.1014674
000240 4e 99 d5 be 01 5d d3 bc 7f 9a d1 3d c3 5d 8b bd
       -0.41718525 -0.025801184 0.10234546 -0.06804993
000250 27 0e ac 3e 45 34 2a bf 77 73 87 bf 0e ea 90 3e
       0.33604547 -0.66486007 -1.0582112 0.2830357
000260 d4 ee 45 bf 13 5e fc be 95 88 69 3e a9 ce 52 bf
       -0.7731755 -0.49290523 0.22806008 -0.8234659
000270 f4 78 d2 bc ad 43 e7 be 75 55 95 3e 64 7f cf be
       -0.02569244 -0.4516882 0.2916676 -0.4052688
000280 f9 c6 bf be 6f 2f 6c be f6 d5 c5 be de d1 bc be
       -0.37456492 -0.2306497 -0.38639802 -0.36878866
000290 d5 9d 39 3e 30 6e 0c 3f 37 ab 1e be 43 62 c0 3e
       0.18126614 0.5485563 -0.15495001 0.37574968
0002a0 89 98 d0 be 79 9b af 3d 19 57 00 3d ac fa 88 3e
       -0.40741375 0.08574576 0.031333063 0.26753747
0002b0 29 13 b5 3e f7 95 37 bf 46 e7 0e 3e 90 73 63 bf
       0.3536618 -0.71713203 0.13955411 -0.8884821
0002c0 0a a5 16 bf 93 1a 8f be f6 be 98 be 69 3f da be
       -0.5884558 -0.27949962 -0.29833192 -0.42626503
0002d0 fe a3 8d be e9 26 7a bf 18 cf 77 bf 61 f2 52 3d
       -0.2766418 -0.9771562 -0.96800375 0.05150068
0002e0 4b b3 85 3e e5 bb e5 be 50 50 1f bf b4 27 f4 bd
       0.26113352 -0.44869915 -0.6223192 -0.11921635
0002f0 98 06 d2 bc 56 cd b0 bd d0 af 9a bd 74 d3 52 3e
       -0.02563791 -0.08632915 -0.07553065 0.20588475
000300 ab bf 42 be 37 40 6f 3e 05 0a 36 3d c1 d3 24 bf
       -0.19018428 0.2336434 0.04444315 -0.6438561
000310 fe da 5a bd 76 ee a8 bd c5 4b c2 3d df f6 01 bf
       -0.053431503 -0.08248608 0.09487108 -0.5076732
000320 0b 75 9e be b5 d2 ef be 79 32 01 3e 5c fb 40 bf
       -0.30948672 -0.46840444 0.1261691 -0.75383544
000330 70 6a 9d bb 8a 7b a5 3d 26 23 de 3e 97 5c 72 3e
       -0.004803948 0.08080204 0.4338619 0.23668133
000340 de df 6e 3d a8 df c6 be 02 02 22 bf e2 c0 c9 3d
       0.058318965 -0.3884251 -0.63284314 0.098512426
000350 71 52 dc be 24 49 0a bf 34 71 00 bf 04 f1 c2 3e
       -0.43031648 -0.54017854 -0.50172734 0.38074505
000360 a6 54 f1 be 96 7c 96 3d 9b a6 0b be 20 f8 1d bf
       -0.47134894 0.07347982 -0.13637774 -0.61706734
000370 16 bf 81 bf fa bf c5 be 03 5e 03 3f b5 6c 4a be
       -1.013644 -0.3862303 0.51315325 -0.19768031

weight f4 [224]
000000 20 ae a0 3e 52 86 17 3f 85 e4 1c 3f ee 45 10 3f
       0.31382847 0.5918933 0.61286193 0.56356704
000010 c2 0a 00 3f ec 04 04 3f 10 4d cd 3e e9 e1 07 3f
       0.50016415 0.5157001 0.40097857 0.53079087
000020 ea 1a 81 3f 28 72 2c 3f a3 52 9b 3f 44 e4 29 3f
       1.0086339 0.6736169 1.2134594 0.6636393
000030 7a a2 cd 3f cb 47 d9 3e 51 e4 05 3f 90 d0 19 3f
       1.6065209 0.42437586 0.5230151 0.60083866
000040 b2 2a de 3e 80 ec b2 3e 53 8e 02 3f 5f c8 ef 3e
       0.4339195 0.3494606 0.5099842 0.4683256
000050 fa 73 0c 3f 34 b5 09 3f eb e6 00 3f 43 1e 34 3f
       0.54864466 0.5379212 0.5035235 0.70358676
000060 44 1e 06 3f 2e 43 15 3f d3 22 07 3f 3f 64 36 3f
       0.5238993 0.58305633 0.5278751 0.71246713
000070 2c bc 1b 3f a9 f8 05 3f 6e 27 cc 3e bf d8 24 3f
       0.60834 0.5233255 0.39873832 0.6439323
000080 78 9b 0f 3f e6 91 21 3f 49 4c 96 3e da c5 f8 3e
       0.560966 0.6311325 0.29355076 0.4858845
000090 12 a7 47 3f 9a ea dd 3e 45 18 a1 38 bf b4 9c 3f
       0.77989304 0.4334305 7.681599e-05 1.2242659
0000a0 63 00 72 3f 62 5d 0c 3f 0f 5e af 3e 5e ea 65 3f
       0.9453184 0.5482999 0.3425145 0.8981074
0000b0 df 75 a9 3f a7 40 03 3f cf ec 29 3f 2a e4 ae 3e
       1.3239096 0.51270527 0.66376966 0.3415845
0000c0 33 89 00 3f 9d 5a 07 3f a5 1d 03 3f 3b 75 25 3f
       0.5020935 0.5287264 0.5121711 0.64632004
0000d0 1f b1 c6 3e 26 c7 25 3f d1 bc 04 3f 5a 04 e6 3e
       0.38807008 0.64757 0.5185061 0.44925195
0000e0 be f9 b5 3e 8a 3a c2 3e b0 ec cf 3e d4 ac fb 3e
       0.355421 0.37935287 0.40610266 0.49155295
0000f0 40 de af 3e 26 37 e9 3e 2e 17 14 3f a1 38 cb 3e
       0.3434925 0.45549887 0.5784787 0.39691642
000100 7d ce d9 3e 1e d8 1f 3f c5 a1 38 3f 79 a8 36 3f
       0.4254035 0.62439144 0.7212184 0.7135082
000110 aa 9e 0e 3f 54 a2 c0 3e 43 46 05 3f 5f 09 f1 3e
       0.5571085 0.37623847 0.52060336 0.47077462
000120 26 30 a4 3e 37 22 27 3f 46 9a 10 3f cd e7 c4 3e
       0.32067984 0.6528658 0.564854 0.384581
000130 43 07 94 3e 77 ce 1f 3f 2d 6e f7 3e 5b 86 15 3f
       0.2891179 0.62424415 0.48326245 0.58408135
000140 30 d2 c6 3e 48 58 0f 40 78 5e 04 3f 26 65 09 3f
       0.38832235 2.2397633 0.5170665 0.53669965
000150 c6 ad dc 3e a6 44 98 3e ed d3 19 3f 3e 27 b3 3f
       0.4310133 0.29739875 0.60089 1.3996351
000160 d4 45 8c 3f 5b 0a 30 3f d1 bf 0b 3f 01 88 0d 3f
       1.095881 0.687658 0.54589564 0.5528565
000170 e6 41 14 3f 72 43 15 3f 43 11 83 3e 15 c8 12 3f
       0.57913053 0.5830604 0.25599107 0.5733655
000180 c1 f8 e3 3e f5 bd b7 3e 1f 5d 92 3f 8a 9c d8 3e
       0.44525722 0.35887113 1.1434668 0.4230693
000190 f9 ba 35 3f d2 64 f9 3e 36 fb cc 3e 14 02 39 3f
       0.7098842 0.48709732 0.4003541 0.72268796
0001a0 bb ba 3b 3f cd f2 74 3f 4d 0a 89 3f 22 6e e2 3e
       0.73331803 0.95682985 1.0706269 0.4422465
0001b0 26 48 d9 3e 72 5e 6c 3f 38 6f e9 3e 0c 10 ee 3e
       0.42437857 0.9233161 0.45592666 0.46496618
0001c0 fc d2 75 3f 45 07 08 3f c8 4f 18 3f 44 4d f4 3e
       0.9602506 0.5313609 0.59496737 0.477152
0001d0 fb bf 01 3f ee 01 12 3f 94 15 03 3f 97 21 11 3f
       0.50683564 0.57034194 0.512048 0.5669188
0001e0 01 dd 24 3f 14 e3 53 3f 7c 98 06 3f 3e 91 e3 3e
       0.64399725 0.8276837 0.5257642 0.44446748
0001f0 e8 67 fc 3e 4c 6a f6 3e 4c 0b fd 3e d3 39 f0 3e
       0.49298024 0.48127973 0.4942268 0.46919116
000200 33 e8 e4 3e 0d 8d 23 3f 2e b0 8c 3f e3 7c a3 3e
       0.44708404 0.638871 1.0991266 0.31931219
000210 ce 81 f0 3e d0 58 24 3f cf 40 9f 3f f2 8d ec 3e
       0.46974033 0.6419802 1.2441653 0.46202046
000220 7c 15 64 3f eb e3 af 3e 9f ac 2d 3f 89 73 20 3f
       0.8909528 0.34353575 0.67841524 0.6267629
000230 a4 2e 2d 3f b1 df 10 3f 76 ed 0b 3f b4 bd e9 3e
       0.6764929 0.56591326 0.5465921 0.45652544
000240 49 ad d8 3e 45 50 0e 3f e6 d2 39 3f f0 e0 06 3f
       0.42319706 0.5559123 0.7258743 0.5268698
000250 af ec 7c 3f fd 69 00 3f 26 9b f2 3e a3 62 75 3f
       0.9879865 0.50161725 0.47383994 0.9585363
000260 49 bc 07 3f b0 c9 e5 3e 05 f2 73 3f 45 a1 d7 3e
       0.53021675 0.44880438 0.9529117 0.42115226
000270 f4 92 01 3f c7 df e5 3e 1f 6f b2 3f 58 08 90 3e
       0.5061486 0.4489729 1.3940161 0.28131366
000280 d2 be ec 3e 78 af fb 3e f8 fc 20 3f de 38 e0 3e
       0.46239334 0.4915731 0.62886 0.43793386
000290 e4 11 d4 3e b1 36 16 3f 1d d5 03 3f c8 71 5b 3f
       0.414199 0.586772 0.5149706 0.8572049
0002a0 e4 ab cf 3e 64 40 0f 3f 47 1f 20 3f 17 09 cf 3e
       0.4056083 0.5595763 0.62547725 0.40436623
0002b0 7e 67 3a 3f b8 9d d3 3e e9 0f fc 3e cb 91 b7 3e
       0.72814167 0.41331267 0.49230888 0.3585342
0002c0 4b 80 06 3f 87 bf df 3e 61 07 04 3f b2 a5 c8 3e
       0.5253951 0.4370081 0.5157376 0.39188915
0002d0 2a fe 2f 3f 20 b5 10 3f f4 10 f0 3e 27 85 3d 3f
       0.687472 0.56526375 0.46887934 0.740313
0002e0 b4 e8 dc 3e df 37 c3 3e bb bc 9d 3e 4c f5 1c 3f
       0.43146288 0.38128564 0.30808052 0.61311793
0002f0 7d 17 3b 3f 94 e6 15 3f 26 e1 23 3f b3 f7 0a 3f
       0.73082715 0.5855496 0.64015424 0.5428421
000300 29 09 dd 3e 51 68 35 3f 09 c0 e6 3e 34 ed f3 3e
       0.4317105 0.708623 0.45068386 0.4764191
000310 23 ce f4 3e e4 94 23 3f 8f 65 0c 3f 0e 6d 40 3f
       0.4781352 0.63899064 0.54842466 0.75166404
000320 d3 68 15 3f 65 16 a2 3e 54 94 30 3f 29 08 ab 3e
       0.58363074 0.3165771 0.6897633 0.33404663
000330 7b cd 27 3f 61 4d 3b 3f 52 4c 34 3f 05 18 25 3f
       0.65547913 0.73164946 0.70428956 0.64489776
000340 c6 15 1b 3f f9 b8 0d 3f b4 1b cd 3e 88 11 eb 3e
       0.605801 0.5536037 0.40060198 0.45911813
000350 57 1a bf 3e e6 e3 c3 3e 95 78 f6 3e 3e 38 ec 3e
       0.37324783 0.3825981 0.48138872 0.4613666
000360 d2 96 af 3e 6a 4a 24 3f 80 9c 64 3f 16 dc 13 3f
       0.34294754 0.64176047 0.893013 0.577577
000370 f6 03 ad 3e 2c 27 04 3f 0b 05 59 3f ea 22 08 3f
       0.33792084 0.5162227 0.8477332 0.53178275

bias f4 [224]
000000 c2 9d 83 be 38 0f f8 3d ae a9 49 3e ce cc 60 3d
       -0.25706297 0.12112278 0.19693634 0.054882817
000010 1d c1 d1 3d af 27 a4 3d d0 f3 41 3e b2 b9 96 bd
       0.102419116 0.080153815 0.18940663 -0.07359637
000020 b2 e1 29 bd 55 3c af 3d 81 a7 b8 3d 58 44 e8 3d
       -0.041475005 0.08556429 0.09016324 0.113411605
000030 b4 91 c7 bd 5d 8d c4 bc db d4 a1 3d 6e 7f 80 3e
       -0.097445875 -0.023993189 0.07901927 0.2509722
000040 22 fa 91 bd 05 5b 09 3e d8 65 d2 3d a6 df 05 bd
       -0.07127787 0.13413627 0.102733314 -0.03268399
000050 3b 73 31 3e 74 3d e2 3d 61 5d 3c be 1d dd 92 3e
       0.17329113 0.110468775 -0.18394996 0.2868432
000060 82 4c 5b 3e 1a 03 0e 3c 4f 5d a5 bd 02 51 b3 3d
       0.21415904 0.008667732 -0.08074438 0.087556854
000070 a4 1a 55 3e 67 6e 3e bc b6 df 0c bd a0 47 2a 3e
       0.20810944 -0.011623002 -0.034393035 0.16628885
000080 aa b6 2f bd 71 b6 c4 3d 36 eb 8b be 90 8e 06 3e
       -0.04289881 0.096051104 -0.2732789 0.13140321
000090 5b 3c 73 3e b6 90 d6 3b c1 f8 ad 38 81 11 10 3d
       0.23753493 0.0065480126 8.295617e-05 0.035172943
0000a0 a0 12 9f 3d 96 0d c0 3d 9f a9 bd bb 9e 07 38 3e
       0.07767224 0.09377591 -0.0057880427 0.17971656
0000b0 93 3b 1f bd 96 60 a7 3d d2 ca 88 3d e9 bc 06 be
       -0.038875174 0.08172719 0.0667931 -0.13158001
0000c0 97 aa 3d 3e 47 bb 91 3e 58 f6 47 3c 5a 09 8d 3d
       0.18522106 0.28463194 0.012204729 0.06886549
0000d0 87 9d 22 3d 85 b4 4a bd da fc 87 3e ff d3 41 bd
       0.03970101 -0.049488563 0.26560098 -0.047321316
0000e0 55 0e 7a bd 12 46 f6 bc 84 a9 42 bd fc cc 46 be
       -0.061048824 -0.030062709 -0.047524944 -0.19414133
0000f0 85 71 47 3d 5a 90 5e 3d b9 c4 92 be 68 b8 cc bd
       0.048692245 0.054336883 -0.28665712 -0.0999611
000100 2b 22 20 be 82 91 9b 3e f8 c7 85 bc 77 f0 5e bd
       -0.15638034 0.3038445 -0.016330704 -0.054428544
000110 6f 2a 0a 3a cd 3e b6 3d 66 e8 8c bd d2 84 81 be
       0.00052706053 0.08898697 -0.06880264 -0.25296646
000120 17 31 5b 3d d1 07 32 3e 0d 8e 81 3e f8 42 f8 bd
       0.053513613 0.17385794 0.2530369 -0.12122148
000130 6f 9d 2e b9 77 1f 65 3e 27 70 fe 3c af e3 0d 3e
       -0.00016652582 0.22375284 0.031059338 0.13856386
000140 19 b9 5d be 7c 9e e1 3d ee ca ef 3c 3b 42 65 be
       -0.2165264 0.110165566 0.02927157 -0.22388546
000150 c9 5f 9c bd a6 20 56 3d 87 57 5c 3e 05 bd da 3d
       -0.07635457 0.05227723 0.21517764 0.10680584
000160 88 a6 40 bd 7f 77 b9 3d bc 5a 9a 3e d1 96 0f 3c
       -0.047033817 0.09055995 0.3014735 0.008763985
000170 22 bc b3 3d 90 1c 32 3e 8d c1 df 3c fd 3e 97 be
       0.08776118 0.17393708 0.027313972 -0.29540244
000180 e1 9a f2 3d fd ae 57 bd a8 e3 af bb 7f 7b 63 3b
       0.11845947 -0.052657116 -0.005367715 0.003471106
000190 61 e3 7c 3e dd 57 2d 3e f5 da e3 bd 54 6a 88 3e
       0.24696113 0.16928048 -0.11125747 0.26643622
0001a0 ac 99 d1 3d 71 2b 1d bd 2a 56 a7 bd da 47 1b bb
       0.10234389 -0.038371507 -0.08170731 -0.002369395
0001b0 f6 55 e0 3c d4 82 a7 3d e8 43 62 3e bd 06 d0 3d
       0.02738474 0.0817925 0.22096217 0.10157535
0001c0 8c c9 4b 3e 5e 6c d7 3d e7 b0 c5 ba 78 33 94 bd
       0.19901103 0.10518716 -0.0015082628 -0.072363794
0001d0 fe 16 e1 3d 67 9d 73 bd 03 9e 25 3e 5d b6 c1 3d
       0.109907135 -0.059476282 0.16173558 0.09458611
0001e0 a2 f9 6f 3e 96 c4 b9 3e 46 39 0a 3e 2e ac ba 3e
       0.23435071 0.36282796 0.1349841 0.36459488
0001f0 16 3e e9 bd 8c ca 40 be ae 52 9c 3d 7b 1b e9 3d
       -0.11388795 -0.18827266 0.076329574 0.113821946
000200 f0 a9 1c 3d f8 3f 4c 3e 0b 88 f8 3c 7a 69 5f 3e
       0.038248003 0.19946277 0.030338308 0.2181758
000210 2d 06 eb 3c bf 3d 5a 3c c7 9a a4 3d 0a 3b d2 bb
       0.028689468 0.0133203855 0.08037334 -0.0064157294
000220 1f 10 8d 3e 0f 1d 23 3e 28 34 5c 3c 54 4f b0 3d
       0.27551362 0.15929054 0.013440169 0.08608881
000230 bb f7 90 3e 8f 8c 66 3e 8a 36 c1 3c b5 fa a0 3d
       0.28314003 0.22514556 0.023585577 0.078603186
000240 3e f5 12 be 04 51 08 bd b7 10 97 3d 84 59 8f 3d
       -0.14351365 -0.033280388 0.07376235 0.069994956
000250 0b be 68 3d 21 6d 9a bc fd 0e 90 bd 58 a0 1e 3e
       0.056821864 -0.018850865 -0.07034109 0.15490854
000260 5c 8e c8 3c 37 ea 60 3d e8 73 94 bd 0c 3a 35 3d
       0.024481945 0.054910865 -0.0724867 0.04424481
000270 9e ea 55 3e b2 9f 3b bc 85 e5 a7 bc ae 46 8f 3e
       0.2089028 -0.011451649 -0.020495186 0.27983612
000280 f3 5b 3f 3e 70 d6 c8 3d e8 79 e9 bb 3d 42 52 3e
       0.1868742 0.09806526 -0.007125128 0.2053308
000290 8c 10 a7 3d 38 c7 c8 3d ec a2 37 3e b1 2a 71 3d
       0.08157453 0.09803623 0.17933244 0.058878604
0002a0 a7 2a 66 3e 1e b4 1f 3e d2 df d6 3c b6 77 8b ba
       0.22477208 0.15596053 0.026229773 -0.0010640535
0002b0 bb 4d 32 3e 49 7b a8 3d 3d dd 0f 3d 8a 64 80 ba
       0.17412464 0.0822664 0.0351231 -0.0009795588
0002c0 35 48 0b 3e 2d 0a 3c 3e 15 b5 10 3d 61 bd c4 bb
       0.13601764 0.18363257 0.035328943 -0.006004021
0002d0 ce 49 e1 3b 69 94 25 3e 60 82 2f 3e be 36 87 3e
       0.0068752533 0.16169895 0.17139578 0.26408952
0002e0 b0 bc a5 bd 82 35 d0 bd 96 ad ff bd 91 27 43 3e
       -0.0809263 -0.10166456 -0.12484281 0.19058062
0002f0 ea b8 8a 3b 32 7a 7d bc 78 30 ad 3d c8 99 1b bd
       0.0042334693 -0.015471028 0.0845651 -0.037988454
000300 59 10 dc 3c a8 70 39 bd 0f ff 60 bd 2b d3 a8 bc
       0.026863264 -0.045273453 -0.054930743 -0.020608505
000310 e7 86 61 bd 2a 8f c4 3e b4 48 0b bd 31 2b 67 3e
       -0.055060294 0.38390476 -0.034004882 0.2257507
000320 ac e7 5e 3e fb 5e 17 be 98 91 69 3e 71 8e c7 bc
       0.21768063 -0.14782326 0.22809446 -0.024359914
000330 3d 4f 98 bd 73 fa 33 3e f2 4f 3e 3e 81 28 a5 3d
       -0.074369885 0.17576008 0.18585184 0.08064366
000340 c2 db 21 bd 8c 7b 05 3d e3 2e 13 be 92 ef 25 be
       -0.039516218 0.032588527 -0.14373355 -0.1620467
000350 aa a0 8d be 21 a0 c3 3d 1c f1 16 3e cd ea 89 bc
       -0.2766164 0.095520265 0.14740413 -0.016835595
000360 09 f8 1e bc c2 30 4e be 30 0e dc 3c c3 de 23 3e
       -0.009702691 -0.20135787 0.026862234 0.16002946
000370 00 cf fd bc 91 80 09 3e b2 d3 c0 bb 31 8f 9f 3d
       -0.030982494 0.1342795 -0.005884611 0.077909835

running_mean f4 [224]
000000 8a 09 c7 3d 7e d2 2f 3d 47 d9 bb 3d 8f 6e c7 bd
       0.09718616 0.04292535 0.09172302 -0.09737884
000010 3e 09 b6 3e 6d 56 14 3e 02 5f 89 3d a4 fb 8f 3d
       0.35553926 0.14486094 0.067075744 0.070304185
000020 05 92 f2 bc f4 05 27 3d e7 f1 97 3e ff 2b 9d 3e
       -0.029610643 0.04077716 0.29676744 0.3069763
000030 9f a8 0b 3f b8 39 ba bd 33 16 e8 bd 12 fb 68 3e
       0.5455417 -0.0909304 -0.11332359 0.22752026
000040 d7 df 2c 3e c7 0e a1 3d ab 5e 53 3d 0a 21 a5 3e
       0.16882263 0.07864147 0.051603954 0.3225177
000050 c7 84 32 3e 1b af 7e 3d 94 84 16 3e 6e 18 be 3d
       0.17433463 0.062178712 0.14699012 0.09282003
000060 d3 a9 b6 3d 8b 28 75 3d 1c 05 27 3e 74 ae 96 3e
       0.0891911 0.059853118 0.16310543 0.29429972
000070 50 86 14 3d e9 61 e7 3d b0 3e 43 3e aa 6a c4 3e
       0.036260903 0.11297972 0.19066882 0.38362628
000080 c4 67 04 3f 09 b3 e2 3e b1 b4 dc 3d e6 6d 09 bd
       0.51720834 0.44277218 0.10776652 -0.033552073
000090 a2 87 4c 3e a8 9d 6d 3e 5d 57 a0 b6 6a 92 c0 3e
       0.19973615 0.23204672 -4.778542e-06 0.37611705
0000a0 37 f4 a4 3c d3 ae 66 3e c3 a4 ab bd 78 e1 54 3e
       0.020135982 0.22527628 -0.08381035 0.20789135
0000b0 3d ca 0f 3f 17 5a 24 3d 68 f2 99 3d f4 40 91 3e
       0.56167966 0.04012498 0.075169384 0.28369868
0000c0 ba 00 5f 3e 59 81 00 3d 6d 53 16 3e c5 ed 58 3d
       0.21777621 0.031373356 0.14680262 0.05296113
0000d0 6d bc e3 3c e4 ae 2e 3f f3 66 49 3d 29 41 4b 3e
       0.02779981 0.6823561 0.049170446 0.19849075
0000e0 82 b1 80 3b b0 f8 7d 3e 15 e4 b7 3e ec 98 60 3c
       0.0039274106 0.24801898 0.359162 0.013708334
0000f0 26 72 94 bd 27 69 c5 bd 1d 4b f3 3e ba 87 4a bd
       -0.072483346 -0.09639197 0.47518244 -0.049445845
000100 3b c0 2d 3e 8f ab 63 3c 96 4f 8b 3d 8f 58 04 3b
       0.16967861 0.013895883 0.06802289 0.0020194387
000110 9f 5c ce 3c 56 d0 55 bc 42 2e 07 bb 7b 0b c8 3e
       0.02519065 -0.013050159 -0.0020626937 0.3907126
000120 c4 af 0e be bf 06 02 3e 1a ed 82 3d a8 72 bb 3d
       -0.13934237 0.12697886 0.0639288 0.09152728
000130 e5 a8 c7 3e d6 ec 88 3e 57 1c 0e bd 80 65 54 bd
       0.38996044 0.2674319 -0.034694996 -0.05185461
000140 dd 1d 8e 3c 5f 1c 2d 3f df dc a7 bd 0a 89 1d 3f
       0.017348224 0.67621416 -0.08196425 0.6153723
000150 21 35 17 bd 50 80 ca 3d f9 ad 87 3e 96 3c 10 3f
       -0.036915902 0.09887755 0.26499918 0.56342447
000160 27 1e b4 3e 60 96 17 3e 1f 30 a5 3d 09 d2 44 3e
       0.35179254 0.14803457 0.08065819 0.19220747
000170 95 ec 96 3d a5 05 6d bd d0 67 0f 3e 06 bb 9c 3e
       0.07369343 -0.05786671 0.14004445 0.30611438
000180 41 b2 06 3f 74 8a 1b 3d 7f ab 20 3e 8c de f5 3d
       0.52615744 0.037973836 0.1569042 0.12005338
000190 80 6b 15 3d 8a ee 2e 3e 9f 13 0a bd 60 3a f1 3e
       0.036479473 0.17083183 -0.03371012 0.4711485
0001a0 bc 3b 44 3e 74 c4 51 3e 5a 38 fa 3d 2a 01 29 bd
       0.19163412 0.20485097 0.122177795 -0.041260876
0001b0 14 85 33 3d 75 22 f2 3d 3c 60 8b 3e c8 dc aa 3e
       0.043828085 0.118229784 0.27221859 0.33371568
0001c0 33 91 90 3e f0 10 79 bd cd 8c 0f 3f d4 c8 37 3e
       0.28235778 -0.06080717 0.5607422 0.17947704
0001d0 86 6a 1f 3e 6b 0f 21 3e 39 5c e3 3e 78 36 45 3e
       0.15567979 0.15728538 0.44406298 0.1925906
0001e0 3d 71 60 3d dc e0 03 3f 51 39 08 bd a0 d0 2f 3e
       0.054795492 0.51514983 -0.033257786 0.17169428
0001f0 7f 52 19 3e 59 46 51 3b bc c6 ee 3d 51 cf 0a 3d
       0.14972876 0.00319328 0.11658999 0.03388912
000200 0b 20 39 bc f0 a4 62 bc 55 ea 54 3e 48 b0 11 bd
       -0.011299144 -0.0138332695 0.20792516 -0.035568506
000210 73 88 c0 3d 7a 3c 11 3e 36 93 80 3e a6 7c b2 3e
       0.094010256 0.14183226 0.25112313 0.34860724
000220 33 f5 9f 3d 52 ff 1d 3e d0 0f c8 3e f1 4e 8b 3d
       0.0781044 0.15429428 0.39074564 0.06802166
000230 99 3f 9b 3d ce 4b 88 3e 07 9c 42 bd 1a 90 11 3d
       0.0758049 0.26620334 -0.04751208 0.035537817
000240 75 60 cd 3d a7 e0 41 3d bc 95 a3 3e 78 d7 93 3e
       0.10028163 0.047333386 0.31950176 0.28875327
000250 b3 41 84 3e 57 2e 0b 3d 6d 66 9b bd 9d 79 4b 3e
       0.25831375 0.03397974 -0.075878955 0.1987061
000260 c6 be e3 bd 0f 07 a3 bc 28 71 4f 3e 69 91 9f bd
       -0.111203715 -0.019900827 0.2025801 -0.07791407
000270 fb 13 6b 3d 20 db 48 bd 8d 03 5a 3e b4 3a 16 3e
       0.0573921 -0.0490371 0.21290417 0.14670831
000280 9c 67 81 3d 6a 59 77 3e 92 39 c2 bc 9a 3d 7d 3d
       0.0631859 0.24155203 -0.023709092 0.061826326
000290 5e 26 45 3e 55 ea 1b 3f 75 a7 81 bc a3 d9 86 3e
       0.19252917 0.6090444 -0.01582692 0.2633792
0002a0 ea 81 1b 3c 4c 85 1c 3e 05 64 02 3e c6 21 bf 3e
       0.009491423 0.15285224 0.12733467 0.37330455
0002b0 c3 9b 8c 3e 39 1d 69 bd 6e 1d 46 3e d1 c6 7c bd
       0.27462587 -0.056912635 0.19347164 -0.061713044
0002c0 ef 54 9f 3c 7c 21 cf 3d 1b b5 e0 bb a2 15 45 3d
       0.01944968 0.101138085 -0.006857527 0.048116334
0002d0 7b 69 52 3e 2d 39 24 bd 21 d8 47 3d d3 8f 06 3e
       0.2054805 -0.04009359 0.0487901 0.13140802
0002e0 dd 8d 0d 3f 89 70 24 3c 29 19 54 3d 32 00 31 3d
       0.5529459 0.010036596 0.051781807 0.043213077
0002f0 ab 56 05 3d 3e 86 eb 3d 47 39 78 3e 42 e3 9b 3e
       0.032553356 0.11500214 0.242406 0.3044682
000300 d2 ad c3 3d 0b c7 26 3e 86 e8 14 3e 4b f7 81 bd
       0.09554638 0.16286866 0.14541826 -0.063459955
000310 2b bf db 3d bf d4 3e 3e 45 66 b4 3e 3d 0f 5c bd
       0.10729822 0.18635844 0.35234275 -0.05372547
000320 48 3a c3 3d e0 65 5a bd ef cd 26 3e d0 9e 96 bd
       0.09532601 -0.05331981 0.16289495 -0.0735451
000330 ab 82 fa 3c cf 10 59 3e b3 0e e8 3e 16 7d 82 3e
       0.030579885 0.21197818 0.45323715 0.25486058
000340 e4 ff 4c 3e f4 be f0 3d 73 b2 39 bd 04 0a 82 3e
       0.2001949 0.117551714 -0.045336198 0.25398266
000350 43 85 2d 3e 56 08 94 bd e5 34 6c bd ff 49 19 3f
       0.16945367 -0.072281525 -0.05766763 0.59878534
000360 43 25 08 3d a0 09 5a 3e 6b 04 66 3d 0e 31 96 bd
       0.03323866 0.21292734 0.056156557 -0.07333575
000370 bf 40 e3 bd 34 74 83 bc 63 a3 c8 3e ba a9 d1 3d
       -0.11096334 -0.01604662 0.39187154 0.10237451

running_var f4 [224]
000000 fb b3 05 3e 3a fb 6d 3d 06 5d 00 3e ea 0d 46 3c
       0.13056938 0.058100916 0.12535486 0.012088278
000010 61 ee 68 3e 5e d5 37 3e d2 76 83 3d 8b ae a5 3d
       0.22747184 0.17952487 0.064191476 0.08089932
000020 95 a3 02 3c 05 c5 82 3d 25 3e eb 3d bb ce 02 3f
       0.007973571 0.06385235 0.114864625 0.51096696
000030 46 66 9c 3c 7b 98 95 3c 1e 32 67 3c fb 7a 98 3e
       0.019091737 0.018261185 0.01411107 0.29781327
000040 97 8c fd 3d a7 17 d3 3d ee 92 17 3e 2e df f4 3e
       0.12380331 0.10307246 0.14802143 0.47826523
000050 4d 4c 2e 3e f1 09 7a 3d 0a 23 b7 3d a6 5b e1 3d
       0.17021294 0.061044637 0.0894223 0.11003809
000060 95 d0 d1 3d 14 62 77 3d 26 fc 78 3d ce 47 9a 3d
       0.10244862 0.06039627 0.060787342 0.07533227
000070 cf ec d8 3d 5b f9 ec 3d 22 46 42 3e 37 9f eb 3e
       0.10592043 0.11570998 0.18972066 0.4601991
000080 56 29 26 3f a3 84 29 3e c3 ce 00 3e ec 5a 36 3d
       0.64906824 0.16554503 0.12578873 0.044520304
000090 b0 ad 84 3d fe 20 ea 3e 46 85 5d 35 23 e7 7b 3d
       0.06478441 0.45728296 8.2522854e-07 0.061499726
0000a0 1d 42 13 3d 2d ec 64 3e ed ca 7d 3c 92 7a 7a 3d
       0.035951722 0.22355719 0.015490276 0.06115205
0000b0 1c 22 3b 3d bb 15 0c 3e 23 e3 2d 3e 83 4f 81 3e
       0.045686826 0.13680165 0.16981177 0.25255975
0000c0 1a 85 19 3e 31 14 9d 3d 18 bc df 3d e9 9f 5f 3d
       0.1499218 0.07669867 0.10924548 0.05459586
0000d0 43 4b b8 3d 0d 01 86 3f 8f db 15 3e 57 63 40 3e
       0.0899873 1.0469071 0.14634536 0.18787895
0000e0 fa f9 8e 3d 85 a1 ff 3e 05 4f f3 3e 92 2d 07 3d
       0.06981273 0.49927917 0.47521225 0.033002444
0000f0 a3 14 8f 3c cb a5 d3 3c 67 38 ee 3e ea 5a e5 3c
       0.017465895 0.025835892 0.46527407 0.027997453
000100 11 c4 22 3e bf c6 90 3d e9 cf 6e 3d 34 c6 2e 3d
       0.15895106 0.07069158 0.058303747 0.04266949
000110 a2 e8 e3 3c e8 bb 4c 3d 0c 9f 9e 3d b9 75 ad 3e
       0.027820889 0.04998389 0.077451795 0.33878878
000120 76 3e 41 3b 93 e2 dc 3d 76 a5 8e 3d 72 0e fd 3d
       0.0029486693 0.10785403 0.06965153 0.12356271
000130 ff 6f c0 3e d8 23 39 3e 64 74 cd 3d bf fb fc 3c
       0.37585446 0.1808008 0.100319654 0.03088176
000140 49 3e e3 3d a1 71 e8 3c 15 19 23 3d 6c bc 3f 3f
       0.11095864 0.028374495 0.039818842 0.74896884
000150 14 29 7a 3d dd f0 52 3e 55 d2 b8 3e 4b c8 50 3d
       0.06107433 0.20599695 0.3609797 0.050972264
000160 9e 8e b9 3d ba 18 b6 3d 83 57 04 3e 22 0b 34 3e
       0.09060405 0.08891435 0.12924008 0.17582372
000170 5a 91 47 3d dc 7b c2 3c f5 92 8f 3e 6d dd c4 3e
       0.048722602 0.023740701 0.28041807 0.38450184
000180 24 43 42 3f 0e bb 64 3d 38 42 7c 3d 05 a0 29 3e
       0.758837 0.05584245 0.06158659 0.16564949
000190 10 51 6e 3d 7a ff 04 3e 9c 00 c0 3d 2d 07 1e 3f
       0.058182776 0.12988082 0.09375116 0.617297
0001a0 1c 43 a8 3d dd e3 74 3d bb 8f c0 3d 18 1d 8d 3d
       0.08215925 0.05978762 0.094024144 0.06890315
0001b0 63 1e cd 3d c1 91 92 3d 54 2e 49 3e c4 7e 53 3e
       0.100155614 0.071567066 0.19646579 0.20653826
0001c0 d8 20 43 3e 0e 11 38 3d 7c fe b9 3e 9a 25 7a 3e
       0.19055498 0.04493814 0.3632697 0.24428406
0001d0 1b f7 14 3e ba f8 a4 3d 34 e7 2b 3f 92 b0 92 3e
       0.14547388 0.08055253 0.6714966 0.28650337
0001e0 56 e0 79 3d 17 fa 29 3f 83 af 74 3d cd 10 3c 3e
       0.06100496 0.6639723 0.059737694 0.18365784
0001f0 39 d7 67 3e d2 07 28 3d ae 9a ce 3d 62 a5 e3 3d
       0.22640695 0.041023083 0.100880966 0.11115529
000200 6d eb ab 3d b4 41 fb 3d 3b 93 2c 3e f0 33 75 3d
       0.08394513 0.12268391 0.16853039 0.059863985
000210 e6 fd a3 3d 4a 29 19 3d 21 bc 17 3e 23 7f fd 3e
       0.08007412 0.037392892 0.14817859 0.4951106
000220 c6 a4 ae 3d 1f bd 55 3e b5 3c 30 3e 3e 9f 25 3e
       0.08527522 0.20872925 0.17210658 0.16174027
000230 52 e8 b5 3d 51 6e 36 3e 59 3b 13 3d 15 ec 62 3d
       0.08882202 0.1781552 0.03594527 0.055400927
000240 2f 89 5f 3e e6 f9 2a 3d 91 78 e1 3e df b6 93 3e
       0.21829675 0.041742228 0.44037297 0.28850457
000250 06 19 b8 3d 1e d4 27 3e 70 86 98 3c 1f 4a 0b 3d
       0.08989148 0.1638951 0.018618792 0.034006234
000260 12 cd 85 3c a5 91 72 3d f7 c7 9b 3d 68 13 06 3d
       0.016333137 0.05922093 0.076065 0.03273335
000270 ef 43 7a 3d ce 77 30 3d 97 e5 33 3d 8a 87 bf 3e
       0.061099943 0.043083005 0.043920126 0.37408096
000280 5b 23 0d 3e c8 e6 7e 3e 82 af 89 3d 0e 05 26 3e
       0.13783018 0.24892724 0.067229286 0.16212866
000290 7f db da 3d 0d db 2a 3f a1 f7 d6 3c e4 80 02 3d
       0.10686397 0.66740495 0.026241126 0.0318612
0002a0 38 9b d3 3d 1a ed ea 3d fe e1 9f 3d 64 c2 d7 3e
       0.1033234 0.11471005 0.078067765 0.42140496
0002b0 51 da b8 3d a7 0e 62 3d 41 32 1a 3e 3b ea 1d 3d
       0.090260155 0.055189755 0.15058233 0.038553458
0002c0 8d ea 91 3d 61 7b 3d 3e 77 f6 7b 3d 57 00 7f 3d
       0.07124815 0.18504097 0.061514344 0.062256183
0002d0 dc f0 86 3e f3 d1 aa 3d 21 dc 3a 3e 21 6b d6 3d
       0.26355636 0.08340826 0.18248035 0.10469652
0002e0 3c 23 18 3f cf 38 f8 3d e8 14 26 3e 24 9d 3f 3d
       0.59428763 0.121202104 0.16218913 0.04678072
0002f0 82 93 0a 3d 8b bd 33 3e 24 27 38 3e 96 b5 19 3e
       0.03383208 0.17552774 0.17983681 0.15010676
000300 5f bc 03 3e 30 68 fa 3c 1c 63 23 3e 76 98 cd 3c
       0.12864827 0.030567259 0.15955776 0.025097113
000310 59 70 e3 3d 15 f2 3c 3e 52 57 bf 3e 07 7d 98 3d
       0.11105413 0.18451722 0.37371308 0.07445722
000320 af 88 1a 3e ca 1b 3f 3d c3 66 e3 3d 33 db 45 3d
       0.15091203 0.04665736 0.111035846 0.048304748
000330 e5 b0 be 3c 0f 5b 47 3e 8d 64 8d 3e 36 89 57 3e
       0.02327771 0.1946833 0.27615777 0.21048436
000340 55 c8 69 3e 80 08 60 3e f6 2a 37 3d b1 c9 52 3e
       0.22830327 0.21878242 0.044718705 0.20584752
000350 2e 9c ab 3e aa 4c 06 3d 33 7b 45 3d f9 0f 69 3f
       0.33517593 0.032787956 0.048213195 0.9104
000360 6d 9c 9a 3d ab 16 5a 3e 75 67 1b 3e 3c e1 88 3c
       0.07549367 0.2129771 0.15176184 0.016708963
000370 b1 b9 81 3c dc c5 9b 3d c7 fa b8 3d 00 8f 2e 3e
       0.015835615 0.07606098 0.09032207 0.17046738

weight f4 [192, 224]
000000 e5 59 38 bc 8d 3b 7b bd 78 a4 70 3c 31 b1 ab bd
       -0.011251901 -0.06133609 0.01468765 -0.08383406
000010 a6 58 3a bd 07 8d 08 be e0 a4 6a bd b6 b9 0e 3e
       -0.045494698 -0.13335048 -0.057286143 0.1393803
000020 2e b8 fe bc 41 fb 25 bc 98 8b 4c bc 1e 1a 92 3d
       -0.031093683 -0.010130704 -0.012484454 0.07133888
000030 86 65 1f 3e b2 3a d1 bc 28 73 59 3e d7 fe d2 3d
       0.15566072 -0.025540683 0.21235335 0.10302513
000040 95 29 2e be 04 77 5d 3d 7d 15 11 3e af 4e 2b be
       -0.1700805 0.05406858 0.14168353 -0.16729234
000050 16 ee 06 be db 52 1a 3c c1 8d 52 3e b1 32 01 3c
       -0.1317676 0.009419168 0.20561887 0.007885621
000060 f9 36 c0 bd 65 2b 11 bd 51 df c8 bd 52 d4 12 bd
       -0.09385485 -0.035441775 -0.09808219 -0.035847016
000070 c9 bf 8a 3d 06 ef 9d 3d 64 88 67 3c 9a 3f 75 3e
       0.06774861 0.07711606 0.014131639 0.23950043
000080 b3 0d e8 bc 69 75 03 3e 59 92 22 be 4e a3 fc bd
       -0.028326845 0.12837757 -0.1587614 -0.123358354
000090 10 6b 88 bd 78 23 0a 3e 06 07 a5 39 fd 3b 41 3e
       -0.066610456 0.13490093 0.00031476485 0.1887054
0000a0 f7 67 9f bd eb ff 39 3e 11 51 8d 3d 0a 68 26 be
       -0.077835016 0.18164031 0.06900228 -0.16250625
0000b0 ed af aa 3d 7f 53 2f 3e c0 0c 6b 3d b0 ff 1e bc
       0.083343364 0.17121695 0.057385206 -0.009704515
0000c0 cf 2c 63 bd 3e 6b a8 3d 43 30 13 3d 9b a4 21 3e
       -0.055462655 0.0822358 0.035934698 0.15785448
0000d0 c7 b5 9d bc 8b 1b 04 be cd 84 b5 bd a5 57 29 3e
       -0.019251717 -0.12901132 -0.0886322 0.1653734
0000e0 e5 77 3b 3e a4 b4 25 be 5d 63 06 be 2b 39 94 bc
       0.18307455 -0.1618219 -0.13123842 -0.018093666
0000f0 f4 08 bc 3c 84 d0 e5 bc 33 f4 81 3e b4 35 e7 3d
       0.022953488 -0.02805353 0.25381622 0.1128954
000100 cd f9 cb 3d 34 83 53 3c 48 20 23 be e7 77 c4 bc
       0.09959755 0.012909699 -0.15930283 -0.023982955
000110 9a 46 f5 3d 5f d7 07 be 9f 01 a7 3d 71 6a 79 3c
       0.11976357 -0.13265751 0.08154606 0.0152231315
000120 19 d7 ca 3d c7 61 75 bd ab c1 06 3d f5 ee 1d be
       0.09904308 -0.0599077 0.03289954 -0.15423186
000130 65 ac 5b bd f7 60 09 be 94 da 35 ba de 96 8b 3d
       -0.053631205 -0.13415895 -0.0006937173 0.06815885
000140 5f 79 92 bd b9 a7 a3 3d a4 23 c8 3c 9e 50 2f 3e
       -0.07152056 0.07990975 0.024431057 0.17120597
000150 ba d9 bf 3d ee a9 9c bd a5 3a d5 3e 58 69 4e be
       0.093677 -0.07649599 0.41646305 -0.20157373
000160 a5 c8 58 3e 19 77 17 3d f9 f2 50 bc 57 a6 0f be
       0.2117029 0.036978815 -0.012753242 -0.14028297
000170 5f aa 83 3d 40 5b a1 bd 97 43 57 bd 21 9e 65 bc
       0.0642898 -0.07878733 -0.052554693 -0.014014752
000180 a0 aa 01 bd 5b 96 78 be 38 39 b2 3d 5c f1 9f 3d
       -0.03165686 -0.24276106 0.0870232 0.078097075
000190 36 67 97 3b a8 23 2f bc 70 37 60 bd 96 fc 4f 3d
       0.004620458 -0.010689653 -0.05474037 0.050777994
0001a0 dd 5f ca 3d 7e 0c b9 bd 20 8f 28 3d 9f eb ff bd
       0.09881566 -0.09035586 0.04115212 -0.12496113
0001b0 b3 32 25 be db a3 1c be e7 7c b5 3b 10 6e 0f 3e
       -0.16132621 -0.15296881 0.005538571 0.1400683
0001c0 f8 bb 0c 3c c7 2d 1c 3e 99 e5 43 be 94 d4 9b bc
       0.008589737 0.15251838 -0.19130553 -0.019022264
0001d0 2d 9d 15 be 8d 8d b5 3d 4c b1 33 bc 79 c0 16 bd
       -0.14610739 0.08864889 -0.010967564 -0.03680465
0001e0 5d af f8 bd b0 3a 0c 3c bd b8 1a 3d f3 01 a8 3c
       -0.12142823 0.008558914 0.037773836 0.020508742
0001f0 8b fc 8a 3c 5f 83 a2 bd 41 db 96 3d c6 ac e5 3d
       0.016966125 -0.07935213 0.07366038 0.112145945
000200 09 dc 9c 3c b0 46 ae 3d e2 e9 23 bd c6 29 56 3b
       0.01914789 0.08509576 -0.04001797 0.0032678708
000210 26 f2 1d bd 0d 84 60 3e 2d 31 98 3c 5f 4c 33 be
       -0.03856101 0.21925373 0.018578136 -0.17509602
000220 0e 92 67 bd e9 e1 05 3e 50 29 43 3c fa 88 2e bc
       -0.056535773 0.13074459 0.011911705 -0.010652775
000230 9d 75 64 3e 96 29 69 3d 3c 27 ee bd d2 1b 85 bb
       0.22310491 0.056924425 -0.11628577 -0.0040621543
000240 75 51 54 be 7e a8 52 3d 6f cd 12 3c 98 1e d8 3d
       -0.20734198 0.051430218 0.008960112 0.1055271
000250 dc d9 d9 3b d1 c6 f9 bd 8a 0b d2 3d 17 62 31 3e
       0.0066482853 -0.12196124 0.10256107 0.17322575
000260 0d 1f 96 3c f7 0c 33 bd d0 d3 ca 3d 64 d2 42 3c
       0.018325353 -0.043713536 0.09903681 0.011890981
000270 3c 87 99 bd de 5b aa bd cd 11 e2 bd 1a 27 bc bd
       -0.07496497 -0.083183035 -0.110385515 -0.091871455
000280 ea 0a a8 bd 6b 99 9a 3e 4b 72 07 bd 5e 49 40 3d
       -0.08205207 0.30195174 -0.033067983 0.04694497
000290 f0 18 f1 3d dc c7 87 3d 83 a0 86 bd d4 39 2c bd
       0.117723346 0.06629917 -0.06573584 -0.042047337
0002a0 94 fb a3 bd 7f 62 24 be ec 45 b7 3d 74 3c bf bb
       -0.08006969 -0.16053198 0.089488834 -0.005836064
0002b0 9d c0 d5 bd c5 05 08 bd b9 cd fc 3d 90 e7 4a be
       -0.10437129 -0.033208627 0.12343926 -0.19814897
0002c0 9c 49 97 bc ef c4 dc bd 50 e3 ba 3d 1b 25 05 3d
       -0.018467717 -0.107797496 0.09125388 0.03250609
0002d0 42 cf 8d be bd 39 55 3e 49 b0 1b be 30 20 21 3e
       -0.27697188 0.20822807 -0.15203966 0.15734935
0002e0 0c b7 0d 3d 42 c6 17 be 65 a3 54 be b3 42 a6 bd
       0.034598395 -0.14821723 -0.20765455 -0.081181906
0002f0 8c f1 80 bd 89 b2 fe bd 04 8e 63 be 64 c5 65 be
       -0.062960714 -0.12436397 -0.22222143 -0.2243858
000300 9b 68 c3 3d ef f8 eb bd 77 ba bd bd 42 d4 e6 3c
       0.09541436 -0.1152209 -0.09264081 0.028177384
000310 c1 42 f6 3d 65 0f f3 bd 22 c3 09 3e 2e 71 99 bd
       0.12024451 -0.11868171 0.13453344 -0.074922904
000320 8f c7 b3 3d dc 67 57 3d 60 56 4f 3d 87 94 be 3b
       0.08778297 0.052589282 0.050619483 0.0058160457
000330 1f 73 70 3b 96 01 3e 3d 88 39 5e 3d ad 15 86 3d
       0.0036689711 0.04638823 0.054254085 0.06547103
000340 ac 8f f2 3d 64 09 33 bd 3c 7c 28 3e e6 c3 f3 bd
       0.118438095 -0.043710127 0.16453642 -0.11902599
000350 77 b8 69 bd 46 60 a2 3e 13 4d 73 bd cd 85 04 3d
       -0.057060685 0.31714076 -0.059399676 0.032354165
000360 97 10 c3 bd 94 2e f9 39 3c 3f 39 bc 10 5c d1 3c
       -0.09524649 0.00047527684 -0.01130658 0.025556594
000370 96 bd d0 ba e8 0f 2c 3d 88 9d 9e 3d 30 a3 a2 3d
       -0.0015925642 0.042007357 0.077448905 0.07941282
000380 83 99 6a bc ec 76 c2 bd 81 2e 86 be 97 e7 31 be
       -0.014318827 -0.09495339 -0.26207355 -0.17373501
000390 cd 1d 1f bd 6a 0b a0 3d a1 11 4f bd e6 c8 ec bd
       -0.03884678 0.07814677 -0.05055392 -0.11561756
0003a0 d2 09 05 bd b0 c1 4e bd 9d b2 c4 3c 6d 3a 8c 3e
       -0.03248007 -0.050477684 0.02401095 0.27388325
0003b0 32 a3 b3 bd 58 a9 6b 3c 4b 30 2a 3a 33 96 67 3d
       -0.087713614 0.014383636 0.00064921816 0.056539726
0003c0 58 7f 5a 3c 52 e6 86 be c0 db 13 be 91 d9 9e 3d
       0.013336025 -0.26347595 -0.14439297 0.07756341
0003d0 70 aa 84 3b 62 3e bf bc 43 b6 99 bd b3 f8 37 be
       0.004048638 -0.023345176 -0.07505467 -0.17965965
0003e0 88 f8 6c 3b 05 5b b5 bd 7a b8 d5 bc 24 4d a6 bd
       0.0036158878 -0.08855251 -0.026088942 -0.08120182
0003f0 eb 12 42 bd 4a 3f 2b 3c af a9 be be 11 ff 7e bd
       -0.047381323 0.010452101 -0.37238833 -0.06225497

weight f4 [192]
000000 69 c1 f5 3e a8 ee bd 3e 05 3a 46 3f b8 13 37 3f
       0.47999123 0.37096143 0.7743228 0.71514463
000010 86 8c e8 3e e7 ae ee 3e 41 31 04 3f fd 2b f4 3e
       0.4541971 0.46617815 0.51637655 0.4768981
000020 0a 7b e4 3e d5 91 16 3f 7d 2e 16 3f b2 86 22 3f
       0.4462512 0.5881627 0.58664685 0.6348678
000030 5c bc ec 3e 5e 8b 04 3f 41 32 ed 3e 1a dd 28 3f
       0.46237457 0.5177516 0.46327403 0.65962374
000040 37 0e ea 3e c0 c9 ae 3e d7 a4 d2 3e 32 2e c9 3e
       0.4571397 0.34138298 0.41141388 0.39293057
000050 e9 db c9 3e df 63 08 3f e1 e9 ba 3e ed 25 d6 3e
       0.3942559 0.5327739 0.3650656 0.4182581
000060 73 95 10 3f ee 68 48 3f ac 61 1f 3f fb 0e b4 3e
       0.5647804 0.7828511 0.6225841 0.3516768
000070 15 0e 3a 3f 0e 21 05 3f 4d a5 d5 3e d3 04 ef 3e
       0.7267774 0.5200356 0.41727677 0.46683368
000080 6e e7 d4 3e cc e8 08 3f eb a6 0f 3f 39 84 58 3f
       0.41582817 0.5348022 0.5611407 0.84576756
000090 48 60 02 3f c1 19 01 3f 48 a2 f1 3e 86 5d e5 3e
       0.50928164 0.5042992 0.47194123 0.44797915
0000a0 a1 35 ca 3e e1 2b 26 3f 67 e9 f6 3e 26 dd fc 3e
       0.3949404 0.64910704 0.48224947 0.49387473
0000b0 19 94 82 3f 87 3f 4c 3f ab 34 8e 3f 49 1f ba 3e
       1.0201446 0.79784435 1.1109823 0.36351994
0000c0 62 99 10 3f 78 e7 04 3f 3b 5f 1a 3f 29 09 b2 3e
       0.56484044 0.51915693 0.6030156 0.34772614
0000d0 d0 0c 02 3f 98 ee a2 3e 92 f7 f3 3e ea 07 12 3f
       0.508008 0.31822658 0.4764982 0.57043326
0000e0 b2 5a e4 3e 5d 47 14 3f ca b7 30 3f 52 80 fa 3e
       0.44600445 0.5792139 0.6903044 0.48926026
0000f0 8e 72 43 3f 2f e0 9b 3e 80 82 57 3f d0 d4 e1 3e
       0.7634667 0.30444476 0.841835 0.44107676
000100 16 aa 41 3f a5 f1 e0 3e 76 80 bc 3e 01 a5 01 3f
       0.75650156 0.4393436 0.36816758 0.506424
000110 d6 4a e2 3e 82 6c e1 3e 5c b1 0e 3f 45 d4 d7 3e
       0.4419772 0.44028097 0.5573938 0.42154136
000120 25 3d 0e 3f 3e 27 06 3f 07 8f 0b 3f 87 b2 17 3f
       0.5556205 0.5240363 0.5451512 0.59256786
000130 c4 e5 dd 3e c5 42 0d 3f 6a db 8c 3f e1 7c d4 3e
       0.4333936 0.5518001 1.100446 0.41501525
000140 24 df 0a 3f 7e 9c 2f 3f 88 3f b4 3f 44 1e eb 3e
       0.54246736 0.68598163 1.4081888 0.45921528
000150 e1 33 07 3f 19 6b 17 3f a5 4b cf 3e 1b 2e c4 3e
       0.52813536 0.59147793 0.404874 0.38316426
000160 dc ed c3 3e d6 af f3 3e 62 02 f2 3e 97 ea 9f 3e
       0.3826741 0.4759509 0.47267443 0.31233665
000170 11 82 10 3f 24 03 cc 3e 2e 98 c1 3e 27 4e ea 3e
       0.56448466 0.39846146 0.37811416 0.4576275
000180 e3 c3 f7 3e 47 3f d4 3e 12 36 ff 3e 57 ae cd 3e
       0.48391637 0.41454527 0.4984594 0.40172073
000190 4c 19 dd 3e 61 92 2d 3f bb 8d 16 3f cf 5d e7 3e
       0.43183362 0.6780148 0.58810014 0.45188758
0001a0 7c 61 f8 3e 93 32 1c 3f 31 12 0e 3f c1 9f 75 3f
       0.48511875 0.6101467 0.5549651 0.9594689
0001b0 13 41 2c 3f 01 c6 69 3f e6 34 09 3f e6 14 dd 3e
       0.67286795 0.91317755 0.5359634 0.43180007
0001c0 b7 de 1f 3f 60 fd da 3e 23 94 ff 3e 4e 62 c8 3e
       0.6244921 0.42771435 0.49917707 0.391375
0001d0 c1 6d 8b 3f 0e b4 ef 3e 97 51 4a 3f 13 2c be 3e
       1.0892869 0.46817058 0.79030746 0.37143
0001e0 cc 23 03 3f 9f 7b ce 3e 20 ea f5 3e 7e 06 1b 3f
       0.51226497 0.4032869 0.48030186 0.6055678
0001f0 1e 75 d9 3e a7 76 fa 3e 57 af ff 3e d1 46 e1 3e
       0.42472166 0.4891865 0.4993846 0.4399934
000200 04 f0 be 3e 0a 72 eb 3e 7a 3d 07 3f 9f d7 04 3f
       0.37292492 0.45985442 0.5282818 0.5189151
000210 93 1f 3d 3f 06 02 ed 3e a1 55 92 3f 0f c9 01 3f
       0.73876303 0.46290606 1.1432382 0.50697416
000220 0f 18 d1 3e 27 a6 f7 3e 70 4c 2c 3f 9d 20 0a 3f
       0.40838668 0.48368952 0.67304134 0.53956014
000230 69 a9 d4 3e 2c c5 eb 3e e4 d4 e7 3e 3b 62 16 3f
       0.415355 0.46048868 0.4527961 0.5874364
000240 0f 67 d3 3e db 68 18 3f 9e 27 d5 3e df 03 e6 3e
       0.41289565 0.59534997 0.41631788 0.44924828
000250 e2 9e d5 3e ea 7e 29 3f 0f a6 bc 3e 5a 63 e8 3e
       0.4172278 0.6620928 0.36845443 0.453883
000260 65 d6 ae 3e ea d4 05 3f a3 2c 14 3f e3 c6 e3 3e
       0.34147945 0.52278006 0.5788061 0.44487676
000270 15 e6 f2 3e 14 9b 01 3f 3f fc aa 3e a3 7d 1e 3f
       0.47441164 0.50627255 0.33395573 0.61910456
000280 41 64 08 3f b8 eb fe 3e 5c e0 15 3f a4 48 cb 3e
       0.53277975 0.49789214 0.5854547 0.39703858
000290 2b 26 14 3f 54 2a ef 3e 25 8e 38 3f 91 71 fe 3e
       0.5787074 0.4671198 0.72091895 0.4969602
0002a0 37 f0 54 3f 99 2b e0 3e 57 29 d2 3e d9 6d b6 3e
       0.8317904 0.43783262 0.41047165 0.35630682
0002b0 d0 f7 d3 3e 6e 7a 13 3f 50 1d 90 3f 3a 72 f3 3e
       0.41400003 0.5760869 1.1258945 0.47548085
0002c0 1f a8 ee 3e 7b cf e9 3e 9a 48 04 3f 50 ea e6 3e
       0.4661264 0.45666108 0.5167328 0.4510064
0002d0 c5 3b 28 3f 20 30 16 3f 62 91 31 3f 47 0b ca 3e
       0.657162 0.5866718 0.6936246 0.3946173
0002e0 18 8f e3 3e 09 04 27 3f a5 0c da 3e a5 fd 10 3f
       0.4444511 0.6524053 0.42587772 0.5663703
0002f0 8f ea 21 3f 79 10 db 3e 64 bd 34 3f 1b 5a ee 3e
       0.63248533 0.42786005 0.7060149 0.4655312
