models/nn_to_lev_cat01_epoch16.pt (torch, 339423 bytes, 43 tensors)

weight f4 [224, 16]
0.3371591 0.14478727 -0.4023772 0.32649028 -0.2259405 -0.13557364 -0.48976806 0.17097768
0.4800069 -0.15922146 0.27600732 -0.0900511 -0.0038287106 0.02198217 0.12220238 0.046021122
0.22244306 -0.011934965 -0.2246912 0.1831126 -0.30084264 0.105196096 -0.40197226 0.95571476
-0.4945973 -0.023784352 0.099413216 -0.05672868 0.06935461 -0.2950632 0.2374997 -0.063379444
0.244136 -0.036294226 -0.28165296 0.1309377 0.054325934 0.04211835 0.24515527 -0.0060158907
0.05333697 -0.22307897 0.21449782 0.07451099 0.15670376 -0.04285422 0.14471944 0.06484397
0.53359795 -0.09282684 -0.4646396 -0.21929117 -0.4102738 0.5465398 -0.16218762 0.20733786
-0.018143812 -0.06413651 0.2964821 -0.13139501 0.10058661 -0.15326361 0.09502621 0.064460486
0.15157107 -0.039319403 0.18370193 0.1794747 -0.08210992 -0.16918536 -0.062376603 -0.16656566
0.3662923 -0.019097311 -0.11884372 -0.31744856 -0.14441498 -0.05277604 0.14195992 0.8260357
-0.023606228 -0.3899589 0.40584707 -0.23623492 0.4202442 -0.16652511 0.59546703 -0.5905587
-0.0047610695 0.051013906 -0.015396547 -0.030591236 -0.03723814 0.2318826 -0.22219363 0.009104571
0.32982743 -0.043888904 -0.18079749 -0.42281467 -0.19602917 0.16010614 -0.07774324 -0.03310834
0.14427121 -0.21916401 -0.04236638 0.016089763 -0.49537724 -0.1680758 0.2996058 0.0006907585
0.02956186 -0.27012092 -0.3410901 0.24622695 0.12077804 -0.3621453 -0.33009917 -0.25046632
-0.14335759 -0.08836004 0.061480068 -0.23699895 -0.13341735 0.010306166 0.10218911 -0.2613687
-0.031198613 -0.20628564 0.27692685 -0.06946279 -0.25180092 0.32396597 0.24249494 0.04012026
-0.3637774 -0.10591637 0.17780878 -0.02032264 0.09807191 -0.31042638 0.12168037 -0.102630846
-0.30319262 0.18153165 0.097439036 0.29698366 0.33159578 -0.65530205 0.1311559 -0.31074473
0.13021015 -0.1751848 0.2376776 -0.15246509 -0.017836405 0.10460511 -0.049014386 -0.017317677
0.28171745 -0.12539408 -0.15172958 -0.45485857 0.4099898 0.030968176 -0.6731284 0.57216436
0.1378269 -0.051934674 -0.06162543 0.0869237 0.12799588 -0.10344085 -0.07447396 -0.023085693
-0.4968581 0.1294551 0.35579687 -0.59978914 0.30202585 0.31503093 0.17365266 -0.32329687
0.17345044 0.020921681 0.015226835 0.007209216 -0.03294268 0.03930797 -0.05524888 -0.0073452527
-8.563123e-06 -9.323104e-06 -3.170528e-05 -4.1629948e-05 -5.2800606e-05 -7.127329e-05 -3.73149e-06 -5.4274506e-06
-2.0660776e-05 -0.000117934505 7.7588e-06 7.172895e-05 5.626228e-05 -3.142614e-05 -0.00016330052 -1.8807787e-05
-0.3066012 0.1138431 0.20973545 0.35283348 -0.37708434 0.025463194 -0.60124284 0.75007796
-0.057490624 -0.0620196 0.1361064 -0.07662477 -0.16880165 0.31260103 -0.18450733 0.0099847745
-0.34925818 0.31864586 0.18974514 0.37381336 -0.27889097 -0.45245233 -0.27367327 0.22790758
0.15818973 0.12716928 0.025769455 -0.08465241 0.17460774 -0.14258951 -0.21379386 -0.1691854
0.17392743 -0.09914634 -0.23168637 0.016516304 -0.09322093 -0.30738243 -0.084296785 0.039101716
-0.00825023 0.17857133 -0.12086459 -0.3567404 0.13715957 -0.025908412 -0.27262193 -0.41062886
00000000: 1ea0 ac3e 1d43 143e 6204 cebe bc29 a73e
00000010: f25c 67be d1d3 0abe e1c2 fabe c614 2f3e
00000020: 77c3 f53e f30a 23be d550 8d3e b66c b8bd
00000030: 1beb 7abb f413 b43c 3e45 fa3d a580 3c3d
00000040: 1dc8 633e df8a 43bc 7315 66be df81 3b3e
00000050: 0c08 9abe 0d71 d73d 4fcf cdbe b9a9 743f
00000060: db3b fdbe 67d7 c2bc 2899 cb3d 555c 68bd
00000070: ca09 8e3d 8612 97be 1f33 733e 15cd 81bd
00000080: cafe 793e 41a9 14bd d134 90be 8814 063e
00000090: df84 5e3d 4a84 2c3d fc09 7b3e f320 c5bb
000000a0: de77 5a3d d06e 64be 51a5 5b3e 3899 983d
000000b0: f376 203e e887 2fbd 5531 143e eacc 843d
000000c0: e099 083f 001c bebd 3ee5 edbe dd8d 60be
000000d0: 680f d2be 08ea 0b3f 8314 26be 6050 543e
000000e0: 55a2 94bc 015a 83bd 80cc 973e 6a8c 06be
000000f0: 5a00 ce3d 23f1 1cbe 1a9d c23d dc03 843d
00000100: 7235 1b3e 620d 21bd 5c1c 3c3e 37c8 373e
00000110: 3f29 a8bd ed3e 2dbe 9c7e 7fbd 3090 2abe
00000120: aa8a bb3e f771 9cbc 5664 f3bd 9e88 a2be
00000130: 85e1 13be b02b 58bd f15d 113e 1377 533f
00000140: d961 c1bc b1a8 c7be 30cb cf3e 91e7 71be
00000150: 3f2a d73e 8f85 2abe 8770 183f db2e 17bf
00000160: bf02 9cbb f5f3 503d cc41 7cbc 799a fabc
00000170: 0587 18bd a272 6d3e ba86 63be 572b 153c
00000180: 24df a83e dac4 33bd fa22 39be 2a7b d8be
00000190: dfbb 48be ddf2 233e d937 9fbd 9c9c 07bd
000001a0: d5bb 133e 886c 60be 5f88 2dbd aece 833c
000001b0: 16a2 fdbe 101c 2cbe ee65 993e 0514 353a
000001c0: b72b f23c 4a4d 8abe 5da3 aebe eb22 7c3e
000001d0: 7a5a f73d 1c6b b9be c202 a9be 1f3d 80be
000001e0: 55cc 12be 1cf6 b4bd 86d2 7b3d daaf 72be
000001f0: 8f9e 08be 31db 283c 8648 d13d 1ed2 85be
00000200: 3c94 ffbc 8b3c 53be 5bc9 8d3e 8242 8ebd
00000210: 0dec 80be dede a53e 9850 783e 2455 243d
00000220: 0841 babe afea d8bd 8113 363e aa7b a6bc
00000230: edd9 c83d 35f0 9ebe 8f33 f93d 1f30 d2bd
00000240: 103c 9bbe 6fe3 393e 1e8e c73d 3e0e 983e
00000250: ecc6 a93e e0c1 27bf bb4d 063e ef19 9fbe
00000260: cf55 053e a563 33be c261 733e cf1f 1cbe
00000270: a71d 92bc 343b d63d 4fc3 48bd cddd 8dbc
00000280: 453d 903e 4e67 00be 005f 1bbe 39e3 e8be
00000290: 2fea d13e f9b0 fd3c 2552 2cbf 5d79 123f
000002a0: 7f22 0d3e 74b9 54bd f26a 7cbd 0e05 b23d
000002b0: 5a11 033e ccd8 d3bd ce85 98bd 351e bdbc
000002c0: 2f64 febe e18f 043e 022b b63e c88b 19bf
000002d0: 22a3 9a3e bc4b a13e 01d2 313e 2b87 a5be
000002e0: fe9c 313e f263 ab3c fa79 793c 493b ec3b
000002f0: e7ee 06bd 6501 213d a64c 62bd 72b0 f0bb
00000300: 55aa 0fb7 6d6a 1cb7 49fb 04b8 d19b 2eb8
00000310: 3876 5db8 8e78 95b8 836a 7ab6 721d b6b6
00000320: ae50 adb7 9b53 f7b8 cb2b 0237 306d 9638
00000330: 2afb 6b38 90cf 03b8 a63b 2bb9 6ac5 9db7
00000340: d5fa 9cbe 9226 e93d e4c4 563e 97a6 b43e
00000350: 3311 c1be 3098 d03c 0deb 19bf 1c05 403f
00000360: 4a7b 6bbd 4408 7ebd 7a5f 0b3e 73ed 9cbd
00000370: 57da 2cbe 3e0d a03e 7def 3cbe 2e97 233c
00000380: f8d1 b2be 8d25 a33e 8d4c 423e 7764 bf3e
00000390: ccca 8ebe d5a7 e7be e71e 8cbe 9b60 693e
000003a0: 7dfc 213e aa38 023e 771a d33c 3e5e adbd
000003b0: 5fcc 323e fc02 12be c7ec 5abe f03e 2dbe
000003c0: 081a 323e 3c0d cbbd 313f 6dbe 334d 873c
000003d0: 9dea bebd 3b61 9dbe cba3 acbd 1f29 203d
000003e0: f92b 07bc 67db 363e db87 f7bd ada6 b6be
000003f0: 8f73 0c3e e13d d4bc 1a95 8bbe f23d d2be

bias f4 [224]
-0.65069425 0.014574805 -0.8522803 -0.027873546 0.0035159383 0.023388222 -0.21503158 -0.636636
-0.9777853 -0.2879367 -0.38561186 0.20459643 -2.0909808e-07 0.15487039 -0.0010774928 -0.7813555
-0.3974788 -0.57071245 0.16625218 -0.6880851 -0.9898267 1.5834897e-06 -0.2864673 -0.23850572
0.17510231 -0.023884038 -0.3652532 -0.15022157 -0.5392194 -0.49291447 -1.1574704e-06 -0.7087591
-0.32907143 -0.28794923 -0.75762856 -0.19100825 -0.36565837 -0.40128255 -0.52218264 -3.3930596e-06
0.5022771 -0.059703153 0.4814234 -0.36616385 -0.20736913 0.4161535 0.8081844 -0.5055662
-0.022230063 -0.8618381 -7.048173e-06 -1.3076115e-06 0.4533136 0.6035712 0.25137115 -0.24306911
-0.9020645 -0.62724626 -0.79137236 0.14082126 -0.62636495 0.3063906 -0.35677397 0.09638978
-0.8131101 -0.28702375 -0.29852784 0.04010093 -0.002311049 -0.49082145 0.41434172 -0.26894215
-0.30958635 -1.4301586 0.2838418 -0.3399116 0.026538726 -0.2090455 -0.41664872 -0.1984582
-0.56770575 -0.30268225 -0.08983829 0.049631704 -0.1851609 0.00976535 -0.34483424 -0.40653762
1.18347415e-07 -0.5150996 -0.6037332 -0.37338045 -0.48506916 -0.44301388 0.02882985 -4.1739756e-07
-1.3009134e-06 -0.5599244 -4.2197303e-06 0.22021961 -1.9596662e-06 -0.73259324 -1.9406214e-06 0.8404916
-0.17356287 -0.37572354 -0.27731675 -0.0063575367 -0.68998426 -1.1454028 -0.83386654 -3.405125e-07
-0.3139235 0.34297857 -0.40726495 -0.48114857 -0.6567924 0.02763041 -9.488778e-07 -0.3741928
-0.22701152 -0.20034419 -0.111559324 -0.2614071 -0.9261369 -0.9634253 -0.4790743 -0.28749856
0.010725724 0.18156308 0.2684206 -5.23194e-07 -0.40765056 -0.18280771 -0.6976987 0.072874054
-0.22543523 -0.5434183 -7.8574027e-07 -0.21479389 0.3178192 0.080889024 -1.034147e-06 -0.19835669
-0.9122166 -0.8789191 -3.6083434e-06 -0.47244442 -1.3068556e-07 0.11666404 -0.7106514 -0.4081604
0.11000923 -0.43532363 0.21947214 -0.83897465 -0.8909053 -0.7432515 -0.40034068 -0.46344778
-0.5587207 -0.45620754 -0.9504822 -0.1407356 -0.3473525 0.17660451 0.0058577177 -0.5456309
-0.5533398 0.05214765 -0.9229168 -0.15564331 -3.1414936e-07 -0.8441525 0.06375925 -1.3374291e-06
0.14127815 -0.5389909 -0.12934521 -0.75729775 -0.66116685 0.08755984 -1.3639172e-06 -0.62274367
0.08807626 -1.1762147 -0.34149608 0.36259496 -0.4508548 -0.6610152 -0.4727925 -0.5469106
0.0065431176 0.2612551 -0.2447777 -3.528541e-06 -0.52411765 0.26207852 -0.06439797 -0.45369077
-0.06431902 -0.4125214 -0.98909163 -0.811479 -0.18904631 -0.8703861 -0.18707253 -0.2574625
-0.1010689 -0.6349606 0.5777112 -0.58853626 -0.15100193 -0.32023963 0.25182262 0.25241226
0.034439072 -0.35529587 -1.1768242e-06 -1.1374968 -0.28753784 -0.38768238 -0.09612225 -0.3302709
00000000: e693 26bf 2acb 6e3c 0b2f 5abf 1057 e4bc
00000010: a86b 663b a898 bf3c 3d31 5cbe 94fa 22bf
00000020: 2350 7abf 706c 93be eb6e c5be ba81 513e
00000030: 7184 60b4 5896 1e3e a93a 8dba ea06 48bf
00000040: 5782 cbbe 361a 12bf 033e 2a3e 5826 30bf
00000050: 4865 7dbf 4b88 d435 d8ab 92be d83a 74be
00000060: 054e 333e 75a8 c3bc 7802 bbbe afd3 19be
00000070: 480a 0abf 495f fcbe 615a 9bb5 3d71 35bf
00000080: 0d7c a8be 156e 93be f2f3 41bf ab97 43be
00000090: 9337 bbbe e874 cdbe c3ad 05bf 52b4 63b6
000000a0: 3b95 003f 4b8b 74bd 217d f63e d479 bbbe
000000b0: 9358 54be 1212 d53e 2ce5 4e3f c96c 01bf
000000c0: d21b b6bc 6ca1 5cbf 587f ecb6 3081 afb5
000000d0: b818 e83e a483 1a3f b8b3 803e 1ce7 78be
000000e0: b3ed 66bf 3693 20bf 6197 4abf 7333 103e
000000f0: 7459 20bf 3bdf 9c3e 14ab b6be 0168 c53d
00000100: fc27 50bf c7f4 92be a4d8 98be df40 243d
00000110: f874 17bb f34c fbbe 9924 d43e c9b2 89be
00000120: 1a82 9ebe 700f b7bf b653 913e e508 aebe
00000130: be67 d93c 0610 56be fb52 d5be a038 4bbe
00000140: 2a55 11bf 2bf9 9abe 23fd b7bd 9d4a 4b3d
00000150: d29a 3dbe d9fe 1f3c 1d8e b0be b325 d0be
00000160: 2e26 fe33 91dd 03bf 428e 1abf b92b bfbe
00000170: fc5a f8be b7d2 e2be 942c ec3c af16 e0b4
00000180: 0b9b aeb5 3557 0fbf 3597 8db6 4081 613e
00000190: cf82 03b6 3b8b 3bbf 9f3b 02b6 752a 573f
000001a0: 77ba 31be d65e c0be 76fc 8dbe e252 d0bb
000001b0: cfa2 30bf 8f9c 92bf 4778 55bf afcf b6b4
000001c0: 95ba a0be e39a af3e 0885 d0be 1b59 f6be
000001d0: 8c23 28bf 2b59 e23c 63b6 7eb5 3396 bfbe
000001e0: b575 68be 0727 4dbe 3779 e4bd 27d7 85be
000001f0: 4f17 6dbf 0aa3 76bf 3a49 f5be 0333 93be
00000200: f2ba 2f3c aceb 393e 6d6e 893e 9e71 0cb5
00000210: 93b7 d0be f231 3bbe 629c 32bf fe3e 953d
00000220: 7ed8 66be 761d 0bbf a9eb 52b5 eef2 5bbe
00000230: 33b9 a23e 25a9 a53d 05cd 8ab5 041e 4bbe
00000240: 0787 69bf d800 61bf de26 72b6 3ce4 f1be
00000250: 9352 0cb4 8eed ee3d 40ed 35bf 66fa d0be
00000260: 854c e13d bde2 debe 4ebd 603e 0bc7 56bf
00000270: 5f12 64bf bb45 3ebf 74f9 ccbe 0749 edbe
00000280: 5208 0fbf 0994 e9be cd52 73bf fe1c 10be
00000290: 30d8 b1be d0d7 343e 19f2 bf3b 77ae 0bbf
000002a0: ada7 0dbf c698 553d 4744 6cbf f660 1fbe
000002b0: 5ca8 a8b4 611a 58bf 3694 823d b781 b3b5
000002c0: 38ab 103e 4ffb 09bf 1273 04be 44de 41bf
000002d0: 3b42 29bf 9352 b33d d70f b7b5 216c 1fbf
000002e0: 5461 b43d 348e 96bf 93d8 aebe 0ca6 b93e
000002f0: 71d6 e6be 4b38 29bf dc11 f2be 5502 0cbf
00000300: a667 d63b 3ac3 853e 01a7 7abe dfcb 6cb6
00000310: 932c 06bf 282f 863e 15e3 83bd 284a e8be
00000320: b1b9 83bd 0136 d3be 1c35 7dbf 16bd 4fbf
00000330: 5b95 41be a0d1 5ebf f18f 3fbe 20d2 83be
00000340: 36fd cebd c78c 22bf e2e4 133f 50aa 16bf
00000350: 40a0 1abe 73f6 a3be e5ee 803e 2e3c 813e
00000360: fc0f 0d3d 57e9 b5be 5ff3 9db5 7f99 91bf
00000370: 2938 93be 4e7e c6be bedb c4bd 4419 a9be

weight f4 [224]
0.658413 0.8080532 0.2796357 0.8055646 0.76018727 0.90650594 0.4776179 0.5398507
0.3812816 0.4890374 0.7781148 0.80333185 9.132324e-06 1.0058019 0.50287455 0.44476753
0.44248566 0.40680373 0.7129732 0.36773327 0.287616 0.0002361179 0.6922758 0.6240538
1.2471063 0.65238214 0.58498853 0.38077587 0.47611606 0.7077529 4.4439217e-05 0.45414618
0.6261843 0.32450286 0.3621079 0.67312413 0.6825574 0.46559504 0.4301676 0.000121976016
0.870211 1.1026951 1.4706776 0.40514535 0.49832812 1.2154553 1.4019771 0.36686155
0.824945 0.42262882 -0.00013100554 4.3228945e-05 0.61148494 0.5580467 0.6950899 0.41472644
0.4063559 0.4511149 0.49526644 1.0084009 0.4192308 1.1100523 0.9941799 0.20932187
0.32618153 0.41608462 0.6829536 0.93729305 0.659925 0.5084479 1.1465545 0.58471775
0.33122113 0.5335862 0.60455817 0.6137344 0.6772776 0.61980325 0.6025742 0.5788485
0.42006147 0.4335784 0.35912877 0.9238122 0.4976772 0.50641876 0.4102985 0.4049954
0.00012244526 0.5387107 0.45624942 0.5165601 0.509502 0.5843113 0.77218384 1.6945798e-05
9.6534604e-05 0.33253428 -0.00017232208 0.41297406 8.728566e-06 0.6680238 0.00014190962 1.6968132
0.38749763 0.5368342 0.48757166 0.701047 0.3266396 0.57146066 0.5354745 -2.068262e-06
0.4969267 1.055377 0.6548424 0.5904667 0.48269248 0.6305921 0.000113790586 0.6714612
0.577038 0.5797073 0.44163674 0.5591325 0.5335843 0.43481818 0.49252898 0.5923102
0.7317134 0.5559404 1.3459499 -0.000103375736 0.41094884 0.60793406 0.39313057 0.6977654
0.37622872 0.6995455 -5.8276e-05 0.63512474 0.4362756 0.7899574 -3.37377e-05 0.2120114
0.43960193 0.3916323 8.541695e-05 0.6499692 -0.00020628009 0.7217296 0.59733444 0.3175374
1.0849233 0.5079791 0.74969363 0.578579 0.42690465 0.44751304 0.5533844 0.65420073
0.51714414 0.61495185 0.33368385 0.70446366 0.57226 1.203707 0.7891695 0.41279566
0.4753362 0.50941736 0.31866437 0.6672249 -2.6961757e-06 0.34602877 0.61433077 9.6189e-05
0.8285848 1.0187092 0.790524 0.5254416 0.49632597 0.68057865 -4.0601928e-05 0.94523287
0.40435672 0.3404038 0.40536505 0.95624405 0.24795718 0.45726368 0.69224066 0.28856084
0.5431377 1.059766 0.4388504 0.00012644852 0.46782967 1.0325954 0.40603036 0.20951693
0.6216248 0.5130325 0.58848935 0.35158682 0.5624026 0.9089283 0.5459858 0.51280034
1.4822016 0.37861386 1.9236338 0.5452111 0.8265481 0.66568637 1.4456899 0.4504323
0.7524544 0.95827836 -3.238943e-05 0.2895894 0.7814378 0.7141732 0.38168946 0.4167271
00000000: c18d 283f 93dc 4e3f 692c 8f3e 7b39 4e3f
00000010: a29b 423f c610 683f 558a f43e a833 0a3f
00000020: 5837 c33e 1c63 fa3e 8832 473f 28a7 4d3f
00000030: 0837 1937 1ebe 803f 63bc 003f 92b8 e33e
00000040: 7b8d e23e 9448 d03e 6985 363f 8947 bc3e
00000050: 6842 933e 6b96 7739 fd38 313f fdc1 1f3f
00000060: 2ea1 9f3f 8402 273f cfc1 153f 0ef5 c23e
00000070: 7cc5 f33e 4b2f 353f 3f64 3a38 d985 e83e
00000080: 9d4d 203f 3d25 a63e 3566 b93e dd51 2c3f
00000090: 15bc 2e3f 7962 ee3e ed3e dc3e 60cd ff38
000000a0: 26c6 5e3f 1d25 8d3f 2a3f bc3f 366f cf3e
000000b0: dd24 ff3e 0a94 9b3f fc73 b33f 47d5 bb3e
000000c0: 982f 533f ce62 d83e 885e 09b9 ba50 3538
000000d0: 478a 1c3f 26dc 0e3f 69f1 313f 0657 d43e
000000e0: e10d d03e 88f8 e63e 9093 fd3e 4813 813f
000000f0: 6ba5 d63e 3216 8e3f 9382 7e3f 7958 563e
00000100: 4401 a73e 0b09 d53e 0cd6 2e3f 70f2 6f3f
00000110: d8f0 283f a429 023f 4cc2 923f 10b0 153f
00000120: d195 a93e 1b99 083f 53c4 1a3f b31d 1d3f
00000130: 1162 2d3f 6dab 1e3f 4e42 1a3f 6a2f 143f
00000140: 4c12 d73e fdfd dd3e badf b73e f57e 6c3f
00000150: 8ccf fe3e a9a4 013f a512 d23e 8f5b cf3e
00000160: a664 0039 f2e8 093f 8699 e93e 483d 043f
00000170: b96e 023f 6d95 153f d7ad 453f d326 8e37
00000180: 9f72 ca38 ef41 aa3e 5bb1 34b9 5671 d33e
00000190: e870 1237 9c03 2b3f 93cd 1439 2d31 d93f
000001a0: 1766 c63e f76d 093f fea2 f93e d177 333f
000001b0: 4e3d a73e 3f4b 123f db14 093f 78cc 0ab6
000001c0: 2d6d fe3e 9816 873f c0a3 273f d328 173f
000001d0: 7823 f73e 7c6e 213f dba2 ee38 e2e4 2b3f
000001e0: c3b8 133f b367 143f 361e e23e 4f23 0f3f
000001f0: fb98 083f 7da0 de3e c22c fc3e a4a1 173f
00000200: 9251 3b3f 1c52 0e3f 1648 ac3f 6dcb d8b8
00000210: e367 d23e 91a1 1b3f 6948 c93e c1a0 323f
00000220: 0da1 c03e 6a15 333f 616d 74b8 8997 223f
00000230: 845f df3e a63a 4a3f 9481 0db8 8419 593e
00000240: 8113 e13e 0784 c83e e021 b338 6264 263f
00000250: e44c 58b9 45c3 383f e9ea 183f 4394 a23e
00000260: c4de 8a3f eb0a 023f eceb 3f3f c11d 143f
00000270: 3f93 da3e 6e20 e53e 9aaa 0d3f b379 273f
00000280: 8f63 043f 7c6d 1d3f 9cd8 aa3e bb57 343f
00000290: a27f 123f 1213 9a3f 0307 4a3f f459 d33e
000002a0: 445f f33e 2d69 023f fa27 a33e 40cf 2a3f
000002b0: f2ef 34b6 af2a b13e c844 1d3f 13b9 c938
000002c0: 221e 543f 1065 823f c85f 4a3f 5783 063f
000002d0: 701e fe3e 673a 2e3f fd4b 2ab8 c8fa 713f
000002e0: d807 cf3e 6849 ae3e 028c cf3e 69cc 743f
000002f0: 7de8 7d3e 771e ea3e af36 313f 3fbe 933e
00000300: 130b 0b3f 6aa6 873f 00b1 e03e 4497 0439
00000310: 5f87 ef3e 162c 843f 36e3 cf3e 9b8b 563e
00000320: ce22 1f3f 1956 033f 3da7 163f 3003 b43e
00000330: 9ef9 0f3f 86af 683f bac5 0b3f e246 033f
00000340: c8b8 bd3f add9 c13e a239 f63f f492 0b3f
00000350: a898 533f 6c6a 2a3f 5e0c b93f 109f e63e
00000360: daa0 403f bb51 753f e3d9 07b8 1045 943e
00000370: 4f0c 483f 0ed4 363f cd6c c33e 415d d53e

bias f4 [224]
0.13264704 0.05047254 0.0053383242 0.038835123 0.27398357 0.044766657 0.3416327 -0.119954735
0.18325613 0.13410918 0.047797978 -0.04856619 -3.984519e-05 -0.16858187 0.05071629 -0.045397706
-0.15517859 -0.23746945 0.14353943 0.14623404 -0.13283156 -0.00010563953 -0.0020181888 0.076121196
-0.27244768 0.1651747 0.25322497 0.0977554 -0.22249623 -0.30539176 -0.00025063 0.018084075
0.1137468 0.06604121 0.061364055 0.26209128 -0.05107738 0.3534573 0.12574697 -1.8562545e-05
0.02714937 -0.02703847 -0.19682539 -0.32718605 0.09596271 0.40614602 0.007078134 -0.08535585
-0.028816832 -0.21777926 0.00030371346 -0.00020003508 -0.034011856 0.027396353 0.20346478 0.0926708
0.054709908 0.20634133 0.054429494 0.26599714 0.11420823 -0.033009198 0.1751111 -0.15102431
0.0630586 0.067650385 0.16246518 -0.12061562 0.18593769 0.16068235 -0.16660109 0.22912496
-0.27216467 0.26929444 0.039134674 0.15925013 -0.0074992175 0.07331892 0.3431958 0.19215466
0.16327636 0.13512033 0.039115764 -0.04892118 0.029857516 -0.3054839 -0.29499772 0.23901407
0.0001157121 0.11613289 0.03306584 0.31659338 0.08973978 0.4398119 0.091252655 -0.00024248956
-1.7462553e-05 -0.06841092 8.0395104e-05 0.30241418 -3.221648e-06 0.41116732 -0.00030170224 0.042788103
0.12903222 0.2722661 -0.06636019 0.09415321 0.028486645 -0.017833639 0.14435266 7.857805e-05
-0.10336426 -0.19591106 0.4838913 -0.059543576 0.11682171 0.06942095 -0.00019560648 0.25219384
-0.04913925 0.1827898 0.0017856524 0.09139846 -0.01696334 -0.23544636 0.11964272 -0.04078752
-0.009656018 0.012641815 0.085350975 2.0822006e-05 0.013469858 0.025806045 0.11408582 0.050680168
-0.100488394 0.21378766 -3.8395763e-05 -0.08419362 0.07936453 0.36314106 -5.327231e-06 0.026575284
-0.06257411 0.104055256 0.00013342158 0.09208299 -9.890435e-05 0.14873004 0.283054 -0.06412184
0.12535003 -0.06100133 0.13675654 0.10958939 0.13904946 -0.038909946 0.051852714 0.45018288
0.24362522 0.20273486 0.21388575 -0.037129577 -0.058499448 0.14246766 0.14440745 -0.032515742
0.33283815 -0.19099224 -0.11905291 0.099366516 -0.00014280913 0.09152841 0.2793288 8.171121e-05
-0.073474154 -0.106763825 0.14516275 0.056184996 0.23254468 -0.08594552 -1.6482638e-05 0.07265329
-0.17759053 -0.012708721 -0.38876188 0.067241475 -0.093332626 0.1264882 0.37430447 0.07002964
0.4062253 0.18483162 -0.20722821 -0.000115512266 0.18701342 -0.021445412 -0.051936604 -0.13362578
0.064335115 0.1651107 0.008569769 -0.077509955 -0.024788572 0.20768014 0.14497916 -0.05942535
0.051322702 0.16980809 0.025112929 0.058699254 0.20732729 -0.050079614 0.018368648 0.18598129
0.08222972 0.29945266 -0.00024185808 -0.2084754 0.61293423 0.26676175 0.35963362 0.17999883
00000000: a0d4 073e 4bbc 4e3d 1ced ae3b 9411 1f3d
00000010: 9347 8c3e 3e5d 373d 7bea ae3e d4aa f5bd
00000020: 7fa7 3b3e eb53 093e d0c7 433d 57ed 46bd
00000030: 721f 27b8 baa0 2cbe e2bb 4f3d f2f2 39bd
00000040: 23e7 1ebe 312b 73be 00fc 123e 60be 153e
00000050: ff04 08be ca8a ddb8 9743 04bb 6ee5 9b3d
00000060: 437e 8bbe 8e23 293e b4a6 813e fc33 c83d
00000070: 0dd6 63be 4f5c 9cbe fd66 83b9 0e25 943c
00000080: 15f4 e83d 9d40 873d e058 7b3d d430 863e
00000090: 8436 51bd 5bf8 b43e d0c3 003e c3b6 9bb7
000000a0: 5b68 de3c c87f ddbc 988c 49be ee84 a7be
000000b0: 1988 c43d 5ff2 cf3e b1ef e73b 0ccf aebd
000000c0: 4711 ecbc 8701 5fbe bb3b 9f39 82c0 51b9
000000d0: 0450 0bbd 516e e03c 1259 503e 30ca bd3d
000000e0: 7f17 603d 244b 533e 76f1 5e3d c730 883e
000000f0: 01e6 e93d a734 07bd 5350 333e 1ea6 1abe
00000100: de24 813d 498c 8a3d 465d 263e 5205 f7bd
00000110: 7366 3e3e ea89 243e 7a99 2abe bc9f 6a3e
00000120: 2b59 8bbe f6e0 893e ae4b 203d 7712 233e
00000130: ffbb f5bb 3b28 963d 5cb7 af3e 31c4 443e
00000140: eb31 273e fc5c 0a3e da37 203d 9361 48bd
00000150: c097 f43c 6368 9cbe f109 97be 1bc0 743e
00000160: 76aa f238 15d7 ed3d 0c70 073d 8718 a23e
00000170: 7dc9 b73d 062f e13e ace2 ba3d cc44 7eb9
00000180: 8c7c 92b7 061b 8cbd cb99 a838 08d6 9a3e
00000190: 7e33 58b6 8684 d23e ca2d 9eb9 9442 2f3d
000001a0: 0621 043e 7666 8b3e dae7 87bd 66d3 c03d
000001b0: d35c e93c da17 92bc 2fd1 133e 45ca a438
000001c0: a4b0 d3bd e99c 48be 9ac0 f73e f7e3 73bd
000001d0: 3840 ef3d 922c 8e3d b71b 4db9 8d1f 813e
000001e0: 3d46 49bd 402d 3b3e 8d0c ea3a 1e2f bb3d
000001f0: b4f6 8abc da18 71be 3e07 f53d d110 27bd
00000200: 4634 1ebc 9d1f 4f3c 7ecc ae3d ebaa ae37
00000210: aeb0 5c3c 3367 d33c d4a5 e93d 0296 4f3d
00000220: dccc cdbd 27eb 5a3e 230b 21b8 b46d acbd
00000230: df89 a23d a0ed b93e 91c0 b2b6 69b4 d93c
00000240: db26 80bd ec1a d53d 15e7 0b39 0296 bc3d
00000250: de6a cfb8 b04c 183e 74ec 903e 5052 83bd
00000260: c25b 003e 88dc 79bd e809 0c3e 6770 e03d
00000270: fb62 0e3e 0960 1fbd 8363 543d 5f7e e63e
00000280: e478 793e ba99 4f3e de04 5b3e 2f15 18bd
00000290: 1e9d 6fbd 0be3 113e 8cdf 133e 3a2f 05bd
000002a0: c369 aa3e 7893 43be 03d2 f3bd ac80 cb3d
000002b0: 09bf 15b9 3f73 bb3d 2f04 8f3e 5f5c ab38
000002c0: 9e79 96bd fea6 dabd 8ba5 143e 3d22 663d
000002d0: 3120 6e3e 3404 b0bd 3244 8ab7 40cb 943d
000002e0: 4bda 35be 3d38 50bc cc0b c7be e6b5 893d
000002f0: 2d25 bfbd 1f86 013e d6a4 bf3e b36b 8f3d
00000300: c3fc cf3e 8044 3d3e a233 54be 2d3f f2b8
00000310: 7280 3f3e 4aae afbc 7abb 54bd 32d5 08be
00000320: 21c2 833d c812 293e 3768 0c3c 8abd 9ebd
00000330: 6711 cbbc 1aaa 543e 6b75 143e ff67 73bd
00000340: c137 523d 2ce2 2d3e a1b9 cd3c a16e 703d
00000350: 9b4d 543e 4820 4dbd d979 963c e171 3e3e
00000360: 0e68 a83d dc51 993e 499b 7db9 937a 55be
00000370: 42e9 1c3f ff94 883e e621 b83e 9d51 383e

running_mean f4 [224]
-0.13702609 0.033920784 -0.12265316 0.018494373 0.24743691 0.03256634 0.07142332 0.034795165
-0.14317822 -0.08946423 -0.1068208 0.13609138 -4.940176e-07 0.12014271 0.106994696 -0.051795013
-0.053561874 0.076659665 0.40452194 -0.033512946 -0.0772046 1.3724039e-06 -0.09306219 -0.020591073
0.113592334 0.28012314 -0.06586234 0.03925219 -0.0729142 0.29326755 2.2003312e-06 0.05652669
-0.070257 -0.072489135 -0.08669273 0.24137124 -0.048549473 0.16865265 -0.11607446 -4.883729e-07
0.35783088 0.005496855 0.3861917 0.22431165 0.01891885 0.33822292 0.65001947 -0.05027409
-0.0031670514 -0.12020327 -3.5482444e-06 -6.456661e-07 0.4688934 0.61481714 0.22978972 0.111331955
-0.077043094 -0.1300961 -0.12914333 0.15355632 -0.13627852 0.2245603 -0.111451745 0.30307874
-0.11599227 -0.07656977 -0.076770976 0.29286832 0.08598852 -0.06095197 0.30003235 0.03475032
-0.056502443 -0.0942876 0.52710384 -0.051619515 0.09264017 -0.045145795 -0.048838563 -0.041007664
0.035378873 -0.0019855022 0.09828845 0.07823105 -0.05902127 0.1559874 -0.050401267 0.10110212
-5.064479e-07 -0.08934607 0.054586567 -0.07751951 -0.12324801 0.19884047 0.22005185 7.29945e-07
-2.114914e-06 0.08665418 4.388333e-07 0.37104595 -2.0895318e-06 -0.07569789 1.2587727e-06 0.6754936
0.14365037 0.052846484 0.04357445 0.09715445 -0.12732063 -0.09597563 -0.05526986 4.303485e-07
-0.045693792 0.23833703 -0.109543726 -0.024424244 0.023631744 0.05580233 -4.05987e-07 -0.08767851
-0.05875012 -0.027573254 0.097361654 0.08370228 -0.09387938 -0.08051023 -0.12700863 0.1069031
0.06190617 0.26412907 0.20174126 -2.58603e-06 0.1215259 0.022653356 -0.08760215 0.1109157
0.28164306 0.030344302 -8.474544e-07 0.14433216 0.34984452 0.395576 -2.051116e-07 0.0033779207
-0.14123172 -0.14252965 -1.7529684e-06 0.016833585 -4.2841493e-06 0.41349 -0.12065199 -0.068505615
0.079846844 -0.06320328 0.35708874 -0.14375629 -0.114724495 -0.098637044 -0.022477238 -0.11088418
-0.02547322 -0.07277123 -0.12197082 0.00031204065 -0.10975007 0.17396522 0.18196905 -0.11349373
-0.047216143 0.40059155 -0.08266154 0.08008625 2.8715843e-07 -0.11744025 0.1840586 6.6284656e-08
0.12004463 -0.11525381 -0.029729405 -0.11593497 -0.10398218 0.1907023 -3.325186e-06 -0.11579884
0.42778584 -0.10907868 0.24299826 0.283144 0.02432565 -0.13183506 0.038371015 -0.11510362
0.18048956 0.22268778 -0.047744263 4.2144907e-06 -0.0814282 0.18596283 0.018239163 -0.09580654
0.20402499 -0.11156935 0.003131425 -0.12451521 0.18618447 0.04351426 0.023977786 0.14008072
-0.02658711 -0.12581861 0.42001525 -0.13471565 -0.038900778 0.10193678 0.16747627 0.49495554
0.6361394 -0.08414791 3.0150613e-06 -0.1258394 -0.02582623 -0.11545765 0.2934428 -0.097052656
00000000: 9150 0cbe 85f0 0a3d 9431 fbbd 8381 973c
00000010: 1a60 7d3e 4864 053d 6446 923d 6085 0e3d
00000020: 509d 12be 0639 b7bd ddc4 dabd 8a5b 0b3e
00000030: a29c 04b5 620d f63d 0920 db3d 0227 54bd
00000040: b263 5bbd beff 9c3d 801d cf3e df44 09bd
00000050: 721d 9ebd 7033 b835 6497 bebd 9cae a8bc
00000060: 19a3 e83d 4d6c 8f3e d6e2 86bd e8c6 203d
00000070: 0a54 95bd 2a27 963e 67a9 1336 8888 673d
00000080: e7e2 8fbd 2f75 94bd f58b b1bd 062a 773e
00000090: d0db 46bd 48b3 2c3e 72b8 edbd bb18 03b5
000000a0: 9c35 b73e f61e b43b ebba c53e f4b1 653e
000000b0: b4fb 9a3c 8e2b ad3e ad67 263f 34ec 4dbd
000000c0: 4e8e 4fbb 222d f6bd 601e 6eb6 d651 2db5
000000d0: cc12 f03e a864 1d3f ff4d 6b3e 0202 e43d
000000e0: c5c8 9dbd e937 05be 263e 04be de3d 1d3e
000000f0: 998c 0bbe 23f3 653e d040 e4bd 232d 9b3e
00000100: 5b8d edbd 9dd0 9cbd 1a3a 9dbd d6f2 953e
00000110: c01a b03d c6a8 79bd d79d 993e 5a56 0e3d
00000120: 1b6f 67bd db19 c1bd 47f0 063f fc6e 53bd
00000130: 21ba bd3d ccea 38bd f20a 48bd a7f7 27bd
00000140: 70e9 103d 331f 02bb 744b c93d 9a37 a03d
00000150: 4ac0 71bd 29bb 1f3e 8f71 4ebd a10e cf3d
00000160: d6f2 07b5 13fb b6bd 2a96 5f3d 8dc2 9ebd
00000170: 7469 fcbd d69c 4b3e 4655 613e 70f1 4335
00000180: f2ed 0db6 bf77 b13d ca98 eb34 bcf9 bd3e
00000190: e239 0cb6 7f07 9bbd 1af3 a835 26ed 2c3f
000001a0: 1519 133e 8e75 583d 1f7b 323d eaf8 c63d
000001b0: 5760 02be df8e c4bd a662 62bd a60a e734
000001c0: 6a29 3bbd 9f0e 743e 7658 e0bd 5a15 c8bc
000001d0: 5c97 c13c fc90 643d 6ef6 d9b4 ca90 b3bd
000001e0: f7a3 70bd 4ee1 e1bc 8c65 c73d 1a6c ab3d
000001f0: d543 c0bd 8ce2 a4bd 8d0e 02be 03f0 da3d
00000200: 5391 7d3d ed3b 873e 4395 4e3e a88b 2db6
00000210: 92e2 f83d 8893 b93c c268 b3bd c527 e33d
00000220: 8533 903e 9d94 f83c 9f7c 63b5 cfcb 133e
00000230: d21e b33e f088 ca3e a63c 5cb4 1b60 5d3b
00000240: 0c9f 10be 4bf3 11be 8947 ebb5 96e6 893c
00000250: 90c0 8fb6 f6b4 d33e 6418 f7bd ac4c 8cbd
00000260: be86 a33d b970 81bd 56d4 b63e d934 13be
00000270: adf4 eabd 3802 cabd 2f22 b8bc 3f17 e3bd
00000280: 37ad d0bc 1509 95bd d6cb f9bd 6399 a339
00000290: a5c4 e0bd f023 323e 1856 3a3e 676f e8bd
000002a0: b765 41bd 561a cd3e 744a a9bd 4304 a43d
000002b0: c12a 9a34 8484 f0bd dc79 3c3e 6058 8e33
000002c0: f5d9 f53d 310a ecbd 158b f3bc 506f edbd
000002d0: 9cf4 d4bd 7747 433e 4326 5fb6 f127 edbd
000002e0: bf06 db3e a564 dfbd 89d4 783e 40f8 903e
000002f0: 9646 c73c c5ff 06be ed2a 1d3d 72bb ebbd
00000300: 41d2 383e 4408 643e 7d8f 43bd 336a 8d36
00000310: d4c3 a6bd 0a6d 3e3e 4c6a 953c 3836 c4bd
00000320: edeb 503e 797e e4bd 9838 4d3b d501 ffbd
00000330: 24a7 3e3e 023c 323d 106d c43c 5271 0f3e
00000340: 36cd d9bc 98d6 00be 3d0c d73e e6f2 09be
00000350: 6c56 1fbd 3bc4 d03d e67e 2b3e d06a fd3e
00000360: 08da 223f bd55 acbd 5c56 4a36 0bdc 00be
00000370: 8891 d3bc 0f75 ecbd 223e 963e 8bc3 c6bd

running_var f4 [224]
0.0029980948 0.0198726 0.0041781217 0.019949451 0.13961191 0.02153681 0.15093364 0.17450412
0.0020160787 0.007978082 0.0065101953 0.019738337 1.6440664e-08 0.028928854 0.11382705 0.07338292
0.035367493 0.19915162 0.5216044 0.03796177 0.02932305 6.6925196e-07 0.004434288 0.027267274
0.013685015 0.53374124 0.019089067 0.040086184 0.047445107 0.3545158 1.9074085e-07 0.18637295
0.017605288 0.018093303 0.015139336 0.47594634 0.010137336 0.24620149 0.008792496 6.297093e-07
0.02713315 0.018809665 0.10756394 0.27884972 0.06075043 0.17383967 0.047341686 0.04483924
0.0052488283 0.0038597921 2.2325432e-06 8.952879e-08 0.30384845 0.57773554 0.09766572 0.20073374
0.010885522 0.0074073863 0.005656064 0.07368621 0.0025953255 0.06752706 0.003293736 0.29397014
0.010774735 0.013426572 0.009495223 0.29314873 0.05508112 0.027594421 0.050659016 0.0751463
0.018915152 0.0068497313 0.50577444 0.01809795 0.07201252 0.017121723 0.039726306 0.02294903
0.078751214 0.03887092 0.08072374 0.03964114 0.00907629 0.12303193 0.022099476 0.22150011
2.4060188e-07 0.016654702 0.1413593 0.015620619 0.004567619 0.44876492 0.14685027 2.3741656e-08
5.769467e-07 0.20262909 3.9978096e-07 0.26575464 3.762586e-07 0.022773039 4.1043828e-07 0.027254874
0.22303198 0.17289145 0.04839569 0.08957856 0.0042632273 0.010005235 0.022783646 1.8291827e-08
0.0375967 0.029197875 0.007652005 0.03485524 0.08402123 0.043486953 4.432139e-07 0.012537406
0.01396752 0.044344597 0.07620671 0.19399798 0.01284653 0.0376137 0.0022276998 0.10436824
0.039876334 0.18073869 0.049495373 3.702241e-07 0.2297779 0.041990068 0.031143017 0.064297564
0.53188604 0.053943977 6.4433885e-07 0.28451234 0.3055135 0.42926055 2.2958335e-07 0.0679401
0.0027024024 0.003290228 1.8385416e-07 0.12041665 7.510648e-07 0.67087597 0.009278514 0.022955315
0.02515739 0.021991258 0.4904913 0.0021456596 0.007363008 0.0139893945 0.03655831 0.004486245
0.06645978 0.028972702 0.007356428 0.034417648 0.0041679866 0.07888249 0.1397468 0.005556343
0.044945206 0.51768386 0.023448972 0.07150387 5.2676416e-08 0.010512022 0.122073926 1.2421368e-07
0.050932217 0.011158939 0.011961154 0.004734768 0.0151558565 0.17034459 1.5864772e-07 0.009655831
0.5515371 0.005403847 0.505188 0.07686297 0.16658525 0.004840151 0.057114556 0.0064417403
0.124749616 0.13209382 0.02733214 5.985421e-07 0.019082932 0.047318194 0.025991153 0.017940601
0.15082625 0.008648204 0.11414792 0.00842784 0.24610317 0.08903226 0.07008084 0.35047936
0.008899684 0.0054974253 0.0156963 0.0050855414 0.018692348 0.12880059 0.01881036 0.61703575
0.8693657 0.012393362 2.7965166e-07 0.0022085316 0.040495086 0.0033149796 0.3887877 0.006515613
00000000: af7b 443b ddcb a23c a0e8 883b 086d a33c
00000010: 6df6 0e3e f76d b03c 598e 1a3e 35b1 323e
00000020: 3020 043b 80b6 023c 7a53 d53b 4bb2 a13c
00000030: 6739 8d32 34fc ec3c 281e e93d c949 963d
00000040: 81dd 103d 67ee 4b3e de87 053f cd7d 1b3d
00000050: e536 f03c a5a6 3335 814d 913b 9e5f df3c
00000060: 1d37 603c 44a3 083f ad60 9c3c 6931 243d
00000070: cd55 423d 1883 b53e 72ce 4c34 8dd8 3e3e
00000080: f738 903c 6838 943c fa0a 783c 3daf f33e
00000090: 1217 263c 3e1c 7c3e 670e 103c 4b09 2935
000000a0: 5746 de3c ba16 9a3c 7c4a dc3d 64c5 8e3e
000000b0: 71d5 783d 0703 323e 5be9 413d 5aa9 373d
000000c0: 5dfe ab3b 91f4 7c3b cdd2 1536 f942 c033
000000d0: 0692 9b3e 7ae6 133f f704 c83d 258d 4d3e
000000e0: 3059 323c a9b9 f23b 8156 b93b cce8 963d
000000f0: 5616 2a3b a14b 8a3d b8db 573b 4183 963e
00000100: 8488 303c 20fb 5b3c da91 1b3c 9717 963e
00000110: be9c 613d b20d e23c d47f 4f3d 4ee6 993d
00000120: f3f3 9a3c b673 e03b 6f7a 013f 2742 943c
00000130: 4d7b 933d db42 8c3c 0db8 223d 9bff bb3c
00000140: 5148 a13d 1d37 1f3d 7d52 a53d bf5e 223d
00000150: b8b4 143c 2af8 fb3d f609 b53c edd0 623e
00000160: 122c 8134 716f 883c 7ec0 103e a0ed 7f3c
00000170: f7ab 953b 84c4 e53e eb5f 163e 74f0 cb32
00000180: 7adf 1a35 007e 4f3e 7aa1 d634 fe10 883e
00000190: 9700 ca34 868e ba3c 355a dc34 9d45 df3c
000001a0: 7f62 643e 750a 313e 8f3a 463d f774 b73d
000001b0: 8bb2 8b3b ffec 233c c5a4 ba3c 2720 9d32
000001c0: fffe 193d 6230 ef3c acbd fa3b 5ec4 0e3d
000001d0: 5313 ac3d 601f 323d dbf2 ed34 b169 4d3c
000001e0: 06d8 643c aea2 353d 4312 9c3d 68a7 463e
000001f0: 417a 523c d310 1a3d 9afe 113b 04bf d53d
00000200: 5e55 233d 9013 393e a9bb 4a3d 36c3 c634
00000210: e64a 6b3e c7fd 2b3d a41f ff3c 71ae 833d
00000220: af29 083f 5cf4 5c3d a1f6 2c35 9aab 913e
00000230: 446c 9c3e 0ac8 db3e 6483 7634 2e24 8b3d
00000240: ca1a 313b dea0 573b 7269 4534 019d f63d
00000250: c89c 4935 87be 2b3f e904 183c c90c bc3c
00000260: df16 ce3c 0327 b43c ad21 fb3e 329e 0c3b
00000270: 6345 f13b c633 653c 2bbe 153d 5a01 933b
00000280: 111c 883d 2958 ed3c 310e f13b 85f9 0c3d
00000290: 9b93 883b 258d a13d c919 0f3e fc11 b63b
000002a0: 7718 383d ee86 043f 0f18 c03c 9f70 923d
000002b0: 553e 6233 9e3a 2c3c e501 fa3d 995f 0534
000002c0: 4d9e 503d fcd3 363c b7f8 433c 1d26 9b3b
000002d0: 4550 783c d06e 2e3e c158 2a34 7e33 1e3c
000002e0: 8931 0d3f c112 b13b 0054 013f 556a 9d3d
000002f0: 5395 2a3e 219a 9e3b f4f0 693d 3c15 d33b
00000300: ba7c ff3d 9a43 073e a7e7 df3c 80ab 2035
00000310: cf53 9c3c b9d0 413d 66eb d43c 2bf8 923c
00000320: 3272 1a3e 32b1 0d3c 62c6 e93d ec14 0a3c
00000330: 7802 7c3e 8c56 b63d 8b86 8f3d 0872 b33e
00000340: fbcf 113c bf23 b43b 8795 803c 9da4 a63b
00000350: b220 993c 4de4 033e 2f18 9a3c 0ef6 1d3f
00000360: c08e 5e3f 870d 4b3c 0823 9634 03bd 103b
00000370: 2dde 253d 2140 593b 2e0f c73e ec80 d53b

weight f4 [192, 224]
0.14660814 0.045894302 -0.01417913 -0.060013544 0.12825634 -0.20495757 0.13576117 -0.025863163
-0.12917225 -0.067509 -0.19441548 -0.06828934 -0.00022608618 0.17653607 -0.21071294 -0.00512552
0.053708185 -0.12103631 -0.057238676 0.08395877 0.09901387 0.0001885978 -0.052683245 -0.05213565
0.06276101 0.05420316 -0.14024353 -0.13867858 -0.10382077 -0.17778721 0.00017090126 -0.057775278
-0.1321179 -0.003247574 0.047454033 -0.107310936 0.049282223 -0.091430016 -0.049004562 -0.000117279495
0.023039266 -0.08203777 0.05979352 0.04909439 0.14654829 -0.13039102 0.04711089 0.039743442
-0.03535126 0.04282503 -0.00040052322 9.106121e-05 0.123565406 -0.012569006 0.119598925 0.0490136
-0.08159389 -0.46475464 -0.014915706 0.34274524 -0.042929783 -0.06375126 0.22921044 0.144897
0.03712251 0.015377324 0.0779524 -0.05073757 -0.040787566 -0.025265954 0.20517159 -0.07143077
0.0047098175 -0.17559037 0.15497378 -0.18920848 0.24700536 -0.4486428 -0.18454894 -0.060461972
-0.014061538 -0.0576174 0.1455531 0.0046851137 -0.009126357 0.21808343 0.19950134 -0.22955436
6.282789e-05 -0.38163835 -0.09181656 -0.18013148 0.01907907 -0.23839527 -0.027018055 0.00016572562
0.00064460264 0.08790839 3.9987053e-06 -0.2009278 4.891631e-05 -0.064494915 0.00013962631 0.19519177
-0.08425705 -0.124698445 0.006234836 0.07388011 -0.11519159 0.2635344 0.04142711 -0.00018049458
-0.027117057 0.23331182 0.031733204 0.056033242 -0.05813209 -0.13161047 0.000121640114 -0.1738858
0.024119543 -0.35509 0.0075174263 0.21502542 -0.052638117 0.09989038 -0.04790858 0.07129643
0.12490503 -0.0502813 0.059061397 0.00013089828 -0.11731845 0.029268168 -0.03179077 0.18053979
0.0015601683 -0.036640365 0.000113994574 0.061820224 0.07775409 0.035135753 0.0002893969 0.0042336467
-0.16316561 -0.21149057 -0.00012535004 0.17798746 8.660065e-05 -0.11397009 -0.122012116 0.027115723
-0.257586 0.03077392 0.1811028 0.29643375 -0.11845702 0.04596834 -0.43642005 -0.10302957
-0.0029012498 -0.019880034 -0.10662613 -0.11345262 -0.23265387 0.02486486 0.046556428 0.0247347
-0.16175714 -0.03857207 -0.09728611 0.25143307 -2.6441712e-05 0.018202163 -0.035472855 -0.00019521314
0.005593918 0.10681173 0.08850777 -0.09207742 0.105544455 -0.18310416 -0.00028118383 -0.058452338
0.028595183 -0.009712933 -0.10987237 -0.25102967 0.04402967 -0.06892245 0.03922793 -0.057638906
0.0317504 -0.31992972 0.022861764 -1.6460812e-06 0.020629006 0.06970492 0.23022716 0.020951608
0.20938817 -0.06948564 0.015964676 -0.048663326 -0.1022484 0.026774399 0.13913132 -0.10321117
0.17744341 0.13484578 0.30885768 -0.021914698 -0.17539099 0.10461447 -0.10494276 -0.12630473
0.17667034 -0.12715727 0.00030596534 0.070145 0.0461436 0.20777334 -0.082257904 -0.02895442
0.03889157 -0.051663294 -0.028364874 0.22941816 0.039345317 -0.029597487 -0.08007008 0.17570496
-0.15158248 -0.11028085 -0.297684 0.19099139 -0.00013090788 0.20939536 0.094664484 0.035531025
-0.0021043885 0.01636889 0.052612796 -0.084109105 -0.122096576 0.0001962166 0.094922416 0.12951317
0.22902165 -0.09642516 0.1076721 -0.029965125 -0.10447692 0.01808592 -2.5524403e-05 0.01169152
00000000: 7220 163e aafb 3b3d 954f 68bc c3d0 75bd
00000010: a155 033e 66e0 51be fa04 0b3e fcde d3bc
00000020: bb45 04be 2942 8abd da14 47be 48db 8bbd
00000030: 8c11 6db9 dfc5 343e 22c5 57be faf3 a7bb
00000040: 1dfd 5b3d e3e1 f7bd 1a73 6abd 93f2 ab3d
00000050: c9c7 ca3d 56c2 4539 63ca 57bd 318c 55bd
00000060: d888 803d 2204 5e3d 009c 0fbe c201 0ebe
00000070: fc9f d4bd da0d 36be f533 3339 c5a5 6cbd
00000080: ea49 07be 40d5 54bb 295f 423d d6c5 dbbd
00000090: 28dc 493d a93f bbbd 02b9 48bd f3f3 f5b8
000000a0: d8bc bc3c 6b03 a8bd 0dea 743d 3317 493d
000000b0: c110 163e 3985 05be 59f7 403d 05ca 223d
000000c0: 7ccc 10bd 4c69 2f3d 51fd d1b9 1df8 be38
000000d0: dc0f fd3d 3bee 4dbc 48f0 f43d 7cc2 483d
000000e0: b31a a7bd 52f4 edbe 0161 74bc 4e7c af3e
000000f0: 24d7 2fbd 0590 82bd 24b6 6a3e e15f 143e
00000100: c60d 183d 2cf1 7b3c 82a5 9f3d 33d2 4fbd
00000110: dd10 27bd 8cfa cebc 8018 523e 4c4a 92bd
00000120: d054 9a3b f6cd 33be 72b1 1e3e debf 41be
00000130: f9ee 7c3e 82b4 e5be 66fa 3cbe f9a6 77bd
00000140: 5d62 66bc 3900 6cbd df0b 153e 9585 993b
00000150: b786 15bc 4351 5f3e 144a 4c3e 4c10 6bbe
00000160: 77c2 8338 1a66 c3be 520a bcbd 6374 38be
00000170: b64b 9c3c e41d 74be f854 ddbc a2c6 2d39
00000180: 8dfa 283a 5009 b43d 9e2c 8636 04c0 4dbe
00000190: 7d2b 4d38 e915 84bd a768 1239 5ae0 473e
000001a0: f68e acbd e661 ffbd 984d cc3b 754e 973d
000001b0: 91e9 ebbd fbed 863e 79af 293d 2543 3db9
000001c0: 9724 debc 4be9 6e3e adfa 013d 1d83 653d
000001d0: ea1b 6ebd e5c4 06be 0a19 ff38 1f0f 32be
000001e0: 5996 c53c 5bce b5be be54 f63b a02f 5c3e
000001f0: 119b 57bd 5493 cc3d ca3b 44bd dd03 923d
00000200: 35ce ff3d c4f3 4dbd 5dea 713d bd41 0939
00000210: a844 f0bd ccc3 ef3c 0a37 02bd 6cdf 383e
00000220: 907e cc3a 3514 16bd 5f10 ef38 3437 7d3d
00000230: 893d 9f3d 82ea 0f3d 32ba 9739 67ba 8a3b
00000240: e314 27be fc90 58be 6570 03b9 5842 363e
00000250: 5f9d b538 2769 e9bd 7de1 f9bd cb21 de3c
00000260: 50e2 83be 9619 fc3c 0373 393e 2ac6 973e
00000270: 9899 f2bd 4c49 3c3d 7372 dfbe 2b01 d3bd
00000280: e522 3ebb 74db a2bc cd5e dabd d959 e8bd
00000290: d13c 6ebe 64b1 cb3c f4b1 3e3d 6da0 ca3c
000002a0: aaa3 25be bffd 1dbd f13d c7bd d6bb 803e
000002b0: 25cf ddb7 b41c 953c fc4b 11bd 21b2 4cb9
000002c0: 2f4d b73b 1cc0 da3d 9043 b53d 1693 bcbd
000002d0: b127 d83d a87f 3bbe db6b 93b9 b86b 6fbd
000002e0: 7240 ea3c fe22 1fbc c404 e1bd f686 80be
000002f0: 7558 343d 3727 8dbd 77ad 203d c616 6cbd
00000300: b50c 023d d4cd a3be 9848 bb3c ebee dcb5
00000310: 29fe a83c 74c1 8e3d abc0 6b3e b5a2 ab3c
00000320: da69 563e 7d4e 8ebd 5ac8 823c 3253 47bd
00000330: 9c67 d1bd fc55 db3c 7178 0e3e 6160 d3bd
00000340: bab3 353e 0315 0a3e 9822 9e3e 7486 b3bc
00000350: b299 33be 1c40 d63d 3bec d6bd 0756 01be
00000360: 12e9 343e 8435 02be f969 a039 2fa8 8f3d
00000370: 1201 3d3d 89c2 543e d576 a8bd d231 edbc
00000380: c44c 1f3d e49c 53bd 745d e8bc 98ec 6a3e
00000390: 8e28 213d 6e76 f2bc c8fb a3bd 00ec 333e
000003a0: 7038 1bbe edda e1bd 0a6a 98be 3f93 433e
000003b0: 5144 09b9 bd6b 563e 74df c13d fb88 113d
000003c0: c8e9 09bb 0d18 863c 8480 573d 6541 acbd
000003d0: c50d fabd 7ebf 4d39 af66 c23d 1a9f 043e
000003e0: a784 6a3e 8e7a c5bd 3183 dc3d 6c79 f5bc
000003f0: fff7 d5bd ec28 943c 3d1d d6b7 ca8d 3f3c

weight f4 [192]
0.60588694 0.5527896 0.6359135 0.34988353 0.3734753 0.4057605 0.31398413 0.37787694
1.0654194 0.38321683 0.32257634 0.5394167 0.46240395 0.4548318 0.36688748 0.42971918
0.3698101 0.36486396 0.4890218 0.4870983 0.8497486 0.76255673 0.35446817 0.63187534
0.4063454 0.39556682 0.5164697 0.44998768 0.31953135 0.41830873 0.36792868 0.43520826
0.7847143 0.3929133 0.51394093 0.40286314 0.42435265 0.40547538 0.33959147 0.3352013
0.3753026 0.3837627 0.45896557 1.1832521 0.39164442 0.3913152 0.28975442 0.5537128
0.37456143 0.41196036 0.44312564 0.47228464 0.55087215 0.8552063 0.36825004 0.39092118
0.69690245 0.5155598 0.43471175 0.6864999 0.4375738 0.45206085 0.5876306 0.33467954
0.40907377 0.46183145 0.3234551 0.4258359 0.54400057 0.57179064 0.44755968 0.4175228
0.65873915 0.39694515 0.712356 0.4009078 0.41897005 0.35220522 0.7284879 0.41912627
0.36132336 0.42109886 0.71550566 0.4556787 0.7045224 0.424469 0.60176533 0.24889751
0.6671922 0.3822558 0.5768215 1.0481229 0.47147343 0.42070943 0.41484827 0.5778423
0.48316166 0.4795639 0.54037887 0.43343607 0.37951747 0.5933826 0.3549501 0.39175463
0.32895836 0.6413757 0.40996 0.3024749 0.4272791 0.4299548 0.24781348 0.5521635
0.3305818 0.8981482 0.48937914 0.52522975 0.4504929 0.51616913 0.50256425 0.26894855
0.47058353 0.45034865 0.59300464 0.57848793 1.045102 0.38954762 0.71952957 0.79062545
0.34508017 0.9325032 0.46504557 0.49187866 0.43387696 0.5063295 0.30119303 1.0739933
0.5900288 0.5213262 0.3676252 0.41451702 0.31037444 0.5223277 0.6400828 0.35639238
0.52918357 0.9295269 0.45969984 0.31061736 0.45010495 0.46667808 0.5116409 0.37901786
0.369765 0.34988016 0.5793844 0.39726716 0.42489406 0.41824785 0.6087481 0.52398854
0.45079827 0.4160039 0.5098114 0.46753266 0.48723564 0.2382159 0.42540032 0.43291628
0.35942435 0.3569867 0.48596227 0.33283836 0.32924575 0.44432965 0.4013276 0.26294708
1.4262402 0.34239987 0.41349718 0.5438088 0.6098035 0.6225702 0.45116997 0.33877552
0.4707172 0.3339544 0.4724772 0.37054363 0.39114004 0.39070347 0.32696792 0.5345744
00000000: 681b 1b3f 9f83 0d3f 3acb 223f ef23 b33e
00000010: 2838 bf3e d7bf cf3e 87c2 a03e 1679 c13e
00000020: aa5f 883f ff34 c43e ba28 a53e 3617 0a3f
00000030: 36c0 ec3e b7df e83e add8 bb3e 2704 dc3e
00000040: c057 bd3e 73cf ba3e 1161 fa3e f364 f93e
00000050: 2089 593f eb36 433f da7c b53e 95c2 213f
00000060: 810c d03e bc87 ca3e 5c37 043f c964 e63e
00000070: 9d99 a33e 902c d63e 2661 bc3e 9ed3 de3e
00000080: 09e3 483f ef2b c93e a291 033f 1444 ce3e
00000090: c044 d93e 789a cf3e efde ad3e 819f ab3e
000000a0: aa27 c03e 8b7c c43e 89fd ea3e ce74 973f
000000b0: 9e85 c83e 775a c83e b15a 943e 1fc0 0d3f
000000c0: 84c6 bf3e 78ec d23e 5de1 e23e 4bcf f13e
000000d0: f505 0d3f cdee 5a3f 458b bc3e d226 c83e
000000e0: 3368 323f bafb 033f 8a92 de3e 75be 2f3f
000000f0: ac09 e03e 8574 e73e f66e 163f 1e5b ab3e
00000100: 1e72 d13e 2c75 ec3e e89b a53e 2a07 da3e
00000110: 9f43 0b3f df60 123f 8b26 e53e 8cc5 d53e
00000120: 21a3 283f 653c cb3e f65c 363f ca43 cd3e
00000130: 3e83 d63e 3e54 b43e 2f7e 3a3f b897 d63e
00000140: 60ff b83e 459a d73e 612b 373f b84e e93e
00000150: 945b 343f 0054 d93e 4b0d 1a3f fdde 7e3e
00000160: 1ccd 2a3f 08b7 c33e 93aa 133f e428 863f
00000170: f764 f13e 3a67 d73e fe66 d43e 79ed 133f
00000180: f760 f73e 6689 f53e 4556 0a3f 55eb dd3e
00000190: 1d50 c23e ece7 173f 05bc b53e 1094 c83e
000001a0: 3b6d a83e 3331 243f 47e6 d13e fddd 9a3e
000001b0: 54c4 da3e 0923 dc3e d1c2 7d3e 965a 0d3f
000001c0: 0542 a93e 0aed 653f e78f fa3e 7575 063f
000001d0: 01a7 e63e a923 043f 0da8 003f a0b3 893e
000001e0: 53f0 f03e 1994 e63e 27cf 173f c917 143f
000001f0: e7c5 853f c972 c73e 1733 383f 6e66 4a3f
00000200: 59ae b03e 88b8 6e3f 741a ee3e 85d7 fb3e
00000210: 1f25 de3e cf9e 013f f935 9a3e 9d78 893f
00000220: 210c 173f a275 053f 5f39 bc3e 933b d43e
00000230: 66e9 9e3e 45b7 053f 77dc 233f 1079 b63e
00000240: 9378 073f 7af5 6d3f c75d eb3e 3d09 9f3e
00000250: 2874 e63e 6ef0 ee3e e6fa 023f a10e c23e
00000260: d751 bd3e 7e23 b33e 8952 143f 9a66 cb3e
00000270: b78b d93e 9524 d63e ead6 1b3f 1d24 063f
00000280: 08cf e63e 77fe d43e 0083 023f 7160 ef3e
00000290: f376 f93e deee 733e 12ce d93e 34a7 dd3e
000002a0: 7806 b83e f6c6 b63e 0cd0 f83e ca69 aa3e
000002b0: e692 a83e 2d7f e33e d07a cd3e 00a1 863e
000002c0: 0a8f b63f 094f af3e e7b5 d33e 0e37 0b3f
000002d0: 151c 1c3f c360 1f3f c0ff e63e fc73 ad3e
000002e0: d801 f13e 12fc aa3e 88e8 f13e e5b7 bd3e
000002f0: 8243 c83e 490a c83e 5768 a73e ded9 083f

bias f4 [192]
0.19973613 0.02035344 0.07520412 -0.09145074 -0.022281807 0.49624908 0.03870492 0.04038647
0.31382552 -0.09220232 -0.041387286 0.096753284 0.37226853 0.11110212 0.10732385 0.12605779
-0.035458803 0.003975699 0.06104495 -0.0008282773 0.23400106 0.20515373 0.046935935 0.004799939
0.3576668 -0.07842822 -0.009012095 0.0652848 0.12116876 0.22781593 -0.050222714 -0.27850178
0.27864736 -0.03912028 0.028988456 0.16029093 0.15725988 0.080783814 0.1478087 0.07951184
0.03767959 0.072214134 0.22364098 0.1887284 0.12212566 0.17116207 0.31429026 0.08534657
0.01939526 0.036397412 0.048832003 -0.06961757 0.15539335 0.31628528 -0.0018999794 -0.06452264
0.22199939 0.014654446 0.04675277 0.0871931 -0.034919884 -0.022296779 0.3380436 -0.04764623
0.033998813 0.14171757 0.2751439 0.116474696 0.33863497 -0.08826646 0.080835424 0.10571347
0.08033299 0.06956526 0.33723995 0.017353551 -0.0019508025 0.06434488 0.007935842 0.06918502
0.09103022 -0.019773908 0.2072199 0.04254826 0.03441837 0.11342491 0.16518345 -0.19120978
0.28882077 0.043660134 0.20064591 0.18815212 0.19560571 0.11686025 0.047799986 0.02201112
0.21830124 0.07454173 0.20995565 0.043056637 0.10313637 0.07992733 0.111872 -0.027222011
0.18333422 -0.15004586 -0.014017313 0.034809403 -0.03465536 0.2363678 -0.02992284 0.08810978
0.0952757 0.18925229 0.1295688 0.1387455 0.044556256 0.07797686 -0.04392974 0.028810045
0.08469558 0.110034704 0.12053461 0.0059539014 0.097469725 0.21424125 0.051625203 0.25433397
0.16713259 0.0950603 0.047884893 0.037920173 0.13261995 0.10602005 -0.13916814 0.29502386
0.10593396 0.117606655 0.12593454 -0.06275965 -0.035662327 0.06745966 0.13321392 0.15590356
0.18415095 0.3279385 0.14591776 0.038918417 0.017322686 0.26740465 0.14731413 0.09990278
0.15674397 0.16046958 0.05803356 -0.084172085 -0.11712695 -0.025548663 0.13547745 0.0066110934
-0.15158457 0.11145056 0.13657337 0.08927062 0.013308553 -0.028123502 0.21320118 0.14882442
-0.21815623 0.10579368 0.019049615 -0.28646535 0.0044074063 0.11164639 -0.00016082785 -0.20162569
0.2268555 0.03452383 -0.109458715 0.1185085 -0.0069179116 0.2563997 -0.0208242 0.20776893
0.0048832935 -0.05395512 -0.07951315 -0.09266861 0.23084734 -0.14096978 -0.09696509 0.13728294
00000000: a187 4c3e 42bc a63c 9e04 9a3d 874a bbbd
00000010: 5688 b6bc 5c14 fe3e 0d89 1e3d 486c 253d
00000020: bdad a03e 92d4 bcbd b785 29bd 9626 c63d
00000030: fb99 be3e 8289 e33d 9bcc db3d 4b15 013e
00000040: 403d 11bd 9546 823b 450a 7a3d c020 59ba
00000050: f99d 6f3e d213 523e e53f 403d cf48 9d3b
00000060: 1a20 b73e f99e a0bd 77a7 13bc 0ab4 853d
00000070: 5427 f83d 9448 693e 55b6 4dbd c997 8ebe
00000080: deaa 8e3e 963c 20bd 3379 ed3c 4e23 243e
00000090: bc08 213e fc71 a53d 2a5b 173e 1bd7 a23d
000000a0: ea55 1a3d 01e5 933d 2402 653e 0542 413e
000000b0: 051d fa3d 1c45 2f3e a7ea a03e 2fca ae3d
000000c0: cfe2 9e3c 7415 153d 1104 483d a893 8ebd
000000d0: 6f1f 1f3e 25f0 a13e bb08 f9ba 7224 84bd
000000e0: cf53 633e 3419 703c d57f 3f3d 4c92 b23d
000000f0: 2708 0fbd bca7 b6bc 0d14 ad3e b128 43bd
00000100: 5742 0b3d 691e 113e a9df 8c3e 498a ee3d
00000110: 9061 ad3e 0cc5 b4bd 0b8d a53d 4e80 d83d
00000120: 9f85 a43d 3b78 8e3d b7aa ac3e 0929 8e3c
00000130: 12b2 ffba 40c7 833d 5505 023c e0b0 8d3d
00000140: 0d6e ba3d e4fc a1bc 7431 543e 1647 2e3d
00000150: 47fa 0c3d 524b e83d da25 293e 7fcc 43be
00000160: 51e0 933e f8d4 323d 1f76 4d3e f3aa 403e
00000170: dd4c 483e 6d54 ef3d ebc9 433d aa50 b43c
00000180: 5c8a 5f3e 56a9 983d 9dfe 563e 285c 303d
00000190: 2939 d33d f1b0 a33d 261d e53d b200 dfbc
000001a0: f7bb 3b3e 9fa5 19be dfa8 65bc 4e94 0e3d
000001b0: c7f2 0dbd 670a 723e be20 f5bc e672 b43d
000001c0: e81f c33d 5acb 413e afad 043e 4d13 0e3e
000001d0: 9f80 363d 55b2 9f3d acef 33bd 0b03 ec3c
000001e0: e074 ad3d e059 e13d d9da f63d f218 c33b
000001f0: 359e c73d 0f62 5b3e f374 533d 1038 823e
00000200: ce24 2b3e f9ae c23d f322 443d 2f52 1b3d
00000210: 86cd 073e 0a21 d93d 1882 0ebe 5e0d 973e
00000220: e7f3 d83d c2db f03d fcf4 003e 2288 80bd
00000230: a912 12bd 4a28 8a3d 3b69 083e 2fa5 1f3e
00000240: 1192 3c3e 8ee7 a73e 776b 153e eb68 1f3d
00000250: 4ee8 8d3c 43e9 883e 84d9 163e d499 cc3d
00000260: 7e81 203e 2352 243e 99b4 6d3d 6a62 acbd
00000270: 41e0 efbd 6e4b d1bc 9aba 0a3e dfa1 d83b
00000280: fc38 1bbe 3140 e43d e4d9 0b3e 84d3 b63d
00000290: 1e0c 5a3c 4263 e6bc 6951 5a3e 6e65 183e
000002a0: 5964 5fbe 5baa d83d f00d 9c3c 96ab 92be
000002b0: 016c 903b dda6 e43d e6a3 28b9 f776 4ebe
000002c0: cf4c 683e dc68 0d3d e42b e0bd 96b4 f23d
000002d0: a6af e2bb d246 833e 8397 aabc 61c1 543e
000002e0: 0904 a03b 0b00 5dbd cad7 a2bd 0ac9 bdbd
000002f0: 3f63 6c3e 625a 10be a295 c6bd e693 0c3e
