models/nn_to_lev_cat05_epoch16.pt (torch, 336055 bytes, 43 tensors)

weight f4 [224, 13]
000000 d6 99 4b 3e 03 a2 1c 3e d7 75 98 be c1 81 d9 3e
       0.19882903 0.15296178 -0.29777405 0.42481807
000010 ac 1f 35 be 69 20 13 bd 3d 15 47 be 6a ee d2 3d
       -0.17687863 -0.03591958 -0.19441696 0.1029938
000020 16 b4 31 3e ed 7f 33 bf d3 31 1c 3f 19 ed 4f 3e
       0.17353854 -0.70117074 0.61013526 0.2030529
000030 1d 67 a0 3e d4 2c a2 3c d7 b7 04 3e 34 56 11 be
       0.3132867 0.019796766 0.12960754 -0.1419304
000040 fa 90 b3 3e dc 28 57 bd be ef 8e be db f8 ba 3d
       0.35071546 -0.0525292 -0.27917284 0.09129497
000050 36 f5 03 be 1e 3e 1f 3d 8d e5 b8 be 32 df 81 3f
       -0.1288651 0.0388776 -0.36112633 1.0146239
000060 48 1e fe be ce 73 c1 bd 14 54 74 bc dd 93 33 be
       -0.49632478 -0.09445916 -0.014912624 -0.17536874
000070 dd 2e 58 3e 43 ed ae be 77 e2 f3 3e 21 1a 59 be
       0.21111627 -0.3416539 0.47633716 -0.21201374
000080 78 e8 b2 3d 95 93 76 bc 75 8a c3 bd 64 c6 46 3d
       0.08735746 -0.015049835 -0.09547893 0.048529044
000090 2c aa de 3b bf 14 0f 3f 88 d7 25 3c 7c e0 6f be
       0.0067951884 0.5589103 0.010122187 -0.23425478
0000a0 0a 40 0a 3e c3 7b 17 3e 7e 51 9e bd 2f dc 24 3e
       0.13500991 0.14793305 -0.07730387 0.16099618
0000b0 3a 3c 76 3e c9 e5 02 be 5a bb 8f 3d 54 1a 1e 3d
       0.24046412 -0.12782969 0.07018156 0.038599327
0000c0 c0 28 7f 3e 2a c9 98 bd 45 5f b7 be d6 83 d1 bd
       0.24917889 -0.07460244 -0.35814872 -0.10230224
0000d0 54 77 06 bf 53 bb 16 3f 16 ed 41 bd bf 7a 1c 3d
       -0.5252583 0.58879584 -0.047345243 0.038202997
0000e0 a2 fd b9 3d 27 23 01 be 50 b5 35 3e 3e ff 9a be
       0.0908158 -0.12611066 0.17744946 -0.3027286
0000f0 a5 02 ef 3d 4e 1e b7 be 3f 41 17 3f ce 18 56 be
       0.11670426 -0.35765308 0.5908393 -0.209079
000100 c2 1d 13 3d 91 ae 22 bd a0 71 01 3e 02 d4 1b be
       0.03591705 -0.03971726 0.12641001 -0.15217593
000110 41 e7 2c be b7 98 fa bd 7f 92 c3 3e 66 4b 7f 3b
       -0.16885091 -0.12236159 0.38197705 0.0038954853
000120 87 e9 7a 3e db 21 9d be bd c1 5e bf bd e8 f9 be
       0.24503146 -0.30689892 -0.8701437 -0.48810378
000130 33 df 9b be fd c4 56 bd 67 cc 83 38 08 78 7a 38
       -0.30443725 -0.052433956 6.28464e-05 5.9716433e-05
000140 0f 86 a3 38 9f a5 11 b9 cf e1 32 b9 75 6e 40 b9
       7.797416e-05 -0.00013889976 -0.00017059523 -0.00018351695
000150 ca 9c 95 b9 88 27 1e 36 f4 23 d3 37 0f cc 6c b9
       -0.00028536312 2.3566845e-06 2.5169902e-05 -0.00022582732
000160 ca 32 60 b9 ab 39 59 b9 29 29 96 b9 bf 69 d9 39
       -0.00021381225 -0.00020716216 -0.00028640896 0.00041468252
000170 7f 89 e1 39 1c 5a ea 39 41 29 84 39 7b 17 9b 39
       0.00043017787 0.00044699095 0.00025207739 0.00029581398
000180 50 ad a9 39 d1 a5 cb b5 0d f6 d8 b8 58 a2 b7 b8
       0.0003236332 -1.5172938e-06 -0.00010345513 -8.756359e-05
000190 0a a3 81 b9 06 ed 51 b9 c6 1b 18 b9 c6 31 48 ba
       -0.0002472627 -0.00020020091 -0.00014506196 -0.00076368114
0001a0 98 bd 91 be 63 62 23 be 2c 05 c8 be b4 80 b2 be
       -0.2846496 -0.159555 -0.39066446 -0.34863818
0001b0 4a b9 2a bd fb 36 98 3d bb 1c 2c 3e 4a 42 4f 3c
       -0.04168061 0.07432362 0.16807835 0.012650082
0001c0 ea 2c 20 3d da eb ff bd 62 32 a7 bd 78 4c 01 be
       0.039105333 -0.12496157 -0.08163907 -0.12626827
0001d0 70 49 c6 3d b9 e8 01 bf a3 c4 7b be ef 03 8e be
       0.09681976 -0.5074573 -0.2458673 -0.27737376
0001e0 54 cb fd 3c 2b e5 20 be 68 fe 17 be e9 41 17 be
       0.030980743 -0.1571242 -0.14843142 -0.14771236
0001f0 08 5b 66 bd b7 2c e0 bd 19 eb 73 be 35 9b e5 be
       -0.056239158 -0.10946029 -0.23820151 -0.44844976
000200 dd 13 26 be 6d 9b 6c be 8e ec be 3e c3 94 d3 3c
       -0.16218515 -0.23106165 0.37289852 0.025827771
000210 bc 7c b1 be be 41 9f 3e 4d c3 a8 be b5 1d fb bd
       -0.34665477 0.31104845 -0.32961503 -0.122615255
000220 f6 48 33 bd 35 bd 31 be c0 05 30 3e ac 71 0e be
       -0.043770753 -0.17357333 0.17189693 -0.1391055
000230 45 7e 1b 3e 67 5d a9 be 68 13 15 3f 45 ff 48 3a
       0.15184887 -0.33079073 0.58232737 0.00076674327
000240 d9 8b 39 3a 8d 88 0b 3a 0e c4 0f ba a3 fe 11 ba
       0.0007078029 0.0005322777 -0.00054842315 -0.0005569255
000250 1d 86 4e ba b6 61 c4 b9 07 c8 de b8 d0 d2 d7 39
       -0.0007878261 -0.00037456834 -0.00010623043 0.00041165063
000260 ea 62 35 39 d8 12 8e 39 10 da 8a 39 e1 c7 14 b9
       0.00017298353 0.0002709839 0.0002648388 -0.0001418884
000270 5c a1 27 3d 6e df 13 bd ec 0e 8b bc 5a c3 90 be
       0.04092537 -0.03610175 -0.016974889 -0.2827404
000280 ea ff fd 3e e8 17 5b be db e1 cb 3d 47 e8 6e be
       0.4960931 -0.21395838 0.09955188 -0.23330794
000290 c8 4f 0c 3e c1 b7 3a 3e dc 2f 6c bf cb b4 3e 3f
       0.13702309 0.18234159 -0.9226053 0.7449462
0002a0 9e 72 03 bc e0 a2 15 be d6 0c 83 bd b7 e4 e7 3d
       -0.008022932 -0.14612913 -0.06398933 0.11322921
0002b0 d3 05 92 3e c9 91 d4 bd f0 eb f4 bd c7 ba 64 3c
       0.2852007 -0.10379369 -0.11959064 0.013960547
0002c0 77 54 1c be 25 03 03 3e dc bb 47 3f 2f fe 82 bf
       -0.15266596 0.12794168 0.78021026 -1.0233821
0002d0 9b 4c d4 3e 04 dc 56 3e 16 6d 8b 3e 74 9f bf be
       0.41464695 0.20982367 0.27231663 -0.3742634
0002e0 af d4 f5 3d 3b 1f b6 3d 1f bc 34 3e e5 49 89 be
       0.12003457 0.088926755 0.17649888 -0.2681419
0002f0 65 a1 0c bd d6 62 80 3d ca e9 0c bd 12 4d 7e bf
       -0.034333605 0.062688515 -0.034402646 -0.9933635
000300 97 df 38 3f 4d 42 ca 3e f2 f9 8c bd f2 05 c7 bd
       0.7221617 0.39503708 -0.06883611 -0.09717931
000310 23 95 3a be dd 3b f2 bd 0f 7c 3d 3e 18 8f 22 bd
       -0.18220954 -0.11827824 0.18504356 -0.039687246
000320 21 97 fc be 2b 38 7b bd ac 9c 3e 3e e0 0f 2a bb
       -0.49334052 -0.061332863 0.18614453 -0.0025949404
000330 e4 08 ac bd 74 9a 4e be 31 97 01 be 56 43 10 bf
       -0.08400133 -0.20176107 -0.12655331 -0.56352746
000340 34 94 85 be 24 63 20 3d d1 76 6e 3e 0c d1 05 3f
       -0.26089633 0.039157048 0.23287512 0.52272105
000350 c0 7f 09 bf c4 ab cb bd f3 72 3f be ae 38 a1 3e
       -0.53710556 -0.09944871 -0.18696193 0.31488556
000360 eb ce ce bd 87 6a 64 3d 5d 68 43 3e c2 5c 3c be
       -0.1009806 0.055765655 0.1908278 -0.1839476
000370 85 ea 36 bd 21 ff 70 3e 28 92 54 be 67 2a 28 bd
       -0.04465725 0.23534824 -0.20758879 -0.041056063
000380 59 6e 18 bf 62 fe 95 3e 0e cf b1 3e 83 f3 5e 3e
       -0.5954338 0.2929564 0.34728283 0.2177258
000390 06 22 21 be 5f 03 04 be 48 10 5d bf 8d b5 24 3f
       -0.15735635 -0.12891911 -0.8635297 0.64339525
0003a0 9e c9 d1 3e 5b b6 e3 3d 1f fd de 3d 62 08 d5 3d
       0.40974134 0.11118766 0.10888123 0.104019895
0003b0 66 2b 1a 3a 11 11 3c 3e 76 ea e1 bd f8 06 8e bf
       0.00058811007 0.18365885 -0.11031048 -1.1095877
0003c0 15 fc 90 3d 9e bd 10 be ed c8 29 3d 2b 32 4b 3d
       0.07079331 -0.14134833 0.041451383 0.04960839
0003d0 4c 0e 9a bd 89 ed 1e be 97 a1 17 be af 9d 8b 3d
       -0.07522258 -0.155203 -0.14807735 0.06817185
0003e0 e2 7a b1 bd 65 c1 55 3d 67 cf 8c be 1d 08 a4 be
       -0.08666016 0.05218639 -0.27501985 -0.3203744
0003f0 21 fd 4d be 00 ea d3 bd 0e 36 db 3d 84 25 47 be
       -0.20116092 -0.10347366 0.107036695 -0.19447905

bias f4 [224]
000000 e0 2b 02 3e b4 96 65 be 7a 40 00 bf df 94 a3 bf
       0.1271205 -0.2242077 -0.50098383 -1.2779807
000010 ac 6f af bd 73 b0 5b bd 8b ef e0 b5 2d e6 5b 35
       -0.085662216 -0.053635072 -1.6759017e-06 8.191881e-07
000020 45 18 1a bf e6 7d 40 be bd f3 89 be ee fb ab b6
       -0.6019328 -0.18798026 -0.2694377 -5.1255256e-06
000030 c7 e4 f5 3e b3 8b c0 bd ec 07 f7 be f7 fd df bd
       0.48026106 -0.094016455 -0.4824823 -0.10937112
000040 d1 c6 17 bd f6 cc 1b 3f 9a 80 19 bf 47 ae 98 3c
       -0.03705484 0.6085962 -0.59961855 0.01863779
000050 9d 8c d2 bd f1 c4 8d b6 30 b1 1c b6 13 56 db be
       -0.10280726 -4.2250545e-06 -2.3348948e-06 -0.42839107
000060 ef 28 9b 3c f7 a2 ca 3d 23 2e 48 bf ab df ff b6
       0.018940417 0.09894364 -0.781954 -7.6256306e-06
000070 a3 25 c2 3e 6b 80 f1 3e d4 a3 f7 be 6e 63 f4 3c
       0.3791934 0.47168288 -0.48367178 0.029832568
000080 f1 a4 0d 3f 1a 17 e5 be 03 b1 0b bf e3 05 59 3e
       0.55329806 -0.44744188 -0.54566973 0.21193652
000090 c5 c5 ec bd 82 c6 5d 3f 33 2d 3d bf 62 d7 b6 3e
       -0.11561159 0.86631024 -0.73897094 0.357112
0000a0 e0 29 7a be f2 b5 77 3e b1 85 45 bf 8e 88 26 3d
       -0.24430037 0.241905 -0.7715712 0.040657572
0000b0 20 33 8f bd a1 5d 6c bf 34 d6 51 3e 27 7d ea 3e
       -0.06992173 -0.92330366 0.20491868 0.4579861
0000c0 bc 65 44 be ee 67 44 bf d1 9b 22 b6 15 f6 9e 3e
       -0.19179434 -0.76721084 -2.4230578e-06 0.3104712
0000d0 0e 07 fb be 1a 66 05 bf 32 ed 88 be 64 50 cb be
       -0.4902882 -0.5210892 -0.26743466 -0.3970977
0000e0 81 fa fa be 02 d4 50 be a2 f0 f0 bd c3 96 4f bf
       -0.49019244 -0.20393375 -0.11764647 -0.8108942
0000f0 63 cb a0 3e 5b 23 20 be 2f f4 67 bf 1d 90 35 b5
       0.31405172 -0.15638487 -0.9060697 -6.7637467e-07
000100 7d 61 17 be 85 7f 9b be 1b 7a 33 be be f7 89 bf
       -0.14783283 -0.30370727 -0.17527048 -1.077873
000110 c9 95 2c be 51 cc 7a bc 72 61 cc 3e bb b8 e4 be
       -0.16854014 -0.015307502 0.39918095 -0.44672188
000120 2d b0 fc b4 71 ac 2e b6 9a 2e 60 bf 4e 5c e0 be
       -4.7066843e-07 -2.6028395e-06 -0.8757111 -0.43820423
000130 35 cd 61 bf 90 84 0e b6 52 23 ac b3 15 bd 8d be
       -0.88203746 -2.123681e-06 -8.015799e-08 -0.2768332
000140 d3 00 6a be 25 0b d3 be d3 ff e6 be 0d 3a 18 bf
       -0.22851877 -0.4121944 -0.45117053 -0.5946358
000150 4c 47 bc 3e fb ca 94 3e d0 27 a6 bf d8 9c b6 3e
       0.36773145 0.29061112 -1.29809 0.35666537
000160 1b 9d d3 3d 3c 6c 6b bd 41 fc f4 be 12 98 fa be
       0.103327 -0.057476267 -0.47848704 -0.48944145
000170 9a 07 8f be 9d 5f b6 bd ec 15 30 be 72 09 f1 3b
       -0.27935487 -0.089049555 -0.17195863 0.0073558623
000180 8c 7b e1 be 48 de 14 bf 86 66 b8 bd 16 bc 54 b5
       -0.4403957 -0.58151674 -0.0900393 -7.9249855e-07
000190 07 c1 15 bf 26 93 55 bf 46 46 88 be 39 06 ba be
       -0.5849766 -0.83427656 -0.26616114 -0.36332873
0001a0 1d 1f 47 3e 8b 2b 42 bd f4 5b 61 3c e5 ab 5e 36
       0.19445463 -0.047404807 0.0137548335 3.3180634e-06
0001b0 77 82 8a bf 6f 51 a5 bf 02 53 a0 3a dc 84 97 bf
       -1.0821065 -1.2915477 0.001223177 -1.183742
0001c0 7f a5 84 be d4 5f dc be 1b a7 70 bf eb c5 46 b7
       -0.25907513 -0.4304186 -0.9400498 -1.1847801e-05
0001d0 ad ae 4a bf 60 21 2e bf fc 3d 3f bf dc 03 e5 3d
       -0.79172784 -0.68019676 -0.74703956 0.11182377
0001e0 a1 b1 30 3e d8 e1 31 bf 73 2d 49 b6 60 7f c4 be
       0.1725526 -0.69485235 -2.997779e-06 -0.3837843
0001f0 cf 2c f3 bd f7 2b 90 b6 2b b2 4d b7 81 92 22 3e
       -0.11873781 -4.2966526e-06 -1.2260435e-05 0.158762
000200 07 cc 0d be f8 f8 4f bd 85 2f 08 bf c6 0e 26 be
       -0.13847362 -0.050774544 -0.5319751 -0.16216573
000210 8b 45 ad b7 6a f1 ef 3e 59 30 bd be cf 49 0f b5
       -2.065559e-05 0.46863872 -0.3695095 -5.3379057e-07
000220 d1 91 56 bf e2 98 a9 3d a8 75 ee be 5f 66 7f 3e
       -0.8381625 0.08281113 -0.4657414 0.24941395
000230 ea 13 20 b7 ca 0f 12 be 1f cd ef 3d 11 26 df 3e
       -9.54138e-06 -0.14263836 0.117090456 0.4358373
000240 e2 3b ba 3d c2 a2 e7 3d 30 b2 98 be a2 17 05 3b
       0.09093453 0.113103405 -0.29823446 0.0020308276
000250 07 93 01 35 82 d6 6a 3e b7 e8 83 bf c4 e5 d2 3e
       4.82702e-07 0.2293339 -1.0305394 0.41190922
000260 ea 1f 2b bf d5 6f 9e bf 76 96 28 b7 a3 8a f2 3d
       -0.6684557 -1.2377878 -1.0048612e-05 0.11842849
000270 df be 87 b4 0a c9 1b 3f be 66 4f bf 03 88 1c 3f
       -2.5284587e-07 0.60853636 -0.8101615 0.6114504
000280 3e 59 d3 b7 e4 0f 03 be 14 1e 49 bf c8 e3 c3 bf
       -2.5194717e-05 -0.1279903 -0.7856152 -1.5303888
000290 18 f0 9c 3c 86 f7 04 3e 19 e4 db be b8 36 8d bf
       0.019157454 0.12985048 -0.42947462 -1.1032324
0002a0 e9 f0 be be a4 11 38 bf 9f 6e bc 3e 51 af bd b5
       -0.37293175 -0.7190192 0.36803147 -1.4132621e-06
0002b0 cc 72 81 bf 9a 53 dc be 02 9d 3d be ee 1e b7 b4
       -1.0113158 -0.43032533 -0.18516925 -3.410891e-07
0002c0 97 56 9b 3d 3b 14 0a bf 55 de ce be ca 02 bf be
       0.07584875 -0.5393712 -0.40404 -0.37306815
0002d0 f3 e8 2a bf da f3 c0 3e 80 50 b6 bd 57 74 cc be
       -0.667617 0.37686044 -0.08902073 -0.3993251
0002e0 e3 4e e0 be 18 15 17 bf 43 65 a7 be 4b 81 16 3d
       -0.43810186 -0.5901656 -0.32694444 0.036744397
0002f0 e2 c5 8f 3c b0 1b da be 8b 2b 27 bf 26 86 f6 be
       0.017550413 -0.4259925 -0.65300816 -0.48149222
000300 ea b5 03 b7 8b 37 94 3d a8 37 80 3d 0a 5f d4 3e
       -7.850564e-06 0.072371565 0.062606156 0.4147876
000310 04 58 9b be ac 02 51 bf b6 60 01 be ce 68 82 be
       -0.30340588 -0.816447 -0.12634549 -0.25470585
000320 9c 0b 6f be 8b 3e 1d b5 61 a0 de be d5 57 a4 b6
       -0.23344272 -5.857807e-07 -0.43481734 -4.897806e-06
000330 fb 9a 12 36 40 1d 5c be d4 fd a9 3e 5a d0 11 b5
       2.1845906e-06 -0.21495533 0.33201468 -5.43199e-07
000340 1e c8 81 bf 34 7a 98 b7 91 f1 41 3d 75 21 29 3d
       -1.0139196 -1.8176717e-05 0.047349516 0.041291673
000350 3b 18 71 bf 1f d0 02 bf 1e 5b 93 bf f1 56 14 bf
       -0.941776 -0.5109882 -1.1512182 -0.5794516
000360 3a 8c d7 be 90 1f db 3e 14 0f a6 be 62 63 87 b6
       -0.42099172 0.42797518 -0.3243338 -4.034883e-06
000370 1e f9 99 3e 25 29 5e bf 8c 55 72 bf 83 53 04 b5
       0.30072874 -0.8678153 -0.94661784 -4.929536e-07

weight f4 [224]
000000 88 01 3b 3f 39 53 fe 3e 08 03 7b 3e 27 b3 af 3e
       0.7304921 0.4967287 0.24512875 0.3431637
000010 fd 3b 2c 3f 01 ea 38 3f 26 01 90 b8 dd 36 24 b9
       0.67279035 0.7223206 -6.866669e-05 -0.00015660697
000020 e0 e0 19 3f ad 65 aa 3e 60 3f db 3e 99 cd fe 38
       0.60108757 0.33280697 0.4282179 0.000121499594
000030 93 01 e0 3f 47 ce 18 3f c3 09 b1 3f 8b dc dd 3e
       1.750048 0.59689754 1.3831104 0.43332323
000040 44 88 20 3f 44 1b 59 3f 73 7c 28 3f 09 7a a8 3e
       0.62707925 0.8480723 0.65814894 0.32905605
000050 45 c0 94 3f 4e e7 5c 37 89 80 43 38 40 ac 09 3f
       1.1621176 1.3166877e-05 4.661133e-05 0.5377846
000060 ef 20 3d 3f 4d 3d d9 3e dd 99 03 3f 82 58 de b7
       0.7387838 0.4242958 0.5140665 -2.6505677e-05
000070 4e a9 4b 3f f0 c3 17 3f 42 d2 6b 3f eb c1 d1 3e
       0.79555213 0.5928335 0.921177 0.4096826
000080 db 3a 2e 3f 3c 30 06 3f e8 b8 16 3f af cb 85 3f
       0.68058556 0.5241735 0.58875895 1.0452784
000090 69 89 e7 3e a3 d8 30 3f 21 14 24 3f 1d 1d f1 3e
       0.45222023 0.6908056 0.64093214 0.47092524
0000a0 29 99 9f 3e 2e 37 5e 3f 05 30 8f 3e 2d 92 14 3f
       0.3117154 0.8680295 0.27966323 0.58035547
0000b0 67 c0 77 3f 55 2a e6 3e b8 4c f2 3e aa 07 12 3f
       0.9677796 0.44954172 0.47324157 0.57042944
0000c0 15 3d e3 3e 7f bb b7 3e 52 29 41 37 03 c3 54 3f
       0.4438254 0.35885236 1.1513317e-05 0.83110064
0000d0 5c 16 20 3f 04 36 17 3f 10 52 2d 3f 46 71 00 3f
       0.6253412 0.59066796 0.6770334 0.5017284
0000e0 86 7a 4b 3f ec 34 9c 3e 78 9a b9 3f 36 3b f0 3e
       0.7948383 0.30509126 1.4500265 0.46920174
0000f0 48 68 38 3f 3b 43 19 3f 5e 79 00 3f c4 58 cf 36
       0.7203412 0.5986821 0.5018519 6.1794144e-06
000100 ef 6c db 3e b7 21 02 3f e3 19 f7 3e 4b 7a bc 3e
       0.42856547 0.50832695 0.48261937 0.36812052
000110 bb dd 93 3e b0 1b f7 3e 65 d5 8d 3f 64 d5 35 3f
       0.28880104 0.4826331 1.1080748 0.71028733
000120 79 c0 59 37 e6 15 09 38 6f 2f c7 3e c1 53 fb 3e
       1.2979021e-05 3.268374e-05 0.38903376 0.49087337
000130 97 1b de 3e 9a 6f ab 37 ee cb ff b5 7f fd e4 3e
       0.43380424 2.0436757e-05 -1.9058332e-06 0.44724652
000140 87 77 92 3f b9 3e 2c 3e a5 10 a7 3e fe 3f 11 3f
       1.1442727 0.16820802 0.32629886 0.5673827
000150 41 5e 7e 3f 0b 04 e7 3e 91 98 eb 3e 90 e2 2d 3f
       0.9936257 0.45120272 0.46014836 0.6792383
000160 ca 31 1f 3f 20 66 0c 3f 90 85 b2 3e 4d 7a 4a 3f
       0.6218535 0.5484333 0.34867525 0.79092866
000170 67 f8 36 3f 30 0f 2c 3f a3 f9 3f 3f 64 dc 72 3f
       0.7147278 0.67210674 0.7499029 0.9486754
000180 22 d8 55 3f 41 0d b8 3e 25 8d 2e 3f 06 d5 d6 b7
       0.8353292 0.35947612 0.6818412 -2.5609985e-05
000190 30 df 68 3f ae 29 dd 3e 46 7d 1b 3f dc e6 27 3e
       0.9096556 0.43195862 0.6073803 0.1639666
0001a0 d9 84 f3 3e 5d ca a5 3e 5f d9 dc 3e 80 0b 47 39
       0.47562292 0.32380953 0.4313459 0.00018982403
0001b0 7f 93 e6 3e 73 f4 1d 3f fa 97 e0 3e 11 55 0e 3f
       0.45034406 0.61701125 0.4386595 0.5559855
0001c0 1a a5 0f 3f d7 ba 04 3f 2f b7 e4 3e 4e 49 c6 38
       0.561113 0.51847595 0.44671008 9.45503e-05
0001d0 85 12 d5 3e a5 d5 3c 3f c3 1f 16 3f da 5c 16 3f
       0.41615692 0.73763496 0.58642215 0.5873543
0001e0 09 90 09 3f 12 09 47 3f 79 a4 24 38 81 cf 52 3f
       0.53735405 0.77748215 3.9253824e-05 0.82347876
0001f0 89 bf 07 3f d9 20 d3 37 0e c2 8b 38 86 d8 82 3f
       0.53026634 2.5168456e-05 6.664182e-05 1.0222328
000200 76 ab fb 3d 87 be 3c 3f c5 fb 14 3f 3f 68 29 3f
       0.12288563 0.7372822 0.5819667 0.6617469
000210 12 1d da b8 0c 8d b0 3f 97 43 91 3e 10 80 8d 38
       -0.00010400465 1.3793044 0.2837188 6.7472574e-05
000220 f0 c6 2a 3f 2a 97 1b 3f 62 e3 83 3e 83 c6 0e 3f
       0.66709805 0.60777533 0.25759417 0.55771655
000230 64 22 b9 b8 21 dd 8b 3f 80 57 1f 3f be d3 43 3f
       -8.827893e-05 1.0926858 0.6224289 0.7649497
000240 d3 99 8b 3f b9 92 4b 3f af 44 09 3f 0d 6f 7d 3f
       1.0906318 0.79520756 0.5362043 0.98997575
000250 29 20 10 b9 b9 2f cf 3f 8a 87 c1 3e 0c 0f 21 3f
       -0.00013744891 1.6186439 0.3779872 0.62913585
000260 96 26 c6 3e 40 00 9d 3e 79 74 79 b6 1b 8a 8e 3f
       0.38701314 0.30664253 -3.7171687e-06 1.1135896
000270 53 a9 b9 b7 13 8f 21 3f ae 43 ee 3e 09 ee 31 3f
       -2.2132566e-05 0.6310894 0.4653601 0.6950384
000280 ec 8c 57 b9 0b ee d8 3e a8 29 b9 3e f3 ff 33 3f
       -0.00020556495 0.42369112 0.36164594 0.7031242
000290 af 6f 83 3f b1 dc 1e 3f 27 82 f7 3e 61 de a2 3e
       1.0268458 0.620555 0.48341486 0.31810287
0002a0 89 fd f1 3e 3a 11 d3 3e f5 e4 c2 3e 84 38 93 b8
       0.47263744 0.4122408 0.38065305 -7.020033e-05
0002b0 67 1f d4 3e ac a4 15 3f cc c1 2a 3f b7 0f ab 37
       0.41430208 0.58454394 0.6670196 2.0392106e-05
0002c0 d3 42 22 3f 18 16 cb 3e 11 3e 09 3f 92 16 0e 3f
       0.63383216 0.39665294 0.5361033 0.5550319
0002d0 64 5b 11 3f ed 92 44 3f 45 17 f3 3e 90 71 e3 3e
       0.56780076 0.7678669 0.4747869 0.4442258
0002e0 bb 2b e2 3e 18 40 1d 3f df 6b 1a 3f aa e1 25 3f
       0.4417399 0.61425924 0.6032085 0.6479746
0002f0 33 1a 19 3f 21 0b d6 3e cd 8e fe 3e 2c 77 10 3f
       0.598056 0.41805366 0.49718323 0.5643184
000300 54 24 30 b7 5d b9 8d 3e aa 32 25 3f 7e de c8 3f
       -1.0498876e-05 0.27680483 0.6453043 1.5692899
000310 b5 4f 58 3f fe 2c 3a 3f ac f7 09 3f 49 e3 07 3f
       0.84496623 0.727249 0.5389354 0.53081185
000320 0a 29 20 3f 17 da 3e b8 1f 73 0d 3f e0 9a 70 38
       0.6256262 -4.5502642e-05 0.55253786 5.7364698e-05
000330 23 99 04 b9 7e 29 91 3e 6d 1e b2 3f 96 1f b6 38
       -0.00012645549 0.2835197 1.3915535 8.6843196e-05
000340 62 ad 32 3f 3f da 66 39 6d 65 32 3f 9e bf 4a 3f
       0.6979581 0.00022015812 0.69686013 0.79198635
000350 60 11 96 3e 18 3f 1d 3f be 95 ad 3e 92 f2 16 3f
       0.2931013 0.614244 0.33903307 0.5896388
000360 71 14 0c 3f f3 ff ab 3f 3d 96 4b 3f e2 0f 26 36
       0.5471869 1.3437485 0.7952612 2.4745173e-06
000370 40 75 c4 3f 2c 8d c7 3e cb 4c fb 3e 6e d0 ae b8
       1.5348282 0.38974893 0.49082026 -8.3357896e-05

bias f4 [224]
000000 6c 69 91 3e e1 50 90 be 0c a5 11 3d 4a ff 9e 3d
       0.28400743 -0.28186706 0.03555779 0.07763536
000010 05 2d 7b 3c d5 45 6f bc d6 23 1b b9 08 0d 9a b9
       0.015330558 -0.014604052 -0.00014795302 -0.00029382878
000020 a6 f5 1f 3e 15 85 13 3e 33 89 41 3d 25 6b 53 39
       0.15621051 0.14406236 0.047249984 0.00020162443
000030 b0 31 2e bd 30 46 44 be 52 28 91 bd c6 b4 9f bd
       -0.042527854 -0.191674 -0.070877686 -0.07798152
000040 f2 54 bd 3e e0 9d fe bd 2c e6 e2 bd f4 d7 42 3e
       0.3697887 -0.12432456 -0.11079058 0.19027692
000050 c3 57 89 bc ff b6 8f 38 15 25 08 b8 7d 8c 68 3e
       -0.01676548 6.852857e-05 -3.2459462e-05 0.22709842
000060 6a 09 86 bc 7a 0e b0 3d 2f 98 28 3e 9d 14 21 b9
       -0.01636191 0.08596511 0.16464303 -0.00015361836
000070 0d 49 09 3f f2 7e b4 bd b8 2e 6d bd b3 75 95 be
       0.5362709 -0.088132754 -0.057905883 -0.2919136
000080 b3 d5 c5 bc ed 96 33 3d 81 4a 21 bc 38 f3 0a bc
       -0.024149751 0.043845106 -0.009844423 -0.008480839
000090 a8 c4 d5 3d 01 95 89 be ea ce 31 be 1d 25 44 ba
       0.104379 -0.26871493 -0.17364088 -0.0007482337
0000a0 03 20 33 3e 94 09 7b 3e 28 d2 e7 3d 89 87 e4 3d
       0.1749268 0.24515373 0.11319381 0.11158664
0000b0 dc 18 21 3e 84 f0 b9 3c 49 db fd be 8c 6e 11 3e
       0.1573214 0.022697695 -0.49581364 0.14202327
0000c0 9a 5c 61 be d3 02 ec 3d cc 15 60 b7 54 8f c3 3d
       -0.22007981 0.11523976 -1.3356515e-05 0.09548822
0000d0 3a ca 11 bc 1f e8 82 3e bf 86 2f 3d 20 ec 0e 3e
       -0.008898312 0.2556772 0.042853113 0.13957262
0000e0 6a 1a 02 bd fc ec a4 bd 3e 8c d6 bd 12 b5 4b 3d
       -0.03176347 -0.08053014 -0.10475968 0.04973323
0000f0 de 1e 79 3d f7 8d 25 3d 9c fe 75 3e 5e 65 a7 b8
       0.060820453 0.04041859 0.24022907 -7.982062e-05
000100 d9 85 80 3e 56 b0 cd bd fa 45 58 3e 6f 1f a0 3d
       0.25102118 -0.10043399 0.21120444 0.078184955
000110 cc 3e a2 3b 08 0f 42 bd d5 d2 89 be 35 90 1c 3e
       0.0049513336 -0.047377616 -0.26918665 0.15289386
000120 45 ed b5 37 c3 0a 62 39 53 a2 1f 3e 86 d4 9e 3d
       2.1687369e-05 0.00021557049 0.15589266 0.077553794
000130 1d c5 2d 3d 80 c2 87 b9 6b 48 59 38 51 f7 08 3d
       0.04242431 -0.0002589412 5.1804276e-05 0.033438984
000140 48 12 67 bd 70 ad a3 bc c2 45 7d be 93 a1 a1 3d
       -0.05641392 -0.019980162 -0.24733642 0.07892146
000150 18 49 25 be 8b 15 93 3e 70 ce 3d bc 96 9a 5f 3d
       -0.16141164 0.28727373 -0.011584863 0.054590784
000160 6f 9d 3b bd 4d ca 03 3d af 0a 09 3e 1e bb 8a 3e
       -0.045804437 0.03217535 0.13382982 0.27095884
000170 13 41 72 3e d5 6a 8a 3e 8b b8 8c 3d 99 03 3c bd
       0.23657636 0.2703463 0.06871136 -0.04590187
000180 90 07 a6 3e c8 0d 06 3e 55 5c 09 3e 5b 44 83 b7
       0.32427645 0.13091195 0.13414128 -1.5648247e-05
000190 71 85 a8 3e 13 2d 75 3d ac ea 6d 3e 6d e6 27 bc
       0.32914308 0.05985744 0.23234051 -0.010247809
0001a0 18 cd 90 3d 51 05 a5 3d 34 66 95 bd 01 47 80 36
       0.070703685 0.08057655 -0.07294884 3.822963e-06
0001b0 61 66 f9 3d 37 c6 5a 3e 3d cf a4 3e 74 98 a7 3d
       0.1217773 0.21364675 0.3218936 0.08183375
0001c0 56 cd 79 3d 09 8e bd 3d 01 d3 1a 3d a3 0d 16 b9
       0.06098684 0.09255607 0.037798885 -0.00014310195
0001d0 89 9f 0e 3c 7d 94 be 3d d3 ed a8 3e 05 d5 98 3e
       0.008705028 0.09305666 0.32993945 0.2985002
0001e0 93 75 5b 3e d6 94 61 3e 97 37 38 b9 d2 fd 7e bd
       0.2143157 0.22029433 -0.00017568316 -0.06225378
0001f0 ee f8 62 3e 38 b3 8a b8 dc 24 b3 b8 36 70 a9 bd
       0.22165272 -6.613735e-05 -8.542251e-05 -0.08273356
000200 79 12 05 be 5b 92 36 3e 1c b9 59 3e 65 6a 8a 3e
       -0.12995328 0.17829268 0.2126202 0.27034298
000210 07 6e 50 b9 cb b9 ed 3b 1a 64 52 3e 3c 9e c5 38
       -0.00019877414 0.0072548143 0.20545998 9.4231655e-05
000220 11 7d 6c 3d 3b 11 e9 3d ca 20 51 bd 2a 02 c3 3e
       0.05773646 0.113802396 -0.05105666 0.3808759
000230 78 55 4d 38 5c 31 11 3d 53 47 e8 bd 2c f8 9b 3e
       4.8955408e-05 0.035447463 -0.11341729 0.30462778
000240 6c 3e f7 3c 06 f7 85 3d 60 28 ff 3e d0 82 a9 3e
       0.030181132 0.065412566 0.4983549 0.33107615
000250 f1 93 e3 b8 b0 7b ab 3b 8a 5b 0f 3d 0f be b7 be
       -0.0001085176 0.0052332506 0.034999408 -0.3588719
000260 05 9d c2 bd ab 7a 25 bc 52 64 9b b9 26 3d 39 3c
       -0.09502605 -0.010100047 -0.00029638648 0.011306083
000270 89 a0 d2 b8 c9 89 78 3e 0a 32 86 3d b0 71 b2 bc
       -0.00010043482 0.24271311 0.06552513 -0.021782726
000280 16 79 23 b9 b3 af 51 bd b9 47 e5 3c b1 59 10 bd
       -0.0001559 -0.05119295 0.027988302 -0.035241786
000290 c6 06 c1 3d 83 b5 5d be 35 28 ae 3d 8b ec 10 3e
       0.0942512 -0.21651272 0.08503763 0.14152734
0002a0 77 86 91 3c d1 85 35 be 6e ee c1 bd ee df 8c 39
       0.017764313 -0.17726828 -0.09469305 0.00026869721
0002b0 35 2e d7 bd 38 5b 56 3e 21 79 b5 3e e0 38 b1 b7
       -0.1050686 0.20933235 0.35443977 -2.1126529e-05
0002c0 37 a8 73 3e 4f c6 58 be 26 c6 3a 3e 3d e4 8d bc
       0.23794638 -0.21169399 0.1823965 -0.017320747
0002d0 f8 a3 13 3e 44 19 db 3d eb 80 6a bd 25 b4 30 3e
       0.14418018 0.106981784 -0.057251852 0.1725622
0002e0 fb ed 8c be 9d 37 28 3e 70 eb ba 3e 7b fa db 3d
       -0.27525315 0.16427465 0.3650775 0.10741135
0002f0 b8 c3 d8 3e 4d 17 2b bd 92 3a 0e bd 85 b6 9f 3e
       0.42336822 -0.04177027 -0.034723826 0.3119394
000300 c8 52 ab 39 e5 56 da bd 7b 9f aa 3e 05 1e bf 3d
       0.00032677338 -0.10661105 0.333248 0.09331898
000310 2f 44 77 3d 02 6b 58 3e 09 c0 f7 3d 26 0f d9 3d
       0.06036776 0.2113457 0.12097175 0.105985925
000320 4c d3 c0 3d 37 e7 54 b8 40 97 dc 3d 59 6a 2d 39
       0.09415302 -5.0760074e-05 0.10771036 0.00016538183
000330 d8 a2 91 b9 88 ce 84 3e 8a 7d d4 3d 1d a0 1b 39
       -0.00027777883 0.2593882 0.10375507 0.00014841599
000340 cb af 21 3e df 63 b1 37 50 40 7b 3d fe 41 2a 3e
       0.15789716 2.114655e-05 0.06134063 0.16626737
000350 65 32 38 3e 2b ad cd 3d da 4b dd 3d 44 61 c3 3e
       0.17987974 0.10042795 0.10805483 0.38160145
000360 f8 09 15 3e 2e 41 85 3e 20 e7 be 3e 5d 3d bc b8
       0.14554584 0.2602629 0.3728571 -8.9759684e-05
000370 17 14 66 3e ab 1f 19 be 35 82 a2 3d c5 9f 96 38
       0.22468601 -0.14953487 0.07934991 7.182317e-05

running_mean f4 [224]
000000 c8 22 2e 3e e5 18 88 bd 86 72 71 bd 58 71 e8 bd
       0.17005455 -0.06645373 -0.05894711 -0.113497436
000010 54 49 e4 bc c8 95 08 3f 7b bf 6a 35 a6 13 13 b6
       -0.027866997 0.5335355 8.7450434e-07 -2.1916144e-06
000020 87 93 2d 3d c2 f5 9e 3e 2b 74 74 3c 06 da 03 37
       0.04237702 0.31046873 0.014920275 7.858971e-06
000030 ae b4 af 3e a0 b1 70 3b c8 f8 df bd cd ce 3d 3e
       0.34317535 0.0036726967 -0.10936123 0.1853592
000040 40 7e e4 3b d0 d6 05 3f c4 6e ba 3d c0 89 84 3e
       0.006973058 0.522809 0.09103158 0.25886345
000050 a0 8b 17 bd d0 aa f7 b6 a7 6b 6d 35 ce 25 a7 bd
       -0.03699839 -7.381059e-06 8.8446035e-07 -0.081615075
000060 6f 4c bf 3e 3d 6e f5 3e 46 11 c7 bd 51 36 46 34
       0.37363002 0.47935668 -0.097200915 1.8459947e-07
000070 88 a5 ba 3e dd e1 b0 3e bb 55 ec bd ce c1 d4 3e
       0.36454415 0.3454732 -0.11539789 0.4155411
000080 87 61 f3 3e f7 69 ed bd c7 97 3c bd 21 07 4a 3e
       0.47535345 -0.11592477 -0.046043184 0.19729282
000090 81 ee c8 3e a1 10 43 3f 29 41 1f 3e 73 d0 02 3f
       0.39244464 0.7619725 0.155522 0.5109932
0000a0 bc 25 3c bc 9b 10 61 3e a8 4d 18 be a0 08 16 3f
       -0.011483606 0.2197899 -0.14873374 0.5860691
0000b0 a8 f9 12 3d 6c 09 d8 bd 50 a0 e9 3e f3 f1 b7 3e
       0.035882622 -0.10548672 0.4563012 0.3592678
0000c0 75 9a 77 bb 37 0e d5 bd 1d 23 43 b5 40 c8 8a 3e
       -0.0037781273 -0.10403102 -7.269426e-07 0.27105904
0000d0 99 b0 b9 bd 05 65 c8 bd ef 27 ef bc 6f 31 52 bd
       -0.090668865 -0.09784893 -0.029193847 -0.051316675
0000e0 b1 1b ce bd df 1c 5a 3c 7a 24 14 bd c2 22 18 be
       -0.100638755 0.0133125475 -0.0361676 -0.14857009
0000f0 77 dc 5b 3e 42 56 04 3e 93 3b e6 bd 14 ef e1 35
       0.2147082 0.1292353 -0.11241832 1.6833387e-06
000100 fe eb a6 3e 4f f4 12 3e 32 f5 11 3e 05 05 ea bd
       0.32601923 0.14351009 0.14253691 -0.11426739
000110 cd cf a4 3e b1 eb b5 3e 11 5f 8c 3e 8f 95 06 be
       0.3218979 0.3553138 0.2741628 -0.1314299
000120 dd 25 2e b5 7b f2 c9 b4 93 34 8e bd b6 52 b9 3d
       -6.487515e-07 -3.7615595e-07 -0.069436215 0.09048979
000130 f1 e8 07 be 67 8d 4b b6 b3 cd d2 b4 20 28 5e 3d
       -0.13272454 -3.0331664e-06 -3.9265214e-07 0.054237485
000140 c4 11 ab bd 13 44 ce bc 26 bb 2e 3e 1f 6d 11 bd
       -0.08352998 -0.025178945 0.17063579 -0.035504457
000150 3c b1 85 3e 2d ad bd 3e 09 b7 ce bd 03 94 96 3e
       0.26111782 0.37046185 -0.10093505 0.294098
000160 74 19 b1 3d 5f a8 5b bc f1 83 92 bd c9 d3 e7 bd
       0.08647433 -0.013406842 -0.07154072 -0.11319692
000170 81 a9 7d 3d 06 56 f7 3c 1b d3 97 bc 3f 7f 0c 3d
       0.06192923 0.030192386 -0.01853328 0.03430104
000180 5b 73 f3 bd e6 33 e5 bd 25 2b d0 3d 5f 83 2d b6
       -0.11887237 -0.111915395 0.10164479 -2.5855477e-06
000190 0e 87 4a bd 20 39 26 be cd 46 b3 3d 60 58 08 3d
       -0.049445204 -0.16232729 0.087537386 0.033287406
0001a0 95 2b a7 3e c2 35 8e 3e 74 10 03 3e 89 d1 e2 36
       0.32650438 0.2777539 0.12799245 6.759718e-06
0001b0 37 ac 81 bd e9 2d 42 bb 89 91 dd 3c 0d f5 6c bd
       -0.063316755 -0.0029629415 0.027046936 -0.057850886
0001c0 61 65 9a 3d 93 6d 04 be 7a 3d a4 bd dc 32 7a 36
       0.07538868 -0.12932424 -0.08019538 3.7282507e-06
0001d0 d5 b3 a4 bd c1 56 ec bd a2 d8 69 bd 26 04 90 3e
       -0.08042113 -0.115399845 -0.057091363 0.28128165
0001e0 ca 6e e7 3e e5 94 1a be 03 50 e6 34 a0 ba 01 be
       0.45201713 -0.15095861 4.2899055e-07 -0.12668848
0001f0 b8 3c c9 3d 5b 80 ac b6 6d fd 20 b7 29 47 c6 3d
       0.09826034 -5.140942e-06 -9.595748e-06 0.096815415
000200 94 cf d3 3d 7a bf 05 3e 3a 68 ff bd 75 ad 62 3e
       0.10342327 0.13061324 -0.124710515 0.22136481
000210 a1 53 af 36 5d cb a8 3e be f0 51 bd 13 ae f0 b5
       5.225142e-06 0.32967654 -0.05125498 -1.7932056e-06
000220 53 5c 62 bd 88 8c bf 3e f9 c0 82 bd 05 19 7c 3e
       -0.05526383 0.37411904 -0.06384463 0.24618919
000230 b7 1e 0e b7 ee 58 3f 3d 0f 23 9a 3e 2c 40 4c 3f
       -8.471011e-06 0.04671567 0.30104873 0.7978542
000240 27 5f 8c 3d 0f a2 8c 3d 3a 9f ae 3d 40 7a eb 3c
       0.06854086 0.06866848 0.08526464 0.028744817
000250 68 a5 e6 b5 b8 49 23 3e 7d 3e 09 be 70 d9 d1 3e
       -1.7184475e-06 0.1594609 -0.13402744 0.40986204
000260 8d 11 18 be 05 be ea bd b8 c5 a1 b4 4f a7 9b 3d
       -0.14850445 -0.114620246 -3.0132446e-07 0.07600271
000270 d5 40 f0 b4 db 0c 20 3f a4 a1 13 be db b3 03 3f
       -4.4750655e-07 0.62519616 -0.1441713 0.5144631
000280 31 2c d7 36 ec 60 81 3d b9 25 7b bd 08 ce 29 bd
       6.412644e-06 0.063173145 -0.061315272 -0.041456252
000290 71 c8 5b 3d eb 65 e5 3e b5 42 0d 3e 6c 96 d3 bd
       0.053657953 0.4480432 0.13794978 -0.10331425
0002a0 60 f0 cc 3d 3e 0c 89 bd 85 0a 28 3f 53 72 a2 36
       0.100067854 -0.06691788 0.6564105 4.8412853e-06
0002b0 3a b1 57 bd d4 be 37 3e a8 b0 12 3e eb f2 f1 b4
       -0.05265925 0.17943889 0.14325202 -4.5066494e-07
0002c0 03 21 c2 3e fe 29 6a bd ec 64 1c 3e 66 e9 a2 bd
       0.3791581 -0.057168953 0.15272874 -0.079546735
0002d0 e8 56 1a be c5 3a f8 3e 13 92 7b 3e da cb 54 bd
       -0.15072215 0.48482338 0.24567442 -0.05195222
0002e0 a3 aa 23 3e f8 74 90 bc 14 f8 07 bd 19 75 5d 3d
       0.15983061 -0.0176339 -0.03319557 0.05406675
0002f0 f2 b3 32 3e 5f bf b5 3c 18 14 ec bd a4 27 f3 bd
       0.17451456 0.02218598 -0.1152727 -0.11872795
000300 2a f5 c2 b6 9e 3e 73 3e e8 6d 0d 3e 75 64 95 3e
       -5.8101914e-06 0.23754355 0.13811457 0.29178205
000310 78 9e cf bd 38 46 08 3c 66 92 a2 3e cd c3 6f bd
       -0.101376474 0.008317523 0.31752318 -0.05853634
000320 ce 74 e6 bb 41 ea 00 b6 a0 70 f7 bd ec 95 48 b6
       -0.007032967 -1.920984e-06 -0.120820284 -2.9889588e-06
000330 50 87 0c b6 1f 3a d6 3c e8 23 5e 3e 75 d0 85 35
       -2.0940388e-06 0.026150761 0.21693385 9.969941e-07
000340 f6 17 2c bd 5d d5 32 36 7d 33 c2 3e 96 1f e8 3e
       -0.04201504 2.664826e-06 0.37929907 0.45336598
000350 3a e1 d8 bd 6e 91 d9 bc 9a c1 00 be 99 d6 13 bd
       -0.105898336 -0.026558604 -0.12573853 -0.03609333
000360 80 1c bf bd 2a 42 b2 3e 6d 7f ab bd 93 eb 38 b6
       -0.09331608 0.34816104 -0.08373914 -2.7555259e-06
000370 5c 79 6a 3e cf 12 d0 bc bb 8c cd bd 85 c5 4f 36
       0.22897857 -0.025399594 -0.10036608 3.0960375e-06

running_var f4 [224]
000000 93 90 a3 3d 63 de 2e 3c 47 7d a3 3c 24 fa 15 3b
       0.0798656 0.010673138 0.019957198 0.002288469
000010 63 e8 b4 3b 71 bc 97 3f ac 3a 7d 34 49 72 95 35
       0.0055208667 1.1854383 2.3583806e-07 1.1134626e-06
000020 0f f4 e0 3d 9b bb 15 3f 01 13 55 3d 31 4d d0 35
       0.109840505 0.5848939 0.052020077 1.5519673e-06
000030 87 8b f8 3c ca 46 9d 3c 67 1c 47 3c 8d 62 b6 3e
       0.03033997 0.019198794 0.012152768 0.35622063
000040 78 b0 8c 3c 33 ba 36 3e 17 41 63 3e d1 f9 62 3e
       0.01717399 0.17844467 0.22192799 0.2216561
000050 a3 65 8e 3b 87 aa 41 35 35 d5 9c 33 8f c8 55 3c
       0.004345612 7.214625e-07 7.303098e-08 0.013048305
000060 41 c8 c0 3e b7 e8 19 3f c4 2b 71 3c 3e f2 9f 34
       0.37652782 0.6012072 0.014719907 2.9792312e-07
000070 88 4f 6c 3e 58 a0 4b 3d 2d af 12 3c 05 0b 16 3f
       0.23077214 0.049713463 0.008952898 0.58610564
000080 82 66 71 3e 7d ea 73 3b 91 18 45 3d 67 43 17 3e
       0.2357426 0.0037218623 0.04811913 0.14771806
000090 e8 25 31 3f 4d 16 6c 3e fa eb 8e 3e 33 84 d7 3e
       0.69198465 0.23055382 0.2791441 0.42093047
0000a0 58 08 35 3d 94 cd ca 3d 5d 03 c4 3a ef d5 98 3f
       0.04419741 0.09902492 0.0014954616 1.1940287
0000b0 19 73 40 3d 5b 1e 77 3c 8d 20 a2 3e 4a 70 d8 3d
       0.046984766 0.015082921 0.3166546 0.105682924
0000c0 49 d3 91 3d 44 1c 4f 3c 07 47 7e 33 02 aa 1a 3e
       0.071203776 0.012641016 5.9203582e-08 0.15103915
0000d0 f4 54 09 3d 6b e8 55 3c ff b8 03 3d 4b b9 3c 3d
       0.033528283 0.013055901 0.032158848 0.046075147
0000e0 ab 34 22 3c 70 a9 87 3d e2 97 f4 3b 60 09 c3 3a
       0.009900252 0.066241145 0.007464395 0.0014880113
0000f0 62 a8 13 3d 53 b8 1f 3e 3d 8d 21 3c bb 4f a4 33
       0.036049254 0.15597658 0.009860334 7.651348e-08
000100 a6 d3 27 3f 22 e3 16 3e c9 4c 67 3e 42 49 ac 3b
       0.65557325 0.14735082 0.22587885 0.0052577564
000110 d3 f5 06 3f 29 a3 ea 3e 2e 8d c4 3c d1 0b 16 3b
       0.5271885 0.45827606 0.023993101 0.0022895227
000120 5e a2 c3 32 8d a0 92 34 59 ea 58 3c ba be 53 3e
       2.2774824e-08 2.7311435e-07 0.013239467 0.20678225
000130 40 c5 af 3b 90 78 68 34 6e 44 72 31 e4 5c c4 3d
       0.00536409 2.1650544e-07 3.5254533e-09 0.0958803
000140 d5 e5 33 3b af 97 0a 3d 51 3a c2 3e d6 91 32 3d
       0.0027450223 0.033836063 0.37935117 0.04359611
000150 e3 d8 2b 3d 2f 61 9c 3e af db d7 3b 75 82 18 3e
       0.041954886 0.30542895 0.0065874676 0.14893515
000160 1f 54 cd 3c 69 8b 0c 3c 35 5d 23 3d be 25 31 3c
       0.025064526 0.00857816 0.03988381 0.010812221
000170 91 e0 63 3d 29 eb 70 3d 18 b5 9c 3c 6e 52 07 3d
       0.055634085 0.058818016 0.019129321 0.033037595
000180 7e b9 a1 3b 0a 37 e1 3b f8 20 79 3d 92 dc 4e 34
       0.0049354425 0.0068730162 0.060822457 1.9265488e-07
000190 73 7d 34 3d e6 de 4c 39 5a 43 7c 3d 2c f1 ff 3d
       0.04406495 0.00019537992 0.06158767 0.12497172
0001a0 f9 d5 7e 3e f4 a4 94 3e 9a 3e 00 3e 7c 49 ae 34
       0.24886312 0.290321 0.1252388 3.2463493e-07
0001b0 05 dc 1b 3d 69 d9 c7 3d b8 cc b6 3c c9 90 bd 3c
       0.038051624 0.097582646 0.022314414 0.023140328
0001c0 51 d1 a3 3d ce 02 2a 3b ab 8b 00 3d 1c ec 10 36
       0.07998908 0.0025941613 0.031383198 2.1595106e-06
0001d0 a2 91 9d 3c 02 2d b9 3c 1d a8 96 3c 32 6d c9 3e
       0.019234482 0.02260447 0.01839071 0.39341122
0001e0 5e 4c 26 3f c0 ee e2 3a 22 6f 0e 34 f0 a8 94 3a
       0.6496028 0.0017313585 1.326521e-07 0.0011341851
0001f0 88 6a ba 3d 7e 6e 44 35 8f f6 95 36 73 8e 0d 3c
       0.091023505 7.3176477e-07 4.4692492e-06 0.00863992
000200 f2 cc b8 3d fe 09 88 3d 74 7f 37 3b 41 98 d4 3e
       0.09023465 0.06642531 0.0027999552 0.4152241
000210 b0 dc 6e 36 73 9e 97 3c 65 81 d2 3c cf bb de 33
       3.559322e-06 0.018508172 0.025696466 1.0371843e-07
000220 da fd 3a 3d 38 f0 10 3f 2d 5d 2d 3d b4 21 b9 3d
       0.045652248 0.56616545 0.042325187 0.090396315
000230 20 c2 0d 35 71 71 03 3e 7b c7 c1 3e 67 42 5d 3f
       5.280908e-07 0.12836243 0.37847504 0.86429447
000240 ee 26 79 3c eb 58 e7 3b 7f e6 1f 3e 1c 76 97 3c
       0.0152070355 0.0070601604 0.15615271 0.018488936
000250 35 d2 bb 34 1c 5d e0 3c 0f 89 0e 3b f6 92 aa 3e
       3.498441e-07 0.027388148 0.0021749174 0.33315247
000260 4b fc b4 3a b3 25 15 3b 34 7a 1c 35 90 cc 4d 3c
       0.0013808099 0.0022758066 5.829236e-07 0.0125609785
000270 e4 d1 a2 32 9e 46 df 3e f0 e4 cf 3a 23 b6 fa 3d
       1.895473e-08 0.43608564 0.0015861075 0.12241771
000280 56 9c 90 36 fc 02 c6 3d 84 e1 0b 3d 10 cf 12 3d
       4.3097343e-06 0.09668538 0.034150615 0.035842
000290 39 e8 fe 3c 7d 3c d7 3e cc f6 0c 3e a6 7e 78 3c
       0.031116592 0.42038336 0.1376602 0.015166914
0002a0 54 76 55 3e 23 83 14 3d 51 4b 36 3f cb 09 eb 34
       0.2084592 0.036257874 0.71208674 4.3779286e-07
0002b0 0b e4 26 3d 0a a1 85 3e 65 44 f1 3d b4 eb 72 33
       0.040744822 0.26099426 0.11780623 5.6559387e-08
0002c0 0f 63 16 3f aa d0 73 3c fe 27 30 3e 7f 46 83 3c
       0.587449 0.014881292 0.17202756 0.016024826
0002d0 e5 58 e0 3a 7e 5a 67 3e ff d1 e7 3e 82 52 0f 3d
       0.0017116336 0.22593114 0.45277402 0.034990795
0002e0 b2 10 81 3e 23 86 3e 3d 2d b4 f8 3c e8 89 d0 3c
       0.2520805 0.04651464 0.030359352 0.025456384
0002f0 d9 bc e8 3d 33 48 d4 3d 4f 3b 00 3c 2d 45 c2 3b
       0.11364145 0.103653334 0.00782664 0.0059286566
000300 38 ef a6 35 9f 26 7c 3e 55 26 c0 3d 0f 2f 27 3d
       1.2437586e-06 0.24624108 0.09382311 0.040816363
000310 41 01 63 3b 49 37 3b 3d cd 71 e0 3e 12 db 77 3c
       0.0034638199 0.04570702 0.43836823 0.015127914
000320 fe 76 d4 3c 0b d6 a0 33 12 08 89 3b dc 99 c6 34
       0.025935646 7.489515e-08 0.0041818703 3.699232e-07
000330 a3 63 86 35 14 80 a4 3d ee 93 4f 3c a4 d6 25 34
       1.0012776e-06 0.080322415 0.0126695465 1.5444908e-07
000340 bd 97 a2 3c 15 4b c1 35 35 c9 1b 3f 35 90 fc 3e
       0.019847745 1.4401472e-06 0.6085389 0.4932877
000350 61 76 4f 3c 80 73 8d 3d 2a 25 e0 3a 2d f3 94 3d
       0.012662501 0.069067955 0.001710092 0.072729446
000360 62 6f 6b 3c aa 4e 34 3e c0 a3 0c 3c ba f8 ba 33
       0.014369817 0.17608133 0.008583963 8.706543e-08
000370 c5 eb 5b 3d 4a 49 80 3d 1d 64 b6 3b 33 9f fb 33
       0.053691644 0.06263979 0.0055661337 1.17170565e-07

weight f4 [192, 224]
000000 08 48 26 be 3d 2a c3 3c 61 3d c4 bd c0 e0 6d bc
       -0.16238415 0.023823852 -0.095820196 -0.014518917
000010 cf f3 ad bd 0e c4 c5 3c e6 fc 29 39 fd e6 27 39
       -0.084937684 0.024141338 0.00016211308 0.00016012411
000020 10 7f cf bd d2 2c 85 3d ce 0f d6 bd 78 4b 74 b9
       -0.10131657 0.065026894 -0.10452233 -0.00023297768
000030 51 17 5a be d0 5d 67 bd 68 e9 83 3d e8 6e 08 3e
       -0.21297957 -0.05648595 0.06441003 0.13323557
000040 d1 fa 02 3e 9b 74 d6 bd 93 44 2b bd 6d 65 a3 bd
       0.12790991 -0.104714595 -0.041813444 -0.0797833
000050 ed ad 36 3e 63 de 4f b8 4e 3a 14 b9 0f e0 df bc
       0.17839785 -4.955976e-05 -0.000141361 -0.02732852
000060 22 85 36 be 4f 81 2b bd 00 3f 21 be a0 ef 0f b9
       -0.17824224 -0.041871365 -0.15746689 -0.0001372681
000070 f2 97 2b 3e e6 06 da bb 1f c9 a1 bd 9e b8 95 bd
       0.16757181 -0.0066536544 -0.07899689 -0.073106036
000080 bd fb f3 3c b8 6e 9e 3d 55 6d 9f 3c 76 1f 06 3d
       0.029783124 0.07735962 0.019461313 0.032744847
000090 1f 0d 15 be 44 bf 65 3e db 1e f0 bb d2 39 af bd
       -0.14555787 0.22436243 -0.007327897 -0.0855595
0000a0 be 76 a8 3c d5 10 0b be be 5b 23 bd b5 b2 e2 bd
       0.020564433 -0.1358064 -0.039882414 -0.11069242
0000b0 89 9e ea 3d 54 42 cd 3c 63 2d a4 bd f7 85 8f bd
       0.114560194 0.025056042 -0.08016469 -0.07007974
0000c0 25 92 42 bd ff 4f 23 3e 8c 4e b9 39 e3 e2 e2 bd
       -0.047502656 0.15948485 0.00035344472 -0.110784315
0000d0 cb 1f 88 3d 76 44 45 3d 8e 48 07 be 85 b8 4a bd
       0.06646689 0.048160993 -0.13211271 -0.049492378
0000e0 04 03 94 bd b8 04 2e bd b3 47 08 be a3 1d bf 3e
       -0.07227138 -0.04248497 -0.13308601 0.373273
0000f0 74 44 7f 3d f5 d9 41 bc 63 1b 88 bd a0 3a da b8
       0.06232114 -0.01183175 -0.066458486 -0.0001040597
000100 9b 89 df bd 41 3d 8c bc 62 cb f2 3d f8 ba 19 bc
       -0.10914918 -0.017119052 0.118551984 -0.009382956
000110 ea e5 46 bc 43 ab 84 be 62 ea 2f 3e 8f db 8e 3d
       -0.012139777 -0.25911912 0.17179254 0.06975471
000120 9b b9 be 38 fb 67 7c 39 ae 98 2e 3d 4d f3 81 3b
       9.094478e-05 0.00024071329 0.042626075 0.0039657713
000130 bf d7 96 3c b7 02 2c b8 50 30 85 b8 76 1c a2 bd
       0.018413423 -4.1010524e-05 -6.350933e-05 -0.07915585
000140 40 5c 0d 3e db f6 06 3d 3d 52 40 be 91 c6 03 bd
       0.13804722 0.032950263 -0.18781371 -0.03217179
000150 ff 8e bd bd 04 9a 4f 3d 7b fc 56 bd e9 97 b6 bd
       -0.0925579 0.05068399 -0.052486878 -0.08915693
000160 1f d7 bf bd f0 e6 f6 3c 7f d6 07 be 10 a2 54 bd
       -0.09367203 0.030139416 -0.13265418 -0.051912367
000170 f8 1c c7 3d 0b aa 0c 3e 3d b6 55 be 90 c1 8f 3e
       0.09722322 0.13736741 -0.208703 0.28077364
000180 e8 ac ee bc 1f 0a fe 3c 70 86 db bd ef 19 80 b9
       -0.029135182 0.031010685 -0.10719001 -0.00024433385
000190 5a 04 df bd f3 95 07 3d ef 22 9b 3d 03 b6 4d 3d
       -0.10889502 0.033101987 0.075750224 0.050222408
0001a0 e2 2d 14 3d 46 ea a1 3c 70 fb 2b 3c 7f 7a a5 b8
       0.03617657 0.01976503 0.010496959 -7.89063e-05
0001b0 bd a8 3e 3d 27 75 95 bb af 9b 41 bd a1 42 3e 3e
       0.04654764 -0.004561085 -0.047267612 0.18580104
0001c0 e3 09 21 bd 58 ca 89 bd 6b a0 62 bd 90 9d 36 b9
       -0.03931607 -0.06728047 -0.055328768 -0.00017415569
0001d0 a1 76 29 3d 77 6f 90 bc da 30 90 bb c4 be a9 bc
       0.0413729 -0.017631276 -0.004400355 -0.020720847
0001e0 72 5e c5 bd be 1d 46 bc 59 24 00 b9 17 8b 85 3d
       -0.09637155 -0.012092052 -0.00012220572 0.0652067
0001f0 25 73 c0 3d 85 69 06 b9 38 e8 8e b8 02 c7 92 3d
       0.09396962 -0.00012818545 -6.814342e-05 0.07166864
000200 1a 99 28 3d 6a 12 31 3e 7a e3 4d bd ed fe 18 3d
       0.041161634 0.1729218 -0.050265767 0.03735249
000210 18 97 7e 39 52 94 92 3d 8e 89 3b bd 2f 8b 5f b9
       0.00024279614 0.07157196 -0.04578548 -0.00021318787
000220 9a 21 bd 3d b3 62 d6 3c c7 35 b7 bd f4 da aa bd
       0.092349246 0.02617011 -0.08945804 -0.08342543
000230 e6 8b 7a b9 c4 1c 53 3e 67 22 3b 3e 7d fa 82 bc
       -0.00023893974 0.20616442 0.18274842 -0.015988583
000240 43 96 f1 3c b0 64 22 be 64 96 22 3e ff ab 7c 3b
       0.029490596 -0.15858722 0.15877682 0.0038554666
000250 93 67 9f 39 8c 4f d4 bb df 1e c0 3c 7e 78 75 3d
       0.00030404012 -0.0064792093 0.02345222 0.059929363
000260 7e b0 fa 3c e5 6f 3c bd 80 9d 19 b9 f0 b5 85 3d
       0.030601736 -0.04600515 -0.0001464989 0.065288424
000270 1f 66 84 39 42 b5 9b 3e 50 9f 83 3d 66 c5 f3 3d
       0.00025253088 0.30411726 0.06426871 0.11902885
000280 09 4e 7a 3a 8b 1b 99 bd fd dc 43 3d f7 02 d3 bc
       0.00095483713 -0.074759565 0.047818173 -0.02575825
000290 48 9b 83 3c 91 64 99 bd dd 6b a2 bd fb 06 21 be
       0.016065255 -0.07489885 -0.079307295 -0.15725319
0002a0 7a b5 dc 3b 75 b4 30 be 3f a1 52 be 8a db 5f 39
       0.006735501 -0.17256339 -0.20569323 0.00021348722
0002b0 36 99 39 bc eb 65 61 3c 85 af 2c 3e 51 38 07 b8
       -0.011328032 0.013757209 0.1686383 -3.2238957e-05
0002c0 5b 82 96 3d 1f 68 01 bd 8e 84 d9 3d 2e e1 39 3d
       0.07349082 -0.03159344 0.10620986 0.045380764
0002d0 32 be 74 bd 06 77 35 3c 8b c1 d1 bd 0f 5f 83 bc
       -0.059751697 0.011075741 -0.102419935 -0.016036538
0002e0 50 6e 97 bd ea ee 9e bd be 68 d8 bd 9b 42 00 3e
       -0.07394087 -0.07760413 -0.10566853 0.12525408
0002f0 58 60 c4 3d ef 76 a3 3a e4 a6 74 be 59 1b 6b bd
       0.095886886 0.0012471358 -0.23891789 -0.057399128
000300 27 e7 0e 39 d0 ea 57 3d df ce ae 3d fa e2 42 be
       0.00013628286 0.05271417 0.08535551 -0.19031897
000310 33 e4 3a 3e 7b ef 52 3b 2b 46 0a 3a bb f6 fc 3d
       0.18251114 0.0032186199 0.0005274738 0.123517476
000320 70 13 00 ba c5 e0 8a b8 b4 b9 c5 bd ff 3d 48 b9
       -0.0004885709 -6.6222194e-05 -0.09654561 -0.00019096582
000330 f7 68 cd b9 a2 96 07 3e cb 65 f5 3d 6d 68 34 39
       -0.00039178852 0.13241056 0.11982306 0.0001720504
000340 db f8 81 bd c1 cc 77 b9 d3 2f 2e 3d 48 ec cb 3d
       -0.063462935 -0.00023632032 0.042526077 0.099571764
000350 f1 02 c6 bd aa 23 b4 3d 4f 65 6f bd 80 8d 02 bc
       -0.0966853 0.08795865 -0.058446225 -0.007968307
000360 61 f1 0e bd 0f 9e 19 3d e5 1a 32 bd e8 34 67 37
       -0.034898166 0.037504252 -0.04348268 1.3780991e-05
000370 ab 9b 71 bd 87 e2 6d bd 4e f2 65 3d b2 74 bc 39
       -0.058986347 -0.05807736 0.056139283 0.000359451
000380 8b 00 ba bd a0 08 5d 3c 7b 71 8c bd c6 e6 2b 3e
       -0.09082135 0.013490826 -0.06857582 0.16787252
000390 40 a6 c5 bd 59 8d 67 3d c7 78 c1 b5 1f e0 ba 39
       -0.0965085 0.056531284 -1.4414771e-06 0.00035643668
0003a0 cd cb 9a 3d 75 00 b9 3d 48 19 d4 bd 7a fe cc 39
       0.07558403 0.0903329 -0.103563845 0.00039099512
0003b0 c0 40 db bc 81 02 a2 bc 2f 18 89 3d 42 77 19 be
       -0.026764274 -0.019776585 0.06694066 -0.149869
0003c0 ce cc 7b bc 68 57 d4 bc 6f 00 21 bb 48 64 fb 3c
       -0.015368653 -0.025920585 -0.0024566909 0.030687466
0003d0 d6 0d 5d 3c 73 c4 e7 b8 f3 e3 13 39 47 58 21 bd
       0.013492068 -0.0001105153 0.0001410393 -0.03939083
0003e0 48 b4 bd bd 1f 36 83 3c f4 52 70 3d 79 15 71 39
       -0.092629015 0.016017018 0.05867286 0.0002299155
0003f0 fc 86 35 be 35 4e 10 be 81 2f 08 be 20 ac a8 3c
       -0.17727274 -0.14092334 -0.13299371 0.020589888

weight f4 [192]
000000 de bd 15 3f f4 ae dc 3e 1b a7 62 3f 8b a4 05 3f
       0.5849284 0.4310223 0.8853623 0.522042
000010 57 92 32 3f f7 91 d9 3e e7 4f 32 3f 48 9e 1d 3f
       0.69754547 0.42494175 0.6965317 0.61569643
000020 2e 02 b7 3e dd 77 ad 3f 7d f1 16 3f 24 b1 d7 3e
       0.3574385 1.3552204 0.5896223 0.42127335
000030 99 98 2b 3f 81 31 ee 3e 70 45 1a 3f 32 45 ce 3e
       0.6702972 0.46522143 0.60262203 0.40287167
000040 a3 b3 1a 3f e7 cf d9 3e 68 ae b2 3e ad 42 b8 3e
       0.60430354 0.4254143 0.34898686 0.3598837
000050 b1 b7 65 3f 85 2a 01 3f 05 b0 05 3f 40 97 2b 3f
       0.89733416 0.50455505 0.5222171 0.67027664
000060 79 4e 07 3f b3 c3 1a 3f eb 60 59 3f 49 0e 0d 3f
       0.52854115 0.60454863 0.8491351 0.5509992
000070 36 de c9 3e a5 9e d6 3e dd c8 d4 3e d7 28 dc 3e
       0.39427346 0.4191791 0.41559497 0.42999908
000080 b3 a2 db 3e 35 1d 00 3f ce 9d 3a 3f 98 d6 07 3f
       0.42897567 0.50044566 0.7289704 0.5306182
000090 90 b1 e4 3e ca ea 25 3f 89 d5 0f 3f 0a 47 d1 3e
       0.4466672 0.64811385 0.56185204 0.4087451
0000a0 e7 e8 c5 3e fc ca 05 3f 18 34 0a 3f 7c 77 e4 3e
       0.38654253 0.52262855 0.5398574 0.4462241
0000b0 bc 84 f8 3e bb 25 c4 3e ac ac 82 3f 4c 0f 01 3f
       0.48538768 0.38310036 1.0208945 0.50413966
0000c0 1d 38 20 3f 67 1e ee 3e 87 b7 0d 3f 63 33 1d 3f
       0.6258562 0.4650757 0.55358166 0.61406535
0000d0 11 20 5e 3f dd 69 b6 3e b8 63 86 3e 50 e9 1e 3f
       0.8676768 0.35627642 0.26247954 0.62074757
0000e0 e6 2f cf 3e 07 54 10 3f 24 5d 58 3f 0f b9 e8 3e
       0.4046623 0.56378216 0.8451712 0.45453689
0000f0 5d 18 00 3f b3 01 b2 3e 47 4f 0e 3f 96 07 d3 3e
       0.50037175 0.3476692 0.5558972 0.41216725
000100 d7 a4 2e 3f d3 53 98 3f 8b 1e 25 3f ce b6 f3 3e
       0.68220276 1.1900581 0.6449973 0.47600406
000110 27 36 26 3f c8 43 bd 3e 48 a9 10 3f 7e ae 1c 3f
       0.6492638 0.36965775 0.565083 0.61203754
000120 e0 37 ff 3e 54 9b fa 3e 59 70 23 3f 30 ad d2 3e
       0.49847317 0.4894663 0.63843304 0.41147757
000130 54 eb c8 3e 7e b8 32 3f 1d 8f cc 3e 65 5d ec 3e
       0.3924204 0.6981276 0.39952937 0.46165004
000140 cb 7d 73 3f 15 1e 20 3f d7 69 cd 3e 0f d2 e2 3e
       0.9511382 0.625459 0.40119812 0.44300887
000150 3b bd cc 3e 24 62 1c 3f 27 08 df 3e d7 07 f7 3e
       0.3998812 0.6108725 0.43560907 0.4824817
000160 73 87 fd 3e 9c bc ec 3e ed 8c fe 3e 03 92 04 3f
       0.49517402 0.46237648 0.49716893 0.51785296
000170 4f 53 11 3f ef 1f c9 3e 85 70 ff 3e 04 ce c5 3e
       0.56767744 0.39282176 0.49890533 0.3863374
000180 09 d8 f3 3e 7f 59 06 3f 53 2f d6 3e e9 b6 ee 3e
       0.4762576 0.5248031 0.4183298 0.46623924
000190 3b c0 d9 3e 74 97 6c 3f 99 b2 1a 3f 39 3f 22 3f
       0.42529473 0.924186 0.6042877 0.6337772
0001a0 ed bd 81 3f 43 c1 57 3f 21 73 25 3f d0 38 e5 3e
       1.0136086 0.8427927 0.646288 0.44769907
0001b0 2a f5 fb 3e ff 2e 05 3f 23 58 b5 3e 51 4d 04 3f
       0.49210483 0.52024835 0.35418805 0.51680475
0001c0 cd 16 1d 3f d9 d2 d1 3e e0 a0 29 3f 02 39 09 3f
       0.61362916 0.40981176 0.662611 0.5360261
0001d0 c4 74 e8 3e 81 ea 63 3f d1 d8 f4 3e 24 dd 0a 3f
       0.45401585 0.890297 0.47821668 0.54243684
0001e0 3a ef 24 3f ed 52 0a 3f b5 3c ff 3e 00 1b 1d 3f
       0.6442753 0.54032785 0.49851003 0.61369324
0001f0 06 2a 0e 3f ac fb 09 3f e9 c4 e7 3e 39 f7 1b 3f
       0.5553287 0.53899646 0.45267418 0.60924107
000200 8f 6d 0d 3f 41 fb 11 3f 3a a3 f0 3e 73 77 24 3f
       0.552453 0.5702401 0.46999532 0.64244765
000210 bb 2e f6 3e 5b 7a 18 3f e8 8c 9c 3e 55 23 f2 3e
       0.48082528 0.595617 0.30576253 0.4729258
000220 2b b8 8e 3f 52 89 da 3e 35 fe 28 3f e6 3f 06 3f
       1.1149954 0.42682892 0.6601289 0.5244125
000230 ae 7e 27 3f ed 2a 20 3f 00 0c 0e 3f a9 c6 16 3f
       0.6542767 0.625655 0.5548706 0.5889688
000240 05 ea 0c 3f 3a 34 d6 3e df 1c 3e 3f 14 60 f0 3e
       0.55044585 0.4183672 0.74262804 0.46948302
000250 6f d4 00 3f 6f d1 a3 3e 3d 49 1e 3f 8b d3 3f 3f
       0.5032415 0.31995723 0.618305 0.74932164
000260 87 70 37 3f c7 e6 fb 3e e0 ee 01 3f 55 5d eb 3e
       0.7165608 0.49199507 0.5075512 0.45969644
000270 f5 16 dd 3e af 93 f9 3e e0 10 e8 3e 75 ec 0e 3f
       0.43181577 0.48745486 0.45325375 0.55829555
000280 6c 79 07 3f e6 c1 c0 3e 7a f5 9a 3f 0f 71 2d 3f
       0.5291965 0.37647933 1.2106164 0.6775064
000290 0f b7 31 3f eb ec f1 3e 8e 63 1b 3f 5f d5 04 3f
       0.6941995 0.47251067 0.60698783 0.5188808
0002a0 2e bd 08 3f 7c 09 19 3f 12 fd 04 3f ec ed e9 3e
       0.53413665 0.59780097 0.51948655 0.45689332
0002b0 6a 7a ef 3e 0e 64 14 3f 78 cb a2 3e 6d 7a 3a 3f
       0.46773082 0.5796517 0.3179586 0.72843057
0002c0 ce 1d 1c 3f fd 7b 18 3f 11 75 3b 3f 8f 65 d9 3e
       0.6098298 0.5956419 0.73225504 0.42460296
0002d0 55 97 13 3f b8 dc 07 3f d8 f5 de 3e fd 66 e8 3e
       0.5765279 0.53071165 0.4354694 0.45391074
0002e0 8a bc 05 3f e9 4f 04 3f 91 7b f1 3e a6 6d 0b 3f
       0.5224081 0.51684433 0.47164586 0.54464185
0002f0 31 0f 14 3f b6 5e 30 3f 9f 53 10 3f 65 5a f7 3e
       0.5783568 0.6889452 0.56377596 0.48311153
