models/nn_to_lev_cat012345_epoch16.pt (torch, 356491 bytes, 43 tensors)

weight f4 [224, 35]
0	0x3db37351	0.08762229
1	0x3ecebdf0	0.40379286
2	0x3c57650d	0.013146651
3	0x3ea663d2	0.32498032
4	0xbe33a95d	-0.17545076
5	0x3bd7a52a	0.0065809684
6	0xbeaa0339	-0.33205584
7	0x3e269782	0.16268733
8	0x3e482ea7	0.19549046
9	0xbe8bd3a0	-0.27309895
10	0x3e915162	0.28382403
11	0x3ea3dfbb	0.3200663
12	0xbdf8ee8b	-0.121548735
13	0xbd6d00da	-0.05786214
14	0x3e10f4ee	0.14155933
15	0xbe1d2d55	-0.15349324
16	0x3dfc1f17	0.123106174
17	0xbc1ed80a	-0.009695062
18	0xbd4ff285	-0.050768394
19	0x3cbb444c	0.022859715
20	0xbdf76d8a	-0.1208144
21	0xbe1f1c08	-0.15538037
22	0x3d01d801	0.031700138
23	0x3d9f633b	0.077825986
24	0xbe3d86bc	-0.18508428
25	0x3d32e03a	0.04367087
26	0xbe0487f8	-0.12942493
27	0x3dd2937e	0.10282038
28	0xbd116ed2	-0.035506077
29	0xbe16d766	-0.14730605
30	0x3e9825da	0.29716378
31	0x3e17c095	0.14819558
32	0x3c24c554	0.010056812
33	0x3e9c4c7f	0.30527112
34	0xbc23715c	-0.009975757
35	0x3ebb32fd	0.36562338
36	0xbe3b65e4	-0.18300587
37	0xbdaf92e6	-0.085729405
38	0x3e8fb65d	0.2806882
39	0xbea007e6	-0.31256026
40	0xbdd07552	-0.10178627
41	0xbceb56a7	-0.028727842
42	0x3d14ffe4	0.03637685
43	0x3e931a89	0.28731182
44	0x3e717250	0.23578763
45	0x3d3d246f	0.046177324
46	0x3d9b74a8	0.0759061
47	0x3e0bdeb9	0.1365918
48	0x3e20b5f6	0.15694413
49	0x3d038c60	0.032116294
50	0xbe34e943	-0.17667107
51	0x3c6ddb5b	0.01451763
52	0xbe452a8b	-0.1925451
53	0x3da22456	0.07917087
54	0x3bdbcd8a	0.006707852
55	0xbd9c67bc	-0.07636973
56	0x3d97e623	0.07416942
57	0xbdbb794b	-0.09153994
58	0x3d353679	0.044241402
59	0xbe23c2b4	-0.15992242
60	0x3d71c9ea	0.05903045
61	0xbe29e990	-0.16593003
62	0x3d5a3ef9	0.05328271
63	0xbd58f7df	-0.052970763
64	0x3da4d8b1	0.08049143
65	0x3d0698b6	0.03286048
66	0x3e5454ef	0.20735525
67	0x3dd840cc	0.10559234
68	0xbe8be490	-0.27322817
69	0xbdc7e9d8	-0.09761399
70	0x3e8a078d	0.26958886
71	0x3d6fd0ae	0.05854862
72	0x3df49602	0.11942674
73	0x3d88b3f7	0.066749506
74	0xbed5cd43	-0.41758165
75	0xbe979bb4	-0.2961098
76	0xbe427c70	-0.18992782
77	0x3e27ad95	0.1637481
78	0xbce6591d	-0.028118664
79	0x3f4737f4	0.7781975
80	0xbd9856fc	-0.07438466
81	0xbec3531a	-0.3814934
82	0x3deddf6b	0.11614879
83	0xbe813cbf	-0.25241658
84	0x3ce847a3	0.028354472
85	0xbd820c5b	-0.06350013
86	0x3e4b2ce9	0.1984135
87	0xbe87e91f	-0.26545045
88	0xbea190e3	-0.31555852
89	0x3dfc2f3b	0.12313696
90	0x3e5221b2	0.20520666
91	0x3c4fca18	0.01268246
92	0x3e1d6873	0.15371875
93	0x3cbc0c50	0.02295509
94	0xbe426944	-0.18985468
95	0x3cc63fa2	0.024200264
96	0x3e97670c	0.29570806
97	0xbcd05ace	-0.025433924
98	0xbe08a0c0	-0.13342571
99	0xbc4eb113	-0.01261546
100	0xbd92c2bd	-0.0716605
101	0x3d9fcbbf	0.07802533
102	0xbd7f07ae	-0.062263183
103	0x3cf2981d	0.029613549
104	0xbc15e5d2	-0.009149032
105	0x3da69f33	0.081358336
106	0xbd42c416	-0.047550283
107	0xbd32ab00	-0.04362011
108	0xbf2ece39	-0.6828342
109	0xbe7fc797	-0.24978481
110	0x3f8d3698	1.1032286
111	0x3e407f73	0.18798618
112	0xbc2323dd	-0.009957281
113	0xbe49ffdc	-0.19726509
114	0xbe97bd0e	-0.29636425
115	0x3eb7cdc1	0.35899165
116	0x3e4ac02d	0.19799872
117	0xbec45a83	-0.38350305
118	0x3d3fc6ee	0.046820574
119	0x3dc20c36	0.09474985
120	0x3bfd66f0	0.0077332184
121	0xbda0e838	-0.07856792
122	0x3c390652	0.011293011
123	0xbdb83312	-0.08994116
124	0xbd06ed67	-0.03294125
125	0x3c9e101f	0.019294797
126	0xbbe4ec15	-0.006986151
127	0xbe3b691c	-0.18301815
128	0x3ddfb1f7	0.10922616
129	0xbe69fb08	-0.22849667
130	0x3d5647f5	0.052314717
131	0x3e081423	0.13288932
132	0xbdf8f956	-0.12156932
133	0x3e05cb55	0.13065846
134	0xbc96ba0c	-0.018399261
135	0x3e0be149	0.13660158
136	0xbe2637a4	-0.16232163
137	0xbe2dd2ed	-0.16974993
138	0x3daca0b5	0.0842909
139	0xbd1ce516	-0.03830441
140	0x3e9e1239	0.30873278
141	0xbe6b83cb	-0.22999494
142	0x3d9a6ed3	0.07540669
143	0xbeb98838	-0.3623674
144	0x3ce2e638	0.027697667
145	0x3e1eef75	0.15521033
146	0xbcacd729	-0.02109869
147	0xbdf287a1	-0.118422754
148	0x3e91ffff	0.28515622
149	0xbc1f98b2	-0.009740995
150	0x3d99979f	0.074996226
151	0xbe20327c	-0.15644258
152	0xbde55395	-0.11197583
153	0xbdb64f88	-0.08901888
154	0x3e5cd106	0.21564111
155	0x3dc273f3	0.09494772
156	0x3dfdb691	0.123883374
157	0x3e04e5d7	0.12978302
158	0x3dc3a0d2	0.095521584
159	0xbd7f9d8f	-0.06240612
160	0x3de40ba7	0.11135035
161	0xbb0de9ba	-0.0021654204
162	0xbcb9bac6	-0.022672068
163	0xbda894f6	-0.08231537
164	0x3e069e12	0.13146237
165	0x3d717a58	0.058954567
166	0x3e256857	0.16153084
167	0x3d2de7a3	0.042457234
168	0xbcdd24b2	-0.026995037
169	0x3ba557d0	0.0050458685
170	0x3db33126	0.08749609
171	0xbcac2a11	-0.021016153
172	0x3c3f202e	0.011665387
173	0xbd5b4a85	-0.053537864
174	0xbdd83f37	-0.10558932
175	0x3e799750	0.24374127
176	0xbf50d483	-0.8157427
177	0x3ef1a878	0.47198844
178	0x3f40a314	0.7524884
179	0xbf70361b	-0.9383256
180	0x3e135390	0.14387345
181	0xbc701411	-0.014653222
182	0x3e17cbf5	0.14823897
183	0xbe32104f	-0.17389034
184	0x3e1b8c62	0.1519027
185	0x3d199480	0.037495136
186	0xbb36aaee	-0.0027872878
187	0x3d472d4f	0.048627194
188	0xbe3755fe	-0.17903897
189	0x3d0ad8b2	0.033898063
190	0xbcdf6923	-0.027271813
191	0xbd8384f1	-0.06421841
192	0x3d7df356	0.06199964
193	0x3e1e7fdd	0.15478463
194	0xbd9fa173	-0.07794466
195	0xbbc3c351	-0.0059742113
196	0xbdbe155c	-0.09281418
197	0xbd937d6e	-0.07201658
198	0x3dbac29a	0.091191486
199	0xb999053d	-0.00029186337
200	0xbdc559fd	-0.096363045
201	0x3c9a666a	0.018847663
202	0x3e261d87	0.16222201
203	0xbdc0aa7d	-0.09407518
204	0x3d27e607	0.040990856
205	0xbe1044a1	-0.1408868
206	0x3e193a87	0.14963733
207	0xbd37c58e	-0.044866137
208	0xbd6eaba5	-0.05826916
209	0x3bbd6868	0.0057802685
210	0x3dec5936	0.11540453
211	0xbdf1accd	-0.11800537
212	0xbe466bcb	-0.19377057
213	0xbebf6aa5	-0.3738605
214	0xbd60834c	-0.054812714
215	0x3eb862fc	0.3601302
216	0x3db3f407	0.08786779
217	0xbe4b3ea2	-0.19848111
218	0x3cb00f3f	0.021491645
219	0x3e5342db	0.20630972
220	0xbddd0ce1	-0.10793472
221	0xbe6086da	-0.21926442
222	0x3e06f4a9	0.13179268
223	0xbcaa287f	-0.020771263
224	0xbf389202	-0.7209779
225	0x3d7e3407	0.062061336
226	0x3cb269d6	0.021778982
227	0xbd76712f	-0.060166534
228	0xbe108c58	-0.14116037
229	0x3c871c98	0.016493127
230	0xbd655274	-0.055986837
231	0x3e2fe142	0.17175773
232	0xbd5b1e27	-0.053495552
233	0xbce8cee3	-0.028418964
234	0x3db105af	0.08643662
235	0xbdbed949	-0.093187876
236	0xbd162643	-0.036657583
237	0xbd60edc3	-0.054914247
238	0xbe104587	-0.14089023
239	0xbdf14ed8	-0.117826164
240	0x3c41abf5	0.011820783
241	0xbd4587bd	-0.048225153
242	0x3e24aa8f	0.16080688
243	0x3dc1a2eb	0.09454902
244	0xbdbc4855	-0.09193484
245	0xbe2e8fb6	-0.17047009
246	0xbf2c238b	-0.67241734
247	0x3f39f2e1	0.7263623
248	0xbec433b8	-0.38320708
249	0x3ef37d1b	0.47556385
250	0xbdb02411	-0.08600629
251	0xbdafdf9f	-0.08587574
252	0x3e02199f	0.12705086
253	0xbd2ebd96	-0.042661272
254	0xbec2122e	-0.37904495
255	0xbf2a67dd	-0.6656473

bias f4 [224]
0	0xbe921890	-0.28534365
1	0x3eb44166	0.35206145
2	0xbe8fd5d0	-0.28092813
3	0x3f3fe625	0.7496055
4	0x3f01c41f	0.5068988
5	0x3eaf3877	0.34222767
6	0xbf2b0367	-0.66802067
7	0x3da4baae	0.08043419
8	0x3f04abc9	0.51824623
9	0xbddf23c2	-0.10895492
10	0x3db4673d	0.08808754
11	0x3dcb802e	0.09936558
12	0xbf3692f8	-0.71318007
13	0x3e656fcb	0.22405927
14	0x3f10bb73	0.56536025
15	0x3e8f22e2	0.279563
16	0xbdef0433	-0.11670723
17	0xbedbc551	-0.42923978
18	0xbe22ca89	-0.15897574
19	0x3e6a3633	0.22872238
20	0xbeae3cb9	-0.34030703
21	0x3e028ad2	0.12748268
22	0xbdd77c82	-0.10521795
23	0x3eab3ac8	0.33443284
24	0x3e16149f	0.14656304
25	0xbd17e74f	-0.037085827
26	0xbd685699	-0.05672321
27	0x3ed3ce26	0.41368216
28	0x3d671f5e	0.0564264
29	0xbe1c5025	-0.15264948
30	0x3d7454e2	0.059651263
31	0xbe202909	-0.15640654
32	0x3dc6911f	0.096956484
33	0x3e6fb25f	0.23407887
34	0x3de034d4	0.10947576
35	0x3d54bc14	0.051937178
36	0xbdf2231a	-0.11823101
37	0xbda35adb	-0.07976314
38	0x3e055d3d	0.13023849
39	0xbf945d6e	-1.1591012
40	0x3ed3a403	0.4133607
41	0x3e8d9470	0.2765231
42	0x3d6c2a6c	0.057657644
43	0x3edfcc8d	0.43710747
44	0x3ed15df4	0.40891993
45	0x3ec3f767	0.3827469
46	0x3f531fce	0.82470405
47	0x3f88ff2d	1.0702873
48	0x3ee0ac69	0.4388154
49	0xbe8c4d88	-0.27402902
50	0x3f16de58	0.5893302
51	0xbf154805	-0.5831302
52	0x3f668575	0.9004739
53	0x3e332cc3	0.17497544
54	0xbd93a5fa	-0.07209392
55	0x3f600d86	0.87520635
56	0x3e8d5c19	0.27609327
57	0x3e5dfbe9	0.21678127
58	0x3ed30fbd	0.41222945
59	0x3f7ac4d5	0.9795659
60	0x3ec5c6b6	0.38628167
61	0x3e4afc32	0.19822767
62	0x3ee69252	0.4503351
63	0x3e20e1f4	0.15711194
64	0xbb648ae3	-0.0034872822
65	0xbcaeec27	-0.02135284
66	0xbeefbbe4	-0.46823037
67	0xbd0842c1	-0.033266786
68	0xbe9debab	-0.30843863
69	0xbf96192b	-1.1726431
70	0x3e0fa15c	0.14026397
71	0x3e29cd9d	0.16582341
72	0xbf0f1d10	-0.5590372
73	0x3d9ce9c8	0.07661778
74	0x3e68d102	0.2273598
75	0x3e789ebf	0.24279307
76	0xbdc4a597	-0.09601896
77	0x3f11bc7c	0.5692823
78	0x3e0ec7a6	0.13943347
79	0xbe885eb1	-0.26634744
80	0x3e988fdb	0.29797253
81	0x3f19c38f	0.60064024
82	0x3ebfd0ba	0.37463933
83	0x3e44a44a	0.19203296
84	0x3ec51225	0.38490406
85	0x3ca31d7b	0.019911518
86	0x3ecce479	0.4001806
87	0x3e69eae0	0.22843504
88	0x3dabd880	0.083909035
89	0xbe009107	-0.12555324
90	0x3f53c355	0.8271993
91	0x3d23840f	0.039920863
92	0x3dc47f3b	0.0959458
93	0x3e27342c	0.16328496
94	0x3e14c04a	0.14526477
95	0xbd876074	-0.06610194
96	0x3ea6d563	0.32584676
97	0xbf125709	-0.57164055
98	0x3ec316ac	0.38103235
99	0xbec0e4ce	-0.37674564
100	0xbea25314	-0.3170401
101	0xbda7ed29	-0.081995316
102	0x3e0757b5	0.13217051
103	0x3c0f60be	0.0087510925
104	0x3e13df5d	0.14440675
105	0xbb55265c	-0.0032524085
106	0x3f2f8836	0.68567216
107	0x3eee3e49	0.46531895
108	0x3de92790	0.11384499
109	0xbe427e9b	-0.18993609
110	0x3e38c3cc	0.1804344
111	0x3e515b69	0.20445026
112	0x3e2db244	0.16962534
113	0x3f450add	0.769697
114	0x3f4833ea	0.78204215
115	0x3f0ae7dc	0.5426004
116	0x3f1dc7fc	0.61633277
117	0x3f03b3be	0.5144614
118	0xbb906aef	-0.0044072787
119	0x3d4c9c0d	0.04995351
120	0xbed15109	-0.40882137
121	0x3f452b55	0.77019244
122	0x3eaaebd3	0.33383045
123	0xbed7e255	-0.42164865
124	0xbecf23a0	-0.40456867
125	0xba9cc23d	-0.0011959743
126	0xbe210d09	-0.15727629
127	0xbe76e074	-0.2410906
128	0x3d06df55	0.03292783
129	0x3efe2601	0.4963837
130	0x3ef633b0	0.4808631
131	0xbf563c2b	-0.8368556
132	0x3f0a4c81	0.54022986
133	0x3f9930f0	1.196806
134	0xbf04bde8	-0.51852274
135	0x3f247879	0.64246327
136	0x3d807deb	0.06274017
137	0xbe12e539	-0.14345254
138	0x3f696526	0.91169965
139	0x3eb67f64	0.35644066
140	0xbef362a7	-0.47536203
141	0x3da7c912	0.08192648
142	0xbf1cecb0	-0.61298656
143	0x3e4202d7	0.18946396
144	0x3f814b00	1.0101013
145	0xbf8ba997	-1.091113
146	0x3e0908d8	0.1338228
147	0xbe7cf66a	-0.24703375
148	0x3d689cb6	0.056790076
149	0x3edfbe5a	0.43699914
150	0xbef053c9	-0.46938923
151	0x3da57aea	0.080800846
152	0x3ec79e88	0.38988137
153	0xbe70272d	-0.23452444
154	0x3d76f289	0.060289893
155	0x3ed0375e	0.40667242
156	0x3dedb07a	0.11605926
157	0x3eda8179	0.42676905
158	0xbe819b3b	-0.25313744
159	0x3f028df9	0.50997883
160	0x3ea72b6f	0.32650325
161	0x3f025ea0	0.50925636
162	0x3e8d56b5	0.27605215
163	0x3f2052ff	0.6262664
164	0xbe51ff75	-0.20507605
165	0x3e710515	0.23537095
166	0xbc35ff52	-0.011108236
167	0x3e893f27	0.26805994
168	0xbebe0a3a	-0.37117177
169	0x3eec8fbb	0.46203408
170	0x3f1f174d	0.6214493
171	0x3e59a108	0.21252835
172	0xbe0678bd	-0.13131995
173	0xbc8b1e1a	-0.016982127
174	0xbea01ea2	-0.3127337
175	0xbf2e06ba	-0.67979014
176	0xbdf2b4f4	-0.1185092
177	0x3cad3029	0.021141129
178	0x3e856529	0.26053742
179	0x3d369e06	0.044584297
180	0xbf430744	-0.7618296
181	0xbeed3f32	-0.46337277
182	0xbf349710	-0.70543003
183	0x3dc06e56	0.09396045
184	0x3f22b12c	0.6355159
185	0x3e8ed3cc	0.27895963
186	0x3f0bc345	0.5459483
187	0xbefbaf31	-0.49157098
188	0x3f0d6de7	0.5524582
189	0xbf1ff4bd	-0.62482816
190	0xbe2e803b	-0.17041104
191	0xbda0d93a	-0.07853933
192	0x3f5e5edf	0.8686351
193	0x3ddc2139	0.10748524
194	0x3f5f2436	0.8716463
195	0xbd0daab5	-0.034586627
196	0xbe5bd8a7	-0.21469365
197	0xbd9f2d06	-0.077722594
198	0x3ec39591	0.38200048
199	0x3f3497b1	0.7054396
200	0x3d6ac424	0.05731596
201	0x3e9e8774	0.30962718
202	0x3e1d80f8	0.15381229
203	0xbee03c4c	-0.43796003
204	0xbeca3d44	-0.39499867
205	0x3c2aee86	0.010432845
206	0xbe9fb711	-0.31194356
207	0xbf4b5f90	-0.7944269
208	0x3fad1a6f	1.3523692
209	0x3f0b9546	0.5452465
210	0xbe5cf286	-0.2157689
211	0x3ee54f10	0.44786882
212	0xbf93b070	-1.153822
213	0xbe1dbf01	-0.15404893
214	0xbed185ac	-0.40922296
215	0xbe0232b9	-0.12714662
216	0x3e8b50b4	0.2721001
217	0x3e02fdb5	0.12792094
218	0xbdeed7ff	-0.11662292
219	0x3d2875aa	0.04112784
220	0x3f666232	0.89993584
221	0x3e9e0964	0.3086654
222	0xbf611b7d	-0.8793257
223	0xbefa0a61	-0.48836043

weight f4 [224]
0	0x3eacc54a	0.3374427
1	0x3ecfb37c	0.40566623
2	0x3ecb7731	0.39739373
3	0x3efc3ae8	0.49263692
4	0x3f22fbf5	0.63665706
5	0x3f14a370	0.58061886
6	0x3ea1cc53	0.316012
7	0x3f3479cc	0.7049835
8	0x3f368d11	0.71309
9	0x3f461e72	0.77390206
10	0x3f3aa131	0.7290221
11	0x3ec38054	0.38183844
12	0x3ea8c2e3	0.32961187
13	0x3ec88308	0.3916247
14	0x3f75edf1	0.96066195
15	0x3f20a830	0.62756634
16	0x3ed54762	0.41656023
17	0x3f2c4962	0.67299473
18	0x3f13f05a	0.5778862
19	0x3f21f29c	0.6326082
20	0x3ee9fd97	0.45701286
21	0x3f0fdb02	0.56193554
22	0x3ed78864	0.42096245
23	0x3f3ebb44	0.74504495
24	0x3f22fe7d	0.6366957
25	0x3f44ba94	0.76847196
26	0x3ee87bfa	0.45407087
27	0x3f0e8442	0.5567056
28	0x3ee21762	0.44158465
29	0x3eeb13f6	0.45913666
30	0x3f1eb4d9	0.619947
31	0x3ed434ae	0.4144644
32	0x3f071fcc	0.52782893
33	0x3eeeafec	0.46618593
34	0x3ed6836b	0.4189714
35	0x3ee91ab5	0.45528188
36	0x3ee9e21a	0.45680314
37	0x3edfcdeb	0.4371179
38	0x3ee6bbdc	0.450652
39	0x3ed11722	0.4083796
40	0x3ef221b0	0.47291327
41	0x3f2fd4d6	0.68684137
42	0x3ee4d311	0.4469228
43	0x3f131b01	0.5746308
44	0x3ee92aa1	0.45540336
45	0x3f21e0c8	0.63233614
46	0x3ecd711d	0.4012536
47	0x3f928613	1.1447166
48	0x3f0be1e0	0.5464153
49	0x3f19d33c	0.60087943
50	0x3f696357	0.91167206
51	0x3e8d6a92	0.2762037
52	0x3f84ab9b	1.036487
53	0x3edd4b1c	0.43221366
54	0x3eddbc20	0.4330759
55	0x3fa414d0	1.2818851
56	0x3f5677de	0.8377665
57	0x3ee906af	0.45512912
58	0x3f15810a	0.58400023
59	0x3f779fef	0.96728414
60	0x3ea174bd	0.31534377
61	0x3ee35b79	0.44405726
62	0x3f18b86b	0.596564
63	0x3efcd824	0.49383652
64	0x3ef80d10	0.48447466
65	0x3ef45e4d	0.47728196
66	0x3f2424b6	0.64118516
67	0x3f13e57d	0.57772046
68	0x3f307305	0.68925506
69	0x3f3ce762	0.7379056
70	0x3f14b3e6	0.58087003
71	0x3ecea2e9	0.40358666
72	0x3eba703a	0.36413747
73	0x3f3a84de	0.7285899
74	0x3f088873	0.53333205
75	0x3ee89879	0.45428827
76	0x3f0711dc	0.52761626
77	0x3ed69ae7	0.41915056
78	0x3ed5805c	0.41699493
79	0x3ef52669	0.47880867
80	0x3f266e5f	0.6501216
81	0x3f8d0dc7	1.101983
82	0x3f295abc	0.66154075
83	0x3edc241d	0.42996302
84	0x3eecd153	0.46253452
85	0x3ed71437	0.4200761
86	0x3f6358fc	0.88807654
87	0x3f22ecc5	0.6364253
88	0x3ef04860	0.46930218
89	0x3eb9b6a4	0.36272156
90	0x3f20054f	0.625081
91	0x3ee9f7f0	0.45696974
92	0x3eac74a1	0.3368273
93	0x3f1e76f8	0.6190028
94	0x3f0f70a0	0.5603123
95	0x3edac69c	0.42729652
96	0x3f08f0aa	0.53492224
97	0x3f031f2f	0.5121946
98	0x3efcf838	0.49408126
99	0x3ee95ad8	0.4557712
100	0x3ed0cdaa	0.4078191
101	0x3ecb806d	0.3974642
102	0x3edea9d4	0.43488944
103	0x3f5775f3	0.8416435
104	0x3eeb9fa8	0.46020246
105	0x3f2a8b49	0.6661878
106	0x3f3f6486	0.7476276
107	0x3f12e8af	0.57386297
108	0x3ef1d8af	0.4723563
109	0x3ed8fbb5	0.42379537
110	0x3edb8b1c	0.4287957
111	0x3ef21394	0.47280562
112	0x3f2c229d	0.67240316
113	0x3f8215c0	1.0162888
114	0x3fc274ab	1.5191854
115	0x3f4bd48b	0.7962119
116	0x3eeda2fe	0.46413416
117	0x3f61148d	0.87921983
118	0x3ea86f8f	0.32897612
119	0x3efe8b67	0.4971573
120	0x3f84eb79	1.038436
121	0x3f8fcad7	1.1233777
122	0x3f112b8e	0.56707084
123	0x3ede6679	0.43437555
124	0x3ea972f9	0.3309553
125	0x3ee5bd8f	0.44871184
126	0x3f055e8b	0.52097386
127	0x3f114530	0.56746197
128	0x3edbe193	0.42945537
129	0x3ee2ffa5	0.44335666
130	0x3f116172	0.56789315
131	0x3e794a13	0.24344663
132	0x3ed1cede	0.4097814
133	0x3f603c19	0.875917
134	0x3eb1f865	0.34759822
135	0x3ed66d3a	0.41880208
136	0x3f1c1137	0.6096377
137	0x3edd6a5a	0.43245202
138	0x3f282fd2	0.6569797
139	0x3ee795f3	0.4523159
140	0x3ed1ecdf	0.4100103
141	0x3f295331	0.66142565
142	0x3ec00194	0.37501204
143	0x3f255614	0.6458447
144	0x3f052cc2	0.5202142
145	0x3e89053e	0.26761812
146	0x3ecf24a4	0.40457642
147	0x3ec91407	0.39273092
148	0x3f145dab	0.57955426
149	0x3f657063	0.89624614
150	0x3f141939	0.57850987
151	0x3ec7d523	0.39029798
152	0x3f480f2f	0.7814817
153	0x3ed82277	0.42213795
154	0x3f11106a	0.5666567
155	0x3f6124ad	0.8794659
156	0x3eed563f	0.46354863
157	0x3eeb4a5b	0.45955166
158	0x3eb7b0a0	0.35876942
159	0x3f847a52	1.0349829
160	0x3f021882	0.50818646
161	0x3eee1441	0.46499828
162	0x3f1a1005	0.60180694
163	0x3f118fdd	0.5686014
164	0x3f1969e8	0.59927225
165	0x3f05b26e	0.5222539
166	0x3ef67704	0.48137677
167	0x3efa0715	0.48833528
168	0x3eb86172	0.36011845
169	0x3f0b715c	0.5446985
170	0x3f64432a	0.89164984
171	0x3f005c29	0.50140625
172	0x3ee74347	0.45168516
173	0x3f1256ea	0.5716387
174	0x3f039ae0	0.51408195
175	0x3f14800d	0.5800789
176	0x3f03d272	0.5149299
177	0x3ef6b4dd	0.48184863
178	0x3f5755da	0.84115374
179	0x3ef756c0	0.48308372
180	0x3ecb376c	0.3969072
181	0x3edd9a94	0.43281996
182	0x3f1c915d	0.61159307
183	0x3f20858f	0.62703794
184	0x3f43bf24	0.7646353
185	0x3ef30e6e	0.47471946
186	0x3f795f09	0.9741064
187	0x3efaebd1	0.4900804
188	0x3f955f44	1.1669698
189	0x3f06acad	0.5260723
190	0x3f3cf21c	0.7380693
191	0x3f04cdec	0.5187671
192	0x3f6c3687	0.922707
193	0x3ed25590	0.41080904
194	0x3f3a780c	0.72839427
195	0x3ee93f2f	0.45556018
196	0x3eb82cd4	0.359717
197	0x3edead6b	0.43491682
198	0x3f499139	0.7873722
199	0x3f78e70f	0.9722757
200	0x3f113fc5	0.5673793
201	0x3ed11faf	0.40844485
202	0x3ec62b4a	0.38704902
203	0x3efeccc2	0.49765593
204	0x3ed47e70	0.41502714
205	0x3f0cf1f5	0.550567
206	0x3edc9587	0.4308283
207	0x3f5ceb3a	0.8629643
208	0x3f8fb0a2	1.1225779
209	0x3f303eae	0.6884564
210	0x3ebcb143	0.3685399
211	0x3ec1abaa	0.37826282
212	0x3f0daf37	0.5534548
213	0x3eeb9f98	0.46020198
214	0x3e822726	0.25420493
215	0x3ed81323	0.422021
216	0x3ee87306	0.45400256
217	0x3ec86abc	0.39143932
218	0x3ec57cfb	0.38571915
219	0x3ec9783d	0.39349547
220	0x3f685941	0.9076119
221	0x3eeda39a	0.4641388
222	0x3efefacd	0.4980072
223	0x3efa612f	0.4890227

bias f4 [224]
0	0x3e0e02a9	0.13868202
1	0x3d645787	0.055747535
2	0x3c7694a9	0.015050092
3	0x3d6cb0fe	0.05778598
4	0x3d98ad04	0.07454875
5	0xbba6bf5f	-0.005088731
6	0xbe79bf66	-0.24389419
7	0x3dbf9945	0.09355406
8	0x3e72906e	0.23687908
9	0x3e1c272d	0.1524932
10	0x3e58cc90	0.21171784
11	0x3d6a20f9	0.05716035
12	0xbcb15419	-0.021646546
13	0x3debee5c	0.11520073
14	0x3e2bf9bf	0.1679449
15	0x3db9cdd1	0.090724595
16	0x3bd53cba	0.0065074833
17	0x3dd1f566	0.10251884
18	0x3ca01ea8	0.019545868
19	0x3e38d2c7	0.18049155
20	0x3dff31f3	0.12460699
21	0x3cfab0c9	0.030601876
22	0xbd3d3884	-0.046196476
23	0xbe343d1b	-0.17601435
24	0x3d9c43ea	0.07630141
25	0x3e10a028	0.14123595
26	0x3e383f43	0.17992882
27	0x3d329489	0.043598685
28	0x3e2dadd2	0.16960838
29	0x3e3752c6	0.1790267
30	0xbdbbbe9f	-0.091672175
31	0x3d9052c2	0.07047035
32	0x3d811fd8	0.06304902
33	0x3e202c87	0.15641986
34	0x3e05b40f	0.13056968
35	0x3e821dc0	0.25413322
36	0x3e802ac4	0.25032628
37	0x3e7eee18	0.24895513
38	0x3cf66c6d	0.030080998
39	0xbe4ea270	-0.20179152
40	0x3e48e658	0.19619119
41	0x3d90e583	0.07075026
42	0x3e49747c	0.19673342
43	0x3e5fa577	0.21840464
44	0xbcb8f5d8	-0.022578165
45	0x3c326f24	0.010890756
46	0x3e0bc9c3	0.13651185
47	0x3d300391	0.04297215
48	0x3e942c9d	0.28940287
49	0x3dbe507e	0.092926964
50	0x3e895996	0.2682616
51	0xbd49bd16	-0.049252592
52	0x3efd98fa	0.49530774
53	0x3d5c8fca	0.053848065
54	0xbdd8713c	-0.10568473
55	0xbe26467c	-0.16237825
56	0xbe5e89b0	-0.21732211
57	0x3e5c197d	0.21494098
58	0x3d4d9bd0	0.050197423
59	0xbc8ac8f7	-0.01694153
60	0x3dc53418	0.09629077
61	0xbdc7c069	-0.09753496
62	0x3e17d0a4	0.14825684
63	0x3de114d4	0.10990301
64	0x3c937dd7	0.018004341
65	0x3e33cb48	0.17558014
66	0xbe713a35	-0.2355736
67	0x3e0b272d	0.13589163
68	0x3d9e4445	0.07727865
69	0xbd38493a	-0.04499171
70	0x3caccbcc	0.021093272
71	0xbd7b7ba8	-0.061397225
72	0x3cf1f5ba	0.029536117
73	0x3edcf1a7	0.43153116
74	0x3e398872	0.18118456
75	0xbe78a149	-0.24280275
76	0x3e447b1c	0.19187587
77	0x3dab426c	0.08362278
78	0x3c873165	0.016503045
79	0x3e30419a	0.17212525
80	0x3dcc4d30	0.0997566
81	0xbc824826	-0.015903544
82	0x3ee8c7ca	0.45464927
83	0xbdd4560a	-0.10367973
84	0x3dc69772	0.09696855
85	0x3dd63994	0.10460201
86	0x3e5d09d6	0.21585783
87	0x3eb24489	0.34817913
88	0x3e0390eb	0.1284825
89	0xbd090655	-0.033453304
90	0xbdeb8687	-0.115002684
91	0xbdc0ecb4	-0.094201475
92	0x3e0ba388	0.13636601
93	0xbdc38c63	-0.09548261
94	0x3ec2580a	0.37957793
95	0x3c6adb36	0.0143344905
96	0xbcbbde61	-0.022933187
97	0xbc5af5f6	-0.013364306
98	0x3c36dd77	0.0111612
99	0x3d6f74e1	0.058461074
100	0x3df7cce4	0.12099627
101	0x3d894385	0.067023315
102	0x3c7855fa	0.015157217
103	0x3d4f6dcd	0.050641824
104	0x3e22d44b	0.15901296
105	0x3ec26020	0.37963963
106	0x3e2457ec	0.16049165
107	0x3c2da1c5	0.010597651
108	0x3d8f95ab	0.07010969
109	0xbcc1532d	-0.023599232
110	0xbdc45ea4	-0.09588364
111	0xbe011461	-0.1260543
112	0xbe1e86a5	-0.1548105
113	0x3e09ba98	0.13450086
114	0xbd8910df	-0.06692671
115	0x3cc48d62	0.023993198
116	0x3ddc0576	0.10743229
117	0x3e8bcff6	0.273071
118	0xbc8a58e5	-0.016888091
119	0x3e801ddf	0.2502279
120	0xbcf575c9	-0.02996339
121	0xbdfe507e	-0.124176964
122	0x3ed4e55f	0.41581246
123	0x3e43956b	0.19099967
124	0x3c443aeb	0.011976938
125	0x3e12d238	0.14338005
126	0x3da9ce13	0.08291259
127	0xbe21973c	-0.15780348
128	0xbe1d02b1	-0.15333058
129	0x3d98e4f2	0.07465543
130	0xbdcaf7e0	-0.0991056
131	0xbe4c9226	-0.19977626
132	0xbd73dc03	-0.05953599
133	0xbd995e12	-0.074886456
134	0xbd1d93a9	-0.038470898
135	0x3e5f6787	0.21816836
136	0x3e1e3fd2	0.15454033
137	0xbd8fe734	-0.0702652
138	0x3c84330c	0.016137622
139	0xbd5380be	-0.05163645
140	0xbc80d682	-0.015727285
141	0x3df00a41	0.11720706
142	0x3d2cb917	0.042168703
143	0x3e6e3173	0.23261051
144	0x3da98927	0.08278113
145	0xbd5dba76	-0.0541329
146	0x3d9f8bb0	0.07790315
147	0xbc952d89	-0.01821019
148	0x3e1e98c7	0.15487967
149	0x3d90bc86	0.07067208
150	0x3e0f9b4b	0.14024083
151	0x3bd00a99	0.0063489196
152	0x3d2d0b5f	0.042247172
153	0x3c4b07d7	0.012392006
154	0x3eced0c6	0.40393656
155	0x3e12eeaa	0.14348856
156	0xbe34266a	-0.17592779
157	0x3ed74ec6	0.42052287
158	0xbd635a27	-0.055505898
159	0x3e18f42e	0.14936897
160	0x3e14db5f	0.14536808
161	0x3da971a1	0.08273626
162	0x3d9d40d2	0.07678379
163	0x3d065934	0.032799914
164	0x3b8c3f94	0.00428004
165	0x3de4adaa	0.11165936
166	0x3e7c421a	0.2463459
167	0x3e426556	0.18983969
168	0xbdaf45d4	-0.085582405
169	0xbc64beb4	-0.013961483
170	0x3d5a84b6	0.05334922
171	0x3e61bd62	0.220449
172	0xbe5672bc	-0.20942205
173	0x3e47ab88	0.19499028
174	0x3eb2592e	0.34833664
175	0x3e8a1a74	0.26973307
176	0x3e0a0feb	0.13482635
177	0x3e2162e7	0.15760385
178	0xbc69d394	-0.014271636
179	0xbe0f279d	-0.13979955
180	0x3dc26899	0.09492607
181	0x3c89e449	0.016832488
182	0x3d88b403	0.066749595
183	0x3e002956	0.12515768
184	0x3d6a8454	0.057255104
185	0x3e6360e1	0.22204925
186	0xbe1daa24	-0.15396935
187	0x3e452dc5	0.19255741
188	0x3db239e0	0.08702445
189	0xbc125228	-0.00893072
190	0x3ea52944	0.32258046
191	0x3c1d96ae	0.009618444
192	0x3e159d83	0.14610867
193	0x3d26a4c0	0.04068446
194	0x3e218375	0.15772803
195	0x3dc41af3	0.09575453
196	0xbd7bd93c	-0.061486468
197	0x3e56604a	0.20935169
198	0x3e58e9e8	0.21182978
199	0x3e832290	0.25612307
200	0x3e8fa074	0.28052104
201	0xbe0cc3cc	-0.13746566
202	0x3c5ef5aa	0.013608376
203	0x3d33d09e	0.043900125
204	0x3e28c9b9	0.16483201
205	0x3e6a3abf	0.22873972
206	0xbc65ecb0	-0.0140334815
207	0x3e89b2fb	0.26894364
208	0x3c8ca3fa	0.017168034
209	0x3e184d5f	0.14873265
210	0xbdfa4369	-0.12219889
211	0xbdd469b1	-0.103717215
212	0x3dec2869	0.11531145
213	0x399273cd	0.00027933568
214	0xbe6d363c	-0.2316522
215	0x3c295993	0.010336298
216	0x3db741fe	0.08948134
217	0x3e1f2c3f	0.15544222
218	0x3daef1ed	0.085422374
219	0xbd104f81	-0.03523207
220	0x3e9aa5a0	0.30204487
221	0x3d1f7592	0.038930483
222	0x3d53e3aa	0.05173079
223	0x3d5ace62	0.05341948

running_mean f4 [224]
0	0x3dbe818b	0.09302052
1	0x3ec4f4a6	0.38467902
2	0x3de7e443	0.11322834
3	0x3f276458	0.6538749
4	0x3ed958cd	0.42450562
5	0x3e864580	0.262249
6	0xbc853435	-0.016260246
7	0x3e12c7e2	0.14334062
8	0x3ef93c63	0.48678884
9	0x3ede4f94	0.43420088
10	0x3e712382	0.23548701
11	0x3e824d88	0.25449777
12	0x3d322c83	0.04349948
13	0x3e94193d	0.28925505
14	0x3f53fd49	0.8280836
15	0x3e8efadc	0.27925766
16	0x3e647e04	0.22313696
17	0x3e4ca649	0.19985308
18	0x3e8223a1	0.25417808
19	0x3e938764	0.28814232
20	0x3e41dcf3	0.18931942
21	0x3eb0af74	0.3450886
22	0x3d89fcf7	0.06737702
23	0x3ea50839	0.32232836
24	0x3e92fd0e	0.2870869
25	0x3e3d1ca6	0.1846796
26	0x3e3d8240	0.18506718
27	0x3ed3b7a4	0.41351044
28	0x3e33e382	0.17567256
29	0x3d881f1f	0.06646561
30	0x3ea9e60e	0.3318333
31	0x3ea65a68	0.3249085
32	0x3e6c0f74	0.2305277
33	0x3e9edd30	0.31028128
34	0x3e88419a	0.2661255
35	0x3e74c390	0.23902726
36	0x3d97e139	0.07416005
37	0x3d7cb1b8	0.061692923
38	0x3e3f193c	0.1866197
39	0x3c6ee723	0.0145814745
40	0x3edf411f	0.4360437
41	0x3ec5ce86	0.38634127
42	0x3e2c2a05	0.16812904
43	0x3ed093c1	0.40737727
44	0x3f246caf	0.6422834
45	0x3e924a75	0.2857243
46	0x3f4aa652	0.79160035
47	0x3f6b798a	0.9198233
48	0x3f170cdf	0.59004015
49	0x3cffe307	0.031236185
50	0x3ef8bfda	0.4858387
51	0xbbe23616	-0.00690342
52	0x3fa96113	1.323275
53	0x3ea5d44c	0.32388532
54	0x3d95aab8	0.07307953
55	0x3f4b620a	0.7944647
56	0x3ee46da0	0.44614887
57	0x3e80d1c8	0.2516005
58	0x3ec4a20d	0.38404885
59	0x3f555fd6	0.8334936
60	0x3ee30446	0.44339198
61	0x3ecd70c5	0.401251
62	0x3edd7467	0.4325287
63	0x3e8ae557	0.27128097
64	0x3e4e9bc9	0.20176615
65	0x3e7bacf5	0.24577697
66	0x3e8fde3d	0.28099242
67	0x3e95f0a6	0.29285163
68	0x3e7c769a	0.24654618
69	0x3df761b4	0.12079182
70	0x3eb61b1f	0.35567567
71	0x3e9f4310	0.31105852
72	0xba2b3787	-0.00065314065
73	0x3e43e6be	0.1913099
74	0x3e89d8b6	0.2692315
75	0x3eb66452	0.35623413
76	0x3dea4139	0.114382215
77	0x3f08af45	0.5339244
78	0x3e8e43a2	0.27785975
79	0x3d87f721	0.06638933
80	0x3ebd4b3b	0.3697146
81	0x3ef93654	0.48674262
82	0x3ec37e78	0.38182425
83	0x3e860e3e	0.2618274
84	0x3ec337aa	0.38128406
85	0x3e25cec7	0.1619216
86	0x3ec6f7a4	0.3886081
87	0x3ea5e275	0.32399336
88	0x3e2d55e0	0.1692729
89	0x3e0ba847	0.13638411
90	0x3f442537	0.76619285
91	0x3eb69b69	0.35665444
92	0x3e772911	0.2413676
93	0x3e4915e9	0.19637264
94	0x3e7ca3fe	0.24671933
95	0x3e85b178	0.2611196
96	0x3e9d56ba	0.3073023
97	0x3dd680ee	0.1047381
98	0x3ed60865	0.4180328
99	0x3ca3ba11	0.019986184
100	0x3e83101c	0.25598228
101	0x3dfb6be0	0.12276435
102	0x3e73eaf3	0.23820095
103	0x3e7c98c7	0.24667655
104	0x3e519bba	0.20469561
105	0x3e47f51e	0.19527099
106	0x3f16af71	0.5886145
107	0x3f2ab890	0.6668787
108	0x3e8a1217	0.26966926
109	0x3d7fa743	0.062415373
110	0x3f406b00	0.7516327
111	0x3e836571	0.2566333
112	0x3e54d4a7	0.20784245
113	0x3f8a5013	1.0805687
114	0x3f28399f	0.6571292
115	0x3ed41214	0.41420043
116	0x3f151443	0.5823404
117	0x3ecdf93e	0.4022922
118	0x3df9125d	0.12161706
119	0x3e0a23b1	0.13490178
120	0x3efa0cde	0.48837942
121	0x3f22e2bd	0.63627225
122	0x3eb5ed4d	0.3553261
123	0x3e6375a8	0.22212851
124	0x3dd0c7fe	0.101943955
125	0x3ea2fc69	0.318332
126	0x3e7c159d	0.2461762
127	0x3eb3f0e7	0.3514473
128	0x3e942cc5	0.28940406
129	0x3ef4253f	0.47684667
130	0x3f0a87ad	0.54113275
131	0x3d85c234	0.06531182
132	0x3f11d64e	0.5696763
133	0x3f885f19	1.0654022
134	0x3e1eaf82	0.15496638
135	0x3f1afbdf	0.60540575
136	0x3e2d7d2c	0.1694228
137	0x3dedf05e	0.11618112
138	0x3f4e0e8b	0.8049094
139	0x3edc9e74	0.4308964
140	0xbcaaa723	-0.02083165
141	0x3e804076	0.2504918
142	0x3da7c9b1	0.081927665
143	0x3e66b373	0.22529392
144	0x3f6642e4	0.89945817
145	0xbd6513bc	-0.055927023
146	0x3e8639f9	0.26216105
147	0x3dcc8b3a	0.09987493
148	0x3e82d894	0.2555586
149	0x3ebf7532	0.373941
150	0x3dea99dc	0.114551276
151	0x3e8eb49f	0.27872178
152	0x3ea90657	0.3301265
153	0x3d5e96ba	0.054342963
154	0x3e66cfc7	0.22540198
155	0x3eea01a1	0.45704368
156	0x3e829d45	0.25510612
157	0x3ebb4e94	0.36583388
158	0x3dd7c9fd	0.10536573
159	0x3ee6027f	0.4492378
160	0x3e8e5331	0.27797845
161	0x3f224067	0.6337952
162	0x3f12a804	0.5728762
163	0x3f09aad6	0.537763
164	0xbc97459f	-0.018465815
165	0x3ec5ddc7	0.38645765
166	0x3e52612a	0.20544878
167	0x3ea44dcb	0.320906
168	0x3d88e7f5	0.06684867
169	0x3ed54853	0.41656741
170	0x3ef99b68	0.48751378
171	0x3f2b4f99	0.6691833
172	0x3e44e666	0.19228515
173	0x3ee910d8	0.45520663
174	0x3e9bab50	0.3040414
175	0x3d002275	0.03128286
176	0x3dd27000	0.102752686
177	0x3e9bb81a	0.30413896
178	0x3ed6c7c3	0.4194928
179	0x3e8c0f5c	0.27355468
180	0xbca15951	-0.01969591
181	0x3da70b61	0.08156467
182	0x3d993367	0.07480507
183	0x3e1b6330	0.15174556
184	0x3f0493d5	0.51788074
185	0x3eaff773	0.34368476
186	0x3ed294f0	0.41129255
187	0x3d2e237e	0.042514317
188	0x3ef3a3f3	0.4758602
189	0x3bf4fe5f	0.0074766125
190	0x3d5ac58b	0.053411048
191	0x3e1e213b	0.15442364
192	0x3f6227f6	0.88342226
193	0x3ec6ab85	0.38802734
194	0x3f37fea6	0.7187294
195	0x3e142281	0.14466287
196	0x3dda4a1d	0.10658667
197	0x3e45b185	0.19306
198	0x3f26750f	0.6502237
199	0x3f0e3841	0.55554587
200	0x3e2746ca	0.16335598
201	0x3ee43fc1	0.4457989
202	0x3e8a3388	0.2699244
203	0x3dd7f903	0.10545542
204	0x3e1e96ad	0.15487166
205	0x3dcd9e2a	0.10039933
206	0x3dcb1a07	0.09917074
207	0x3eb4b7f7	0.35296604
208	0x3f9dfc49	1.2342616
209	0x3f49490c	0.78627086
210	0x3e3208dc	0.17386192
211	0x3f40ddbd	0.75338346
212	0xbd7a4fa6	-0.061111115
213	0x3ecb2405	0.39675918
214	0xbb427272	-0.0029670266
215	0x3e278f69	0.163633
216	0x3e9619b3	0.29316482
217	0x3e6d3773	0.23165683
218	0x3e1f1d97	0.15538631
219	0x3e4787ed	0.19485445
220	0x3f7cf835	0.98816234
221	0x3eab7b4c	0.33492506
222	0x3d559b78	0.05215022
223	0x3e0af973	0.1357172

running_var f4 [224]
0	0x3e2493a7	0.1607195
1	0x3e9221fc	0.28541553
2	0x3e545dc0	0.20738888
3	0x3e81e3a5	0.25368991
4	0x3e13f474	0.1444872
5	0x3d8b6c93	0.06807818
6	0x3d8c96be	0.06864689
7	0x3dd7937b	0.105261765
8	0x3e8e8e70	0.27843046
9	0x3f356c4f	0.7086839
10	0x3e88c84e	0.2671532
11	0x3e9dd365	0.30825344
12	0x3e301711	0.17196299
13	0x3e8dcd39	0.27695635
14	0x3faaac71	1.3333875
15	0x3e49842d	0.19679327
16	0x3ea966be	0.330862
17	0x3edb278b	0.42803606
18	0x3ed4e927	0.4158413
19	0x3e2e7ca2	0.17039731
20	0x3e5d338c	0.21601695
21	0x3ef1dbcb	0.47238
22	0x3dc644d6	0.09681098
23	0x3e2cc85d	0.16873308
24	0x3e5610c0	0.20904827
25	0x3e50eb1b	0.20402186
26	0x3e89d011	0.26916555
27	0x3e8821d8	0.2658832
28	0x3e368a52	0.17826203
29	0x3dd348bf	0.103166096
30	0x3ef520f8	0.47876716
31	0x3f097afa	0.5370327
32	0x3e2814cb	0.16414182
33	0x3e982e88	0.29723
34	0x3e86b8df	0.2631292
35	0x3e6e5a45	0.23276623
36	0x3df5270b	0.119703375
37	0x3d8cb467	0.068703465
38	0x3df919bc	0.121631116
39	0x3d8c4864	0.06849745
40	0x3e95f689	0.29289654
41	0x3ea5f238	0.3241136
42	0x3e2024e4	0.15639073
43	0x3e4760fb	0.19470589
44	0x3f881d97	1.063403
45	0x3d87dafe	0.06633566
46	0x3f08dd42	0.5346261
47	0x3d8c548d	0.06852064
48	0x3f5fe159	0.8745323
49	0x3d777a79	0.060419533
50	0x3e263001	0.1622925
51	0x3debe19d	0.11517642
52	0x40115ae5	2.2711728
53	0x3ea2da24	0.31807053
54	0x3def9518	0.11698359
55	0x3eabcea3	0.3355609
56	0x3ee745d7	0.4517047
57	0x3e2d7e0e	0.16942617
58	0x3e81fa13	0.25386104
59	0x3db51977	0.08842748
60	0x3ebdeb26	0.37093467
61	0x3ed02163	0.40650472
62	0x3e802b1d	0.25032893
63	0x3e456929	0.19278397
64	0x3e362147	0.17786132
65	0x3e8f4ff7	0.27990696
66	0x3f254ecb	0.64573354
67	0x3e97b105	0.29627243
68	0x3e996078	0.29956412
69	0x3e8716c8	0.26384568
70	0x3eca4cdf	0.39511773
71	0x3e6a6398	0.22889555
72	0x3dc520a5	0.09625367
73	0x3dc42322	0.095770136
74	0x3e46be7a	0.19408599
75	0x3ebfd90a	0.37470275
76	0x3df3e7e8	0.11909467
77	0x3e8a21a4	0.2697879
78	0x3e4e79d0	0.20163655
79	0x3dd29a80	0.10283375
80	0x3e95dfce	0.29272312
81	0x3dfc95d6	0.123332664
82	0x3e582b44	0.21110255
83	0x3e4140ea	0.18872419
84	0x3e958e82	0.29210287
85	0x3e15bcc8	0.14622796
86	0x3e71a92e	0.23599693
87	0x3e9a314a	0.3011573
88	0x3e1b9170	0.15192199
89	0x3e4cafdb	0.19988959
90	0x3ee29419	0.44253615
91	0x3ec63689	0.38713482
92	0x3e73d4a8	0.2381159
93	0x3dcf6b53	0.10127892
94	0x3e718e10	0.23589349
95	0x3e45a478	0.19301021
96	0x3e34cdbf	0.17656611
97	0x3e38fdaf	0.18065523
98	0x3e9eed43	0.3104039
99	0x3dd86a1a	0.10567112
100	0x3ea09d53	0.3137003
101	0x3e153da7	0.145743
102	0x3e48fa41	0.19626714
103	0x3e601577	0.21883188
104	0x3e2ad210	0.16681695
105	0x3e775f02	0.24157336
106	0x3e94e1fd	0.29078665
107	0x3f1a2f30	0.6022825
108	0x3e71fb9d	0.23631139
109	0x3dd7350d	0.105081655
110	0x3f919d0a	1.137605
111	0x3e6b8fd4	0.23004085
112	0x3e035cdd	0.12828393
113	0x3fd3909a	1.6528504
114	0x3e1b3e95	0.15160592
115	0x3da3f15a	0.080050185
116	0x3eb2faf6	0.34957093
117	0x3dc8280d	0.09773264
118	0x3e0fd4a5	0.14045961
119	0x3e03f0f5	0.12884887
120	0x3f9ebe4e	1.2401826
121	0x3e05766d	0.13033457
122	0x3e87fb63	0.2655898
123	0x3edcadb4	0.43101275
124	0x3e3ba6b6	0.18325314
125	0x3ecce864	0.4002105
126	0x3ed0bda2	0.40769678
127	0x3f383221	0.7195149
128	0x3e83b46f	0.25723597
129	0x3e7e20e8	0.2481724
130	0x3ed0b90d	0.40766183
131	0x3e66bd9a	0.22533265
132	0x3ebe6d69	0.37192848
133	0x3df4729a	0.11935921
134	0x3e7ddfa1	0.24792339
135	0x3ecf6266	0.4050476
136	0x3e1215bf	0.14266108
137	0x3e1e3489	0.15449728
138	0x3e8c947d	0.27457038
139	0x3ea138ef	0.3148875
140	0x3d335916	0.04378613
141	0x3e6fcd5a	0.23418179
142	0x3e700128	0.23437941
143	0x3e049dfe	0.12950894
144	0x3eb0d015	0.34533754
145	0x3d281e17	0.04104432
146	0x3e9e5e35	0.3093125
147	0x3e018153	0.1264699
148	0x3ec229f9	0.37922648
149	0x3e10cb13	0.14139967
150	0x3e1d7953	0.15378313
151	0x3eb6dc1d	0.35714808
152	0x3e03d53b	0.1287431
153	0x3d993662	0.07481076
154	0x3e630590	0.2217009
155	0x3eb6a42a	0.35672122
156	0x3e83bfb4	0.25732195
157	0x3e15128a	0.14557853
158	0x3e0d2b80	0.13786125
159	0x3e3436d9	0.17599048
160	0x3dfd7759	0.123762794
161	0x3efe24bf	0.4963741
162	0x3ed9c642	0.4253407
163	0x3e7274ae	0.23677322
164	0x3cff121e	0.031136569
165	0x3ebedfd4	0.37280142
166	0x3e706896	0.23477396
167	0x3e8028b2	0.25031048
168	0x3e2f6769	0.17129292
169	0x3e4d2f29	0.20037521
170	0x3db9e99c	0.090777606
171	0x3f85d7a3	1.0456432
172	0x3e56601a	0.20935097
173	0x3ef6349c	0.48087013
174	0x3e5c4a2d	0.21512671
175	0x3dbdfe94	0.092770725
176	0x3e2b854c	0.16750067
177	0x3eddc7c5	0.43316475
178	0x3ed840d6	0.42236966
179	0x3e88fa95	0.2675368
180	0x3d2a9372	0.04164452
181	0x3e54b74d	0.20773049
182	0x3e9878f4	0.2977978
183	0x3e091cf1	0.13389947
184	0x3e1c9175	0.15289862
185	0x3e8617d4	0.26190054
186	0x3d73f668	0.059561163
187	0x3e0d2944	0.13785273
188	0x3e3b6527	0.18300305
189	0x3dc02826	0.09382658
190	0x3d871811	0.06596387
191	0x3e13fdf7	0.14452349
192	0x3f0b20a4	0.5434668
193	0x3ecfb30c	0.4056629
194	0x3dc675c6	0.09690432
195	0x3e21172a	0.15731493
196	0x3e3eb87f	0.18625067
197	0x3e4fa2cc	0.20276946
198	0x3f632fbc	0.8874471
199	0x3d9d0181	0.076663025
200	0x3df0d507	0.11759382
201	0x3ec93c1c	0.39303672
202	0x3e386d53	0.18010454
203	0x3e823659	0.2543209
204	0x3eaa5cc8	0.3327391
205	0x3da228c1	0.079179294
206	0x3e483027	0.19549619
207	0x3f2908bd	0.6602896
208	0x3d99dea6	0.0751317
209	0x3f79a81d	0.97522146
210	0x3e953255	0.29139963
211	0x3f60c863	0.87805766
212	0x3d0172d9	0.031603668
213	0x3f213633	0.62973326
214	0x3dad45b6	0.08460562
215	0x3e529c39	0.20567407
216	0x3e4ea393	0.20179586
217	0x3e2f3c70	0.17112899
218	0x3e2cc170	0.16870666
219	0x3e2c4bd3	0.168258
220	0x3f84c56c	1.0372748
221	0x3e493857	0.19650398
222	0x3ddda33f	0.10822152
223	0x3ead3181	0.3382683

weight f4 [192, 224]
0	0x3ad10263	0.0015946146
1	0x3d87d9d4	0.06633344
2	0x3c8160ee	0.01579329
3	0xbde32559	-0.11091108
4	0x3d91b518	0.07114619
5	0x3da0b526	0.07847051
6	0xbe36e1b3	-0.17859535
7	0x3d88ead8	0.06685418
8	0x3e138958	0.14407861
9	0xbde555a7	-0.111979775
10	0x3dc8c0d4	0.09802404
11	0x3d9d7f5c	0.076903075
12	0x3e1f0354	0.15528613
13	0xbd2f6e2f	-0.04282969
14	0xbd064dc9	-0.032789025
15	0x3db6f615	0.08933655
16	0xbd40642c	-0.04697053
17	0xbd6efa76	-0.058344327
18	0x3e144358	0.14478815
19	0x3e0d9231	0.13825299
20	0xbe73213c	-0.23743147
21	0xbbd402cf	-0.0064700614
22	0xbc445c7e	-0.0119849425
23	0xbe1fb70c	-0.1559717
24	0x3db9181f	0.09037804
25	0x3d8ab7f1	0.06773365
26	0x3ded2592	0.115794316
27	0xbdc0f2c2	-0.094213024
28	0xbdb67d56	-0.08910625
29	0xbe0af047	-0.13568221
30	0x3d2d3733	0.04228897
31	0x3e8bfb0a	0.27339965
32	0x3db3d014	0.08779922
33	0x3dba88e8	0.09108144
34	0xbe4493d9	-0.19197024
35	0xbde40142	-0.111330524
36	0x3d36492d	0.04450338
37	0xbe592f64	-0.21209484
38	0xbd351609	-0.044210467
39	0xbd91d8ef	-0.07121455
40	0xbd3b9308	-0.045794517
41	0xbe267e9f	-0.1625924
42	0x3d79bcf7	0.060971227
43	0x3cbe2724	0.023212023
44	0xbd5eed80	-0.054425716
45	0x3d370802	0.04468537
46	0xbe0ef6c1	-0.13961317
47	0xbe0d13b8	-0.13777053
48	0x3c8e5f1e	0.01737934
49	0xbd5a3959	-0.053277347
50	0x3bbb3aa0	0.0057137758
51	0xbd8ab700	-0.06773186
52	0xbd58c11e	-0.052918546
53	0x3e197ee6	0.14989814
54	0x3c36ebc6	0.011164611
55	0x3de61867	0.11235123
56	0xbea88206	-0.329117
57	0x3d012188	0.03152612
58	0x3d2a5d9e	0.041593187
59	0x3dd41b35	0.10356752
60	0x3e3b523d	0.1829309
61	0x3dc30bfe	0.09523772
62	0x3dcd0652	0.10010971
63	0xbec56727	-0.38555261
64	0x3e14c3d1	0.14527823
65	0xb9e716f4	-0.00044076855
66	0xbd867931	-0.06566084
67	0xbcf58655	-0.029971281
68	0x3cc9e6c8	0.024646178
69	0xbe252e0f	-0.16130851
70	0xbe86cf0f	-0.26329848
71	0x3dc4b811	0.096054204
72	0x3cbe2941	0.02321303
73	0xbdd074b8	-0.10178512
74	0xbb7ff8e1	-0.0039058255
75	0xbbbbd90b	-0.0057326606
76	0x3e2036a6	0.15645847
77	0xbe894996	-0.26813954
78	0x3db4610e	0.08807574
79	0x3dbe7014	0.09298721
80	0xbd95717c	-0.07297036
81	0x3ccf23fe	0.025285717
82	0xbb0b5a3a	-0.0021263496
83	0x3d3cfc06	0.046138786
84	0xbe33a967	-0.1754509
85	0x3dcab75f	0.098982565
86	0xbd34485b	-0.044014316
87	0x3d4d04bb	0.05005334
88	0x3d5d22aa	0.053988136
89	0xbc4e5a33	-0.012594747
90	0xbdc179ab	-0.094470344
91	0x3ca57bc2	0.020200614
92	0xbe2464b8	-0.16054046
93	0x3e21cb21	0.15800144
94	0xbdaaebf7	-0.08345788
95	0x3e52d5c0	0.20589352
96	0xbe0ddd95	-0.13854058
97	0x3d952a1a	0.07283421
98	0xbe1946da	-0.14968434
99	0x3d6aeded	0.05735581
100	0xbdd0aa56	-0.10188739
101	0x3d90e2d5	0.07074515
102	0xbe5cd7f8	-0.2156676
103	0xbd8b533c	-0.06802985
104	0x3bd80564	0.0065924395
105	0xbcc3c667	-0.023898317
106	0xbbd824f0	-0.0065962
107	0x3e75b782	0.23995784
108	0xbbfe54e5	-0.007761585
109	0x3a782a41	0.00094667455
110	0xbd034430	-0.03204745
111	0xbe0704da	-0.13185444
112	0xbe1ed1a4	-0.15509659
113	0xbd74bf6d	-0.05975287
114	0xbdf8202a	-0.1211551
115	0x3e19b3ef	0.15010045
116	0x3d4ea678	0.050451726
117	0xbd1da8d5	-0.03849109
118	0xbd4cf078	-0.050034016
119	0x3d956bbb	0.072959386
120	0xba9388e2	-0.0011256004
121	0xbdad3cbd	-0.084588505
122	0xbcf192ff	-0.029489039
123	0xbdc20f63	-0.09475591
124	0x3d9b6875	0.07588283
125	0xbe60c397	-0.21949612
126	0xbd98a035	-0.07452432
127	0xbe2a94c8	-0.16658318
128	0x38860c93	6.39196e-05
129	0xb9312922	-0.00016895359
130	0xbc5e8397	-0.013581178
131	0xbe6ee213	-0.23328428
132	0xbdcd3dbe	-0.10021542
133	0xbd478bea	-0.048717417
134	0x3e335b8f	0.17515396
135	0x3e816d71	0.2527881
136	0x3d813968	0.063097775
137	0x3c1658a0	0.009176403
138	0x3dd6e4d0	0.10492861
139	0x3d16771a	0.036734678
140	0xbd54658d	-0.05185466
141	0xbce1c360	-0.027558982
142	0x3dd2cf96	0.102935
143	0x3c9f8eec	0.01947733
144	0x3eab5345	0.33461967
145	0xbcb6ce8a	-0.022315282
146	0x3b264f4d	0.0025376857
147	0x3d2f14f5	0.042744596
148	0xbd8a82a8	-0.06763202
149	0xbda706f6	-0.081556246
150	0xbd170891	-0.036873404
151	0x3bc90c1a	0.006135476
152	0x3dc470f4	0.095918566
153	0xbc1b68ad	-0.009485406
154	0xbd5dd990	-0.054162562
155	0xbd040fef	-0.032241758
156	0x3c5a1cdf	0.0133125475
157	0xbe18c974	-0.14920598
158	0xbd4cd30f	-0.05000597
159	0x3d84ff14	0.06493965
160	0xbbf626fd	-0.007511972
161	0x3db9d4c2	0.090737835
162	0xbd109727	-0.0353004
163	0x3e233580	0.15938377
164	0x3dd50b6a	0.10402568
165	0xbd8253dd	-0.06363652
166	0x3eaecdf1	0.34141496
167	0xbe565c07	-0.20933543
168	0x3e784ce3	0.2424808
169	0xbd99266e	-0.07478033
170	0xbd8b84de	-0.06812452
171	0x3c93ce44	0.018042691
172	0x3d9dcfe9	0.07705671
173	0x3de7c3c4	0.11316636
174	0x3df99df3	0.121883295
175	0x3e9f44a8	0.31107068
176	0xbc436d37	-0.011927894
177	0x3bbd4c95	0.0057769516
178	0x3e2369d8	0.15958345
179	0x3e08b5f0	0.13350654
180	0x3dafe361	0.08588291
181	0x3d9c7a92	0.07640566
182	0xbe4586da	-0.19289723
183	0xbcb8812d	-0.022522533
184	0xbdd4f1df	-0.10397696
185	0x3dcde722	0.10053851
186	0x3d894f00	0.06704521
187	0xbdb5fe79	-0.088864274
188	0x3cd7b1ef	0.026329963
189	0xbcfe5afb	-0.031049242
190	0xbcaee166	-0.021347713
191	0xbc8ae118	-0.016953036
192	0xbe58d456	-0.2117475
193	0x3ecfe158	0.4060161
194	0xbd28ec4d	-0.04124098
195	0x3c45a1e7	0.012062526
196	0x3e12ce5c	0.14336532
197	0xbdecc87d	-0.115616776
198	0x3e995e84	0.29954922
199	0xbd7fccf5	-0.06245132
200	0xbd0bdb0c	-0.034144446
201	0xbd63eb2a	-0.05564419
202	0x3d2151f6	0.039384805
203	0xbc3dd578	-0.011586539
204	0xbe2274a8	-0.15864813
205	0xbdbdff28	-0.09277183
206	0xbe25ed4c	-0.16203803
207	0x3dd66833	0.10469093
208	0x3e2e7a6a	0.17038885
209	0x3e97ff55	0.2968699
210	0xbd212b56	-0.03934797
211	0xbd4bf243	-0.049791586
212	0xba946192	-0.0011320582
213	0x3d81aebf	0.06332158
214	0x3e0de379	0.13856305
215	0x3cc49233	0.023995494
216	0xbe1059a0	-0.14096689
217	0x3e54e80f	0.20791648
218	0xbec382b6	-0.38185662
219	0x3cf64461	0.030061902
220	0x3d1099cd	0.035302926
221	0xbd70e83e	-0.058815233
222	0xbd36b9fe	-0.04461097
223	0xbe19ad31	-0.15007474
224	0xbc3b50ac	-0.011432808
225	0xbe4ff454	-0.20308048
226	0xbd7b8b92	-0.0614124
227	0xbe82dcc2	-0.2555905
228	0xbe87c327	-0.26516077
229	0x3cd2bcbf	0.025724767
230	0xbc195893	-0.009359497
231	0xbb8dfc40	-0.004333049
232	0x3d0fbc37	0.035091605
233	0xbe736d58	-0.2377218
234	0x3e85dfd4	0.2614733
235	0x3e136145	0.14392574
236	0xbc62a915	-0.013834258
237	0xbd8d7989	-0.069079466
238	0x3d5ecfe5	0.054397482
239	0x3e0f983f	0.14022921
240	0xbe3e42df	-0.18580197
241	0x3e0176a4	0.12642914
242	0x3d5273f2	0.051380105
243	0x3d892db2	0.06698169
244	0xbe465efb	-0.1937217
245	0xbd9a7234	-0.07541314
246	0x3d07d482	0.033161648
247	0x3e5c8639	0.21535577
248	0xbe23ca9d	-0.1599526
249	0xbce65e0a	-0.028121013
250	0x3e41019a	0.18848267
251	0x3cd3ed5f	0.025870023
252	0xbdfe6961	-0.12422443
253	0x3cb81fd8	0.022476122
254	0x3e5c7194	0.21527702
255	0x3d407ffc	0.046997055

weight f4 [192]
0	0x3ebc995f	0.36835763
1	0x3edfaffe	0.4368896
2	0x3f857eb7	1.0429295
3	0x3efea645	0.4973623
4	0x3f01a856	0.50647485
5	0x3ee3c112	0.44483238
6	0x3edcf7da	0.43157846
7	0x3eeced14	0.46274626
8	0x3ec0e68f	0.37675902
9	0x3e80b771	0.25139955
10	0x3eaba3f8	0.33523536
11	0x3f00e26a	0.5034548
12	0x3ef0891e	0.46979612
13	0x3f01f784	0.50768304
14	0x3eda8e9b	0.42686924
15	0x3efb72dd	0.4911107
16	0x3f25e4d1	0.6480227
17	0x3ea2e3fc	0.31814563
18	0x3eddc434	0.43313754
19	0x3f7cf74b	0.9881484
20	0x3f095dcd	0.53658754
21	0x3efacbc9	0.489836
22	0x3ee7a2d2	0.4524141
23	0x3eda4fb9	0.4263895
24	0x3f01e235	0.5073579
25	0x3ebe6a76	0.37190598
26	0x3f081bd7	0.5316748
27	0x3f0059c3	0.50136966
28	0x3f61dd1a	0.88228
29	0x3f931b12	1.1492636
30	0x3edc561a	0.4303444
31	0x3ecf53f6	0.40493745
32	0x3ebaf346	0.36513728
33	0x3f0e059e	0.5547732
34	0x3ef915e9	0.4864953
35	0x3ed4b302	0.41542822
36	0x3f0a4a3f	0.5401954
37	0x3ee43a39	0.4457567
38	0x3f29a104	0.66261315
39	0x3ea50d86	0.3223688
40	0x3eec7cad	0.4618887
41	0x3f00f566	0.5037445
42	0x3efb944c	0.4913658
43	0x3f14c600	0.58114624
44	0x3f4cfd4e	0.8007401
45	0x3ee0c649	0.4390128
46	0x3ece597e	0.40302652
47	0x3f00fa2c	0.5038173
48	0x3ecb8408	0.3974917
49	0x3eeecbfc	0.46640003
50	0x3f19a59c	0.60018325
51	0x3ef29e09	0.47386196
52	0x3ef9289a	0.4866379
53	0x3f11f619	0.5701614
54	0x3f339c47	0.70160335
55	0x3f6c9128	0.9240899
56	0x3e8a7d7e	0.27048868
57	0x3ea2333f	0.31679723
58	0x3f0c6de3	0.54855174
59	0x3ed1ef3d	0.41002837
60	0x3f2a7ccb	0.6659667
61	0x3eb2a4a2	0.3489123
62	0x3f0392ff	0.51396173
63	0x3efdcb7d	0.49569312
64	0x3f138905	0.5763095
65	0x3f01e680	0.5074234
66	0x3f11322e	0.56717193
67	0x3f164c0a	0.58709776
68	0x3eeacdef	0.4586024
69	0x3ee62bb4	0.44955218
70	0x3f182283	0.5942766
71	0x3f069b7c	0.52581
72	0x3f1feb41	0.62468344
73	0x3eaf616b	0.34254012
74	0x3eea89b9	0.458082
75	0x3f1cc61b	0.61239785
76	0x3f10f84a	0.5662886
77	0x3f257e4a	0.64645827
78	0x3e9857a6	0.2975437
79	0x3edd52f4	0.4322735
80	0x3ebef00a	0.3729251
81	0x3ec442b9	0.38332155
82	0x3ed02f6e	0.40661186
83	0x3ed85d5e	0.42258734
84	0x3ef1313d	0.47107878
85	0x3f7a5e04	0.97799706
86	0x3eed6163	0.46363363
87	0x3ee642d2	0.44972855
88	0x3ebaa4bc	0.36453807
89	0x3f040309	0.5156713
90	0x3ed38b3e	0.4131717
91	0x3ef85e0e	0.48509258
92	0x3f159c23	0.5844137
93	0x3eafb785	0.34319702
94	0x3efac2cf	0.48976752
95	0x3ed89a45	0.42305198
96	0x3ec514bd	0.38492385
97	0x3edd18e7	0.4318306
98	0x3f27c483	0.6553423
99	0x3f14fc73	0.58197707
100	0x3f221ec1	0.63328177
101	0x3efff6a9	0.49992874
102	0x3eb459f9	0.35224894
103	0x3efb0b1a	0.49031907
104	0x3ed3cc7d	0.4136695
105	0x3ee1026b	0.43947157
106	0x3f7b2cd8	0.981153
107	0x3ed52d6b	0.41636214
108	0x3eccf41e	0.40029997
109	0x3f158d30	0.5841856
110	0x3f121b3f	0.57072824
111	0x3ebe4922	0.3716517
112	0x3f1243d5	0.57134753
113	0x3ea46aff	0.32112882
114	0x3f07c89a	0.5304047
115	0x3ed4f1d9	0.41590765
116	0x3ef43fad	0.4770483
117	0x3f28fc22	0.66009724
118	0x3ed26b0f	0.41097304
119	0x3ef999ae	0.4875006
120	0x3ecde22a	0.40211612
121	0x3f3508ba	0.7071644
122	0x3f0424e5	0.51618797
123	0x3ebf3ed5	0.37352625
124	0x3f187a52	0.59561646
125	0x3ee3b8d5	0.44476953
126	0x3ec12927	0.3772671
127	0x3eb79ad5	0.35860315
128	0x3ec99b5f	0.3937635
129	0x3ee656ab	0.44987997
130	0x3eb58e93	0.35460338
131	0x3f0a7b7a	0.5409466
132	0x3eec586e	0.46161216
133	0x3edb8558	0.4287517
134	0x3f539ba3	0.8265936
135	0x3eb5705e	0.35437292
136	0x3ed691f3	0.41908225
137	0x3ea79812	0.32733208
138	0x3ea568fe	0.32306665
139	0x3f387455	0.7205251
140	0x3ecf63ee	0.40505928
141	0x3f06027e	0.5234755
142	0x3f4f4a49	0.80972725
143	0x3eb3a8de	0.35089773
144	0x3efdc8b0	0.49567175
145	0x3eef3fc3	0.46728334
146	0x3ee74541	0.45170024
147	0x3ec60ba3	0.38680753
148	0x3f07ccb8	0.5304675
149	0x3eea7a2d	0.45796338
150	0x3eac7e54	0.3369013
151	0x3ef551f1	0.4791408
152	0x3f24b1ae	0.6433362
153	0x3ec18ea3	0.37804136
154	0x3edcd14c	0.4312843
155	0x3eddf8d6	0.4335391
156	0x3f03b864	0.5145323
157	0x3ed3492c	0.41266763
158	0x3f04cac9	0.51871926
159	0x3ec8a300	0.3918686
160	0x3f872965	1.0559508
161	0x3f155576	0.5833353
162	0x3f0ae61b	0.54257363
163	0x3edb6c0e	0.42855877
164	0x3eb48a7b	0.35261902
165	0x3ef97325	0.4872066
166	0x3ee3bcdc	0.44480026
167	0x3e9ea541	0.30985454
168	0x3ed9c100	0.4253006
169	0x3eead92c	0.45868814
170	0x3f836e65	1.0268065
171	0x3f090041	0.5351601
172	0x3ee7d1d3	0.4527727
173	0x3f132487	0.5747761
174	0x3eb24767	0.348201
175	0x3e92940b	0.28628573
176	0x3f1984a1	0.59968
177	0x3ee5a135	0.44849554
178	0x3efac34a	0.4897712
179	0x3f4104da	0.7539803
180	0x3f02b626	0.51059186
181	0x3ef99305	0.4874498
182	0x3f346db9	0.70479923
183	0x3eca3364	0.39492333
184	0x3eec7883	0.46185693
185	0x3f056a18	0.5211501
186	0x3f845d3d	1.0340954
187	0x3ee67972	0.4501453
188	0x3f09c775	0.5381997
189	0x3ecd6859	0.40118673
190	0x3f0460a0	0.5170994
191	0x3ed952bf	0.42445943
