models/nn_to_lev_cat04_epoch16.pt (torch, 338509 bytes, 43 tensors)

weight f4 [224, 14]
00000000: 6a37 363e 5560 2c3e a51d 8dbe 3f11 983e
00000010: 8c2d e4bd c966 58bd 6dc5 11bf 9f40 0a3f
00000020: 561d 373f 23bf 85be e311 9b3e 7ea9 8abd
00000030: b1f0 493d e0d2 6c3c 5fad fd3c 7034 1cbe
00000040: e00c 263e b509 ca3d b648 efbd 2368 153d
00000050: 43cd 5cbd b204 5ebd c726 0bbe e4d7 c33e
00000060: 6c45 19bf 4dde b2bd d738 033d 08c5 53bd
00000070: d79b 0a3e 3d36 fdbe 48b1 b43e cc17 85be
00000080: 1313 c03e 75f6 dcbd 3560 bcbe b85e fb3e
00000090: 21cb 8ebd 1b6f 043e e841 89bc a40e 12be
000000a0: b15b 923c a209 45bb cfb6 a53e 8b17 003e
000000b0: 98f9 73be 050f 53be f524 1a3e 94cd b93d
000000c0: 83f6 853e c466 39be e71c a6be 3bba b53c
000000d0: 8653 7bbe 46f0 b13e 0e84 c23d d8fa f63c
000000e0: fce6 c13c bd8a 34be a9d5 1e3e 4ba9 bbbd
000000f0: e615 893e 4f53 03be 9e62 783e de7e b5be
00000100: 9a28 1f3e def2 09be 570e 023f e1fd ffbe
00000110: 8fbd e93c 7e27 b33c d0e3 993d 5b59 2f3d
00000120: 9afc 983a da40 c3be e7f7 0fbf d64c 06bf
00000130: e11d 013e 28a6 4d3d 4513 dc3c f5e1 573d
00000140: dc77 31bd a9e3 b3bc 7c48 41be bb82 7abd
00000150: bb58 373e bf20 9ebd 86e8 383d 8246 bbbe
00000160: efef 20bd aa2c bb3e c939 443e 3819 8bbe
00000170: 3539 633e be2f 833e 86af 36be eb01 3ebe
00000180: c9bf 383e 5312 1bbc bb46 6abc 5b51 30be
00000190: ad17 4bbd acb1 793d 03b4 f7bc 38ce 31bd
000001a0: 34bb 763e afd0 84bc ca71 81be 5497 bb3c
000001b0: 5cab febe facc 06be 15be bd3e 5944 8dbd
000001c0: a56d 7abd db1a 83be 1d0f b0be 9a7c 5ebe
000001d0: a9a6 cebd 1b49 31be 0c8f 993c e833 843c
000001e0: ce10 acbd 8cd1 78be c7db 28be 94f4 3abe
000001f0: 9109 75bd fc59 fcbe ce82 54bd d680 26be
00000200: fe87 ef3d f5a2 29bd d611 1c3e 557f 5b3d
00000210: f088 52bd c687 6e3e 2e66 363e 19be a1bd
00000220: 63b1 94be 6743 90be 2f2d 4b3e 6b76 41bd
00000230: 9c8e d33d c9cb aabe 6964 163e 3a60 34be
00000240: e721 b33d fecf e73d f09a 013e 512d c33e
00000250: ca7d 4d3f b8eb 95be 8787 90bd ae43 ccbe
00000260: 8086 45be 31c8 47bd 9e40 933e 01d4 f0be
00000270: 6515 3f3e d893 833e b25a db3d 9696 b9be
00000280: bab3 c43e d4d9 f6bb 9f3d 98bc ff51 a1be
00000290: 32d2 283e 86e4 1dbc 7f80 c13c a98d 753d
000002a0: cf71 a3b9 7cc5 c2b9 4d46 c6b9 64ca 4d39
000002b0: 090a bb39 b9fc a939 1668 aeb8 1bdf 8ab8
000002c0: 0543 a2b8 e632 94b8 b33a 27b8 7323 3fb8
000002d0: e91d 2c39 791f 2139 2352 4639 8aea 1239
000002e0: 5c3e c738 5f78 9db9 31aa 6eb9 47ea 64b9
000002f0: e630 92b8 071e ccb8 b7bc a3b8 cc83 ee38
00000300: d7d5 8f38 7c9b a438 e3cd 2639 33fe ccb8
00000310: 9286 c7bc 6d55 1fbd 2836 ae3d 24ad 3c3e
00000320: e657 35be 9058 06bc 8319 c53e 6f7a 003e
00000330: eeb5 06bd 150d 3d3d 2752 8bbe 5ba7 62bf
00000340: 0487 05bd 25a7 853d b7fa 723e 1642 863e
00000350: d9c7 efbe a0aa 99be e44c 11be 64f6 ce3e
00000360: 343f a2bd 34a8 90be 1bac ca3e 17c4 813d
00000370: dbde 96be 58ae 873e d0ac 87bd 3849 4bbc
00000380: 9284 d2be 2886 633e 5c57 813e 735e 863e
00000390: a6fe 3bbd 4c85 8cbe f79f 23bf 7c2c 1c3f
000003a0: 67d1 c73e 0c4c 073e 8f97 dcbc b043 c3bd
000003b0: 9155 a53d db02 02bd dec8 8c39 1311 5539
000003c0: d43f ac38 f973 87b8 7afc 1139 93be 7039
000003d0: df24 2f37 17fc 2db7 cc60 89b6 b103 df39
000003e0: 643c f439 e0ae bf39 a41f 31b9 10fe 9fb9
000003f0: dada 7e3e 096e 35be 0734 07be 0bd5 01be
0.17794576 0.16833623 -0.2756168 0.29700658 -0.111415 -0.0528324 -0.5694187 0.54004854
0.7152914 -0.26122388 0.30287084 -0.06770609 0.049301807 0.014454573 0.030966459 -0.15254378
0.16215849 0.09865133 -0.116837904 0.036476266 -0.05390669 -0.054203697 -0.13589011 0.3825065
-0.59871554 -0.08733807 0.03203663 -0.051701576 0.1353601 -0.49455443 0.35291505 -0.25994718
0.37514552 -0.107891954 -0.3679215 0.49095702 -0.069723375 0.12933008 -0.01675506 -0.14263397
0.017865987 -0.0030065556 0.32366034 0.12508981 -0.23825681 -0.20611198 0.1505316 0.09072414
0.26164636 -0.18105608 -0.32443926 0.022183528 -0.2454358 0.34753627 0.09497844 0.030148908
0.023669712 -0.1763105 0.15511192 -0.091631494 0.2677452 -0.12824748 0.2425637 -0.35448354
0.15542832 -0.13471553 0.5080313 -0.49998382 0.028532771 0.021869417 0.07514155 0.042809825
0.0011671961 -0.38135415 -0.56237644 -0.5246099 0.12609054 0.050207287 0.026864657 0.052705724
-0.043327197 -0.021959143 -0.18875307 -0.06115983 0.17904942 -0.077210896 0.045143627 -0.3657723
-0.03929132 0.36557513 0.19162668 -0.27167678 0.22189792 0.25622362 -0.17840394 -0.18555419
0.1804191 -0.009464818 -0.01429909 -0.17218535 -0.049583126 0.060960457 -0.030237203 -0.043409556
0.2409485 -0.01621279 -0.25282127 0.022899307 -0.49740112 -0.1316413 0.37059084 -0.06897802
-0.06113972 -0.25606427 -0.3438653 -0.21727219 -0.10090382 -0.17313044 0.018744968 0.016138032
-0.08401643 -0.24298686 -0.16490088 -0.18257362 -0.059823576 -0.49287403 -0.051882558 -0.16260085
0.1169586 -0.041415174 0.15241179 0.05358823 -0.051400125 0.23293981 0.17812416 -0.078975864
-0.29041585 -0.28176424 0.19841455 -0.047232073 0.10329935 -0.333586 0.14686741 -0.17614833
0.08746701 0.11318968 0.1265676 0.3812051 0.80270064 -0.29281402 -0.070571 -0.39895386
-0.19289589 -0.0487749 0.28760237 -0.47036746 0.18660505 0.25698733 0.10710658 -0.362477
0.3841837 -0.0075332914 -0.01858407 -0.3150787 0.16486433 -0.009637004 0.023620842 0.05994955
-0.00031174577 -0.000371497 -0.0003781788 0.0001962572 0.00035674896 0.00032422485 -8.316354e-05 -6.6219094e-05
-7.737245e-05 -7.0666705e-05 -3.987057e-05 -4.5570963e-05 0.0001641434 0.00015365881 0.0001891335 0.00014011018
9.500675e-05 -0.00030035057 -0.0002276085 -0.0002183105 -6.9709306e-05 -9.733071e-05 -7.8075966e-05 0.000113732734
6.858602e-05 7.8490906e-05 0.00015907692 -9.774826e-05 -0.02435616 -0.038899828 0.08506423 0.18425423
-0.17709312 -0.008199826 0.38496026 0.12546705 -0.032888345 0.046155054 -0.27211115 -0.88536614
-0.032599464 0.06526021 0.23728453 0.26222295 -0.4683216 -0.3001299 -0.14189488 0.40422356
-0.07922211 -0.2825333 0.3958443 0.06336229 -0.294669 0.265002 -0.06624758 -0.012407593
-0.41116768 0.22219145 0.25261962 0.26243934 -0.04589715 -0.27445447 -0.6391596 0.6100538
0.3902695 0.13212603 -0.026927738 -0.09534395 0.08072961 -0.031741004 0.0002685254 0.00020319624
8.213488e-05 -6.458903e-05 0.00013922332 0.00022959178 1.0439398e-05 -1.0370298e-05 -4.094187e-06 0.00042536625
0.000465843 0.0003656065 -0.00016891822 -0.00030516135 0.24888173 -0.17717756 -0.1320344 -0.12678926

bias f4 [224]
00000000: 7947 64bd 52b5 00bf 8e6a 753e 4504 4cbf
00000010: 8b83 35bf 9913 29bf 0ea0 0fbf c7e6 19bf
00000020: 5274 82be cc5b 6bbd 3689 433f c324 36bf
00000030: 5fb4 a8b6 d277 3bb6 47d3 debd fa98 d33e
00000040: 5cdf f9be ade7 beb5 52c3 8dbe 86a9 da3e
00000050: 1494 2cbf 47a5 843d 3ca9 a23e 23c7 20bf
00000060: e5b5 243d 1c05 bd3e 106a 1ebf 64db 013f
00000070: 0472 2cbf 484d 25b6 da0a 4fbf 3edc 89bc
00000080: 2669 80be 8d76 43bf 7943 06bc 2c50 fe3d
00000090: 8387 b5be 9a2b ea3e 0fed 68be 2cc5 c0bd
000000a0: 9d79 1dbd df10 cdb6 dec9 923e 958b 55bf
000000b0: 4dd5 83bf 9904 03bf b242 95be 4ef9 223e
000000c0: a80b 473e dde3 e0b5 dd15 a2be 7235 49bf
000000d0: 5404 163e f322 183e 9988 03bf 0f73 f5b5
000000e0: b418 3f3e 97b8 b23e 74e2 6cbf 28bf 69b5
000000f0: 0615 25b5 dab6 a7be ee51 1ebf 326a 7bbf
00000100: c0d6 54be 1ce4 7abe 5a04 c13e 77e9 15b7
00000110: dc58 3bbf 6e22 0dbe cc8c 163e b5c0 c9b5
00000120: 28ce 8eb5 d629 c8be b8de 51b7 bbc9 453c
00000130: c660 6dbf eb1b 22bf 79ec ea3e a381 8d3e
00000140: ffbf a9b6 7a2b 24bf 15b5 623d b4f9 31be
00000150: b91d 82bf c7a4 8cb5 1881 0abe 884f 7fbd
00000160: 57c4 febe 7dc3 92bf e51e e0bc b060 083f
00000170: 5c5d 81bf 20d3 12bf 1177 2db6 5c50 13bf
00000180: 0160 8fbe d497 5c3e 6dc8 fcb3 aa87 ecb5
00000190: 189b 97be a913 253e 146b 7cbe b302 18bf
000001a0: 2314 d6be 9e06 16bf 0422 74be 6bfe 06b5
000001b0: bf79 813d dc6f 9035 c11d fdb4 b40c 07bf
000001c0: 9201 8334 59ab 81bc 4cbf 07bf 5cbf 10bf
000001d0: d1f0 b6be b5ea 58be b2c2 7d3e eacd 553d
000001e0: 34d8 0db6 2c3d ad3d 0552 8c3d 578a 643e
000001f0: fdd8 7eb5 6ffd 6abf 122a 97b5 86bd 3bbf
00000200: b865 633e 9570 51bf a5c5 71be d688 14be
00000210: cb08 25be 7b42 8cbd e9b0 dcbe 6085 b73d
00000220: a634 9cbe 7c67 d6b6 3cd2 08bf a875 10bf
00000230: 903e 4ebf deda 80bf 94e2 2cbe 1f32 6dbd
00000240: 7650 2abe a8b6 1cb6 a9af 78bf 9732 05b6
00000250: 8f26 763e eb67 953e c47a bcbe 5d47 4736
00000260: 1281 d6be 8566 ffbd 26fd 41be 82fc 24bf
00000270: 5919 b1be 3293 65bf e541 32bf 0507 e2bd
00000280: 3584 d1be 7d44 8c3e 6a54 f5b5 29df 1bbf
00000290: 33df 50bf b6ef 16bf 703d c7b5 074a 86bf
000002a0: 4541 aabe 4bdc 62be 0efb c1be 46be fbbe
000002b0: 531c a1be 48f0 85be ee56 87be 5709 1bbf
000002c0: 0f24 7dbd da4f 79be bed2 5cbf badd 773d
000002d0: 5562 95be fba6 a8be 6a8c bcbe 6b90 1cbf
000002e0: 1a67 933d dbd9 15bd bc25 27bf a8f4 a03e
000002f0: 1ceb b1b6 8885 03bd 11c1 b7be 38fc 91be
00000300: cf85 013e 6643 95be 1955 80bd 6a58 54bf
00000310: 7948 27bf 520d c4b5 254d 54bf 13d3 8a3e
00000320: e0e7 ad3e 7805 263d 7edf 763c 2556 14bd
00000330: 0f22 23bf 65da 11bf 573e ddb4 29b9 5abc
00000340: 6b97 86b5 bd0d 093d ec31 c9bd e51e e1be
00000350: 9afc 2fbf a7e1 75bf aa6c f5b5 0737 53be
00000360: 678d 8fb5 c695 853e f726 35bf e57d 153f
00000370: c03b f5b5 2e1f bbbe 5cd1 c8be 11ea d7b5
-0.055732224 -0.5027667 0.23966429 -0.79694015 -0.70903844 -0.6604553 -0.561036 -0.60117763
-0.2547937 -0.05746059 0.7638124 -0.71149844 -5.027788e-06 -2.7934916e-06 -0.10880142 0.4132765
-0.48803222 -1.422353e-06 -0.2768808 0.4270746 -0.6741345 0.06476837 0.3176974 -0.6280386
0.04021253 0.3691796 -0.6188059 0.5072539 -0.67361474 -2.46319e-06 -0.80875933 -0.016828652
-0.25080222 -0.7635277 -0.008194798 0.12417635 -0.3545495 0.4573639 -0.2274668 -0.094126076
-0.038446058 -6.11144e-06 0.28669637 -0.8341611 -1.0299469 -0.5117889 -0.29152447 0.15915415
0.1943804 -1.6755617e-06 -0.31657305 -0.78597176 0.14650089 0.14857082 -0.51380306 -1.8287409e-06
0.18661767 0.34906456 -0.9253304 -8.7077433e-07 -6.1497883e-07 -0.32756692 -0.61843765 -0.98208916
-0.20785046 -0.2450108 0.37698632 -8.93545e-06 -0.73182464 -0.13782665 0.14702147 -1.5031752e-06
-1.0639824e-06 -0.39094418 -1.25092265e-05 0.012072022 -0.9272579 -0.6332385 0.4588354 0.27637967
-5.0589438e-06 -0.6412884 0.055348475 -0.1738041 -1.0165321 -1.0478769e-06 -0.13525808 -0.062331706
-0.4975917 -1.1465908 -0.027358482 0.53272533 -1.0106616 -0.573534 -2.5848315e-06 -0.57544494
-0.28002933 0.21542293 -1.1771122e-07 -1.7622854e-06 -0.29610515 0.16120781 -0.24650222 -0.5937912
-0.41812238 -0.5860385 -0.23841101 -5.0289117e-07 0.06322049 1.0761391e-06 -4.714657e-07 -0.5275376
2.4401794e-07 -0.015828775 -0.5302627 -0.5654199 -0.35730603 -0.21183284 0.24781302 0.052198328
-2.1136484e-06 0.08458933 0.068515815 0.22318397 -9.4938133e-07 -0.9179296 -1.1262621e-06 -0.73336065
0.22206771 -0.8181241 -0.23610552 -0.14505324 -0.16116636 -0.06848618 -0.43103722 0.08960986
-0.30508918 -6.389744e-06 -0.5344579 -0.5642953 -0.8056421 -1.0066793 -0.16883308 -0.057909127
-0.16632256 -2.3352131e-06 -0.97143036 -1.9847992e-06 0.24038146 0.29180846 -0.36812413 2.969485e-06
-0.41895348 -0.12470726 -0.18944225 -0.64447796 -0.3458965 -0.8967773 -0.696318 -0.11036495
-0.40921178 0.27396002 -1.827849e-06 -0.6088739 -0.81590575 -0.5895952 -1.4844536e-06 -1.0491341
-0.33252922 -0.22154348 -0.37886852 -0.49168605 -0.31466922 -0.26159883 -0.2643351 -0.60561126
-0.061801966 -0.24346867 -0.8625907 0.06051419 -0.29176584 -0.32939896 -0.36825877 -0.61157864
0.071973994 -0.036584716 -0.65291953 0.31436658 -5.3023814e-06 -0.032109767 -0.35889485 -0.2851274
0.126487 -0.29152983 -0.06266231 -0.8294741 -0.6534496 -1.4607015e-06 -0.82930213 0.27114162
0.3396597 0.04053256 0.015067933 -0.036214966 -0.63723844 -0.5697387 -4.1209816e-07 -0.01334981
-1.0027846e-06 0.033460367 -0.09823975 -0.43968883 -0.68744814 -0.96047443 -1.8285548e-06 -0.2062646
-1.0695484e-06 0.2609083 -0.7076258 0.58395225 -1.8271312e-06 -0.36547226 -0.3922223 -1.6086871e-06

weight f4 [224]
00000000: 75fb 413f afdb d33e 1f64 8d3f d58b e33e
00000010: 4bb9 443f b785 eb3e 9995 0f3f 9d52 283f
00000020: 4b2d b23e 4143 9b3e aabf 9d3f 5ce7 413f
00000030: 3681 5b38 7e3b 58b7 91e6 8e3f c00d 503f
00000040: 06d0 2f3f fc8e 0539 e72e 1e3f f42a 7b3f
00000050: 4e0c 293f a24f 653f 0d5a 8f3f a4e2 0d3f
00000060: 2fb1 323f 7142 843f 3184 a53f 9c4c 8d3f
00000070: 76fb e03e 8423 b837 a156 f83e 614a da3e
00000080: dcdb 963e 21ea 163f a34f 193e cc47 cb3e
00000090: 0be1 ea3e d2cc be3f 21bb 1f3f 63a5 e73e
000000a0: 0616 6b3e 120d 0e39 0e5d 433f 22a1 0a3f
000000b0: 9e01 d73e 9cfe d83e 890c 2f3f db04 943f
000000c0: c1e4 3f3f 5cfc 19b8 1cf6 093f ab42 cf3e
000000d0: 3409 333f 66e0 803f 2516 af3e 8a6a 8f37
000000e0: f947 6d3f c0aa 943f 06c8 d93e e178 26b9
000000f0: 3ca7 1d38 a214 0e3f 47eb 313f f7a1 b83e
00000100: 5798 d63d fe21 b33e 1c9a 933f e5e6 a3b8
00000110: c0ad cc3e 3b2c 433f 4856 413f 32df 1738
00000120: 3e74 28b8 517e 013f 0e61 3eb9 f982 f13e
00000130: 2c51 273f 54b0 313f dba1 d03f e96b 423f
00000140: 7e35 ff36 12bf 6d3f 10b3 8b3f c99e 2f3f
00000150: 3d78 c03e 97dd 1738 b36a de3e 26e7 503f
00000160: 0238 e63e f206 f93e c63f 4c3f 8af1 033f
00000170: 8132 d83e 3d9d d93e 312d 9db5 89d2 1d3f
00000180: 3d09 8e3e 883d 813f 875a 06b9 c9ff f336
00000190: 673b bb3e edb4 113f 55d5 7d3f 397b 103f
000001a0: 4783 093f 198f 013f c093 303f 9dc8 13b6
000001b0: 0bbd 973e f712 8439 1b1c 73b7 1a3d 253f
000001c0: d086 2a39 f6fb ac3c f75d 233f ee2c 4e3f
000001d0: e651 d93e e793 4d3e 91f2 6f3f 72fa 8e3f
000001e0: e261 09b8 b5f5 b13f 078c bc3e 3289 053f
000001f0: dae3 9eb6 fdeb 023f 3e1f 2bb8 817d 583f
00000200: 7248 a83f b57c c43e 07de 043f 09b6 533f
00000210: 5404 453f 37a8 ec3d 42e4 343f 481c 823f
00000220: 5360 703f 0379 0cb9 c936 e83e 2631 043f
00000230: c29c 543e 0fc0 1a3f 1446 9c3e 0cc2 f53e
00000240: 7eb2 173f 3edc 8538 b450 633f 51e0 f2b7
00000250: cbe9 943f 9fa6 083f 7ee8 133f f1f4 3039
00000260: 2665 f43e 1619 153f f667 3b3f d2b7 3c3f
00000270: df0d 683f 7b2d 893e ec3a 023f f5ff 263f
00000280: e5d9 2b3f 64cc 4c3f 4bea 6337 082b 3d3f
00000290: 2776 783f 8850 213f 3b78 ecb7 b4cf 123f
000002a0: a5a1 083f d959 e33e 3188 113f 98cd cd3e
000002b0: c4cf 8c3e e614 0f3f 0861 803e 556f 173f
000002c0: 93d9 a73e 5cc1 153f 0eda 633f 9bda 833f
000002d0: 8068 4e3f c568 d03e c7ca 553e 6ab2 a83e
000002e0: 9ecd 623f bb9e 6c3e 3de4 9d3f c491 c53f
000002f0: 3dba 5b38 f302 5c3f 041d ef3e 3558 843f
00000300: 1c23 6f3f bb72 193f 4771 893e dc3a 883f
00000310: dbcc 383f 1a34 d8b8 d50d c23e 5bac 8a3f
00000320: 35d4 083f 4f77 6d3f 0788 623f c2d0 153f
00000330: 4845 c33e 7f74 0a3f 107f e0b5 e599 b63f
00000340: 05df 4cb8 37ff 303f e60e a73e 7d31 0c3f
00000350: 2a17 033f a479 083f 8b12 2537 497a 803f
00000360: 4cd5 87b8 7db1 7c3f 9b66 cd3e c5de 753f
00000370: 0483 f937 a364 bd3e afd8 213f 5632 3fb6
0.7577432 0.41378543 1.104618 0.4444262 0.76845235 0.46000454 0.5608764 0.6575106
0.3480018 0.30324748 1.2324116 0.7574365 5.2334006e-05 -1.2888455e-05 1.1164113 0.8127098
0.68676794 0.00012737134 0.6179032 0.98112416 0.660344 0.89574635 1.1199356 0.5542395
0.6980161 1.0332776 1.2930967 1.1039004 0.4394185 2.1951048e-05 0.48503593 0.42634872
0.29464614 0.58951 0.14971785 0.39703214 0.4587482 1.4906256 0.6239491 0.45243368
0.2295762 0.00013547044 0.76313865 0.5415212 0.4199342 0.42381752 0.683785 1.1563982
0.74958426 -3.671307e-05 0.5389116 0.4048055 0.6993592 1.0068481 0.34196582 1.709654e-05
0.92687947 1.1614609 0.42535418 -0.00015876025 3.7587466e-05 0.55500233 0.6949963 0.3606107
0.10478275 0.3498687 1.1531405 -7.815453e-05 0.3997631 0.76239365 0.7552228 3.6209072e-05
-4.016258e-05 0.5058337 -0.00018155968 0.47170237 0.65358233 0.6940968 1.6299394 0.7594591
7.6058195e-06 0.92869675 1.091402 0.6860166 0.37591735 3.6207577e-05 0.4344078 0.81602705
0.44964606 0.4863811 0.7978481 0.51540434 0.4222603 0.42502776 -1.1710564e-06 0.61649376
0.27741423 1.0096903 -0.0001281296 7.2717417e-06 0.36568758 0.56916696 0.99153644 0.5643802
0.5371594 0.50608975 0.6897545 -2.202148e-06 0.29636416 0.00025191132 -1.44904725e-05 0.6454636
0.00016262685 0.021116238 0.63815254 0.8053731 0.42445296 0.20075952 0.937295 1.117018
-3.2754506e-05 1.3903109 0.36825582 0.5216247 -4.7352924e-06 0.5114134 -4.0798674e-05 0.84566504
1.3147109 0.38376394 0.51901287 0.8269964 0.7695973 0.11555522 0.70660794 1.0164881
0.9389698 -0.00013396521 0.45354298 0.51637495 0.20762923 0.6044931 0.30522215 0.4799961
0.5925673 6.3829575e-05 0.8879502 -2.8953104e-05 1.1633848 0.53379244 0.5777663 0.00016875916
0.4773342 0.58241403 0.73205507 0.7371799 0.90646166 0.2679251 0.5087116 0.6523431
0.67129356 0.79999375 1.3584805e-05 0.73893785 0.97055286 0.63013506 -2.8189379e-05 0.5734818
0.5337165 0.44404486 0.56848437 0.40195918 0.27502263 0.55891263 0.2507403 0.59154254
0.32783183 0.5849817 0.890046 1.0301088 0.80628204 0.40704933 0.20878135 0.3294862
0.88594997 0.23107426 1.2335278 1.5435109 5.2387117e-05 0.85942 0.46701825 1.0339419
0.9341295 0.5994069 0.26844236 1.0642962 0.72187585 -0.00010309387 0.37901178 1.0833849
0.534488 0.92760175 0.8848881 0.58521664 0.38138795 0.5408401 -1.6726281e-06 1.4265715
-4.8845093e-05 0.69139427 0.32628554 0.54763013 0.5120722 0.5331061 9.839084e-06 1.0037318
-6.477031e-05 0.98708326 0.40117344 0.96043044 2.9744122e-05 0.36990842 0.6322126 -2.8490517e-06

bias f4 [224]
00000000: c7bd e53d aede 6f3e ed2f 1b3e b7a8 d13d
00000010: 8579 273e 3135 9fbc 6103 9c3e b78a d43e
00000020: 954f 093e c718 8e3e 56a9 6f3e 48fb 9e3e
00000030: b53d 7338 46ce 8738 1187 2bbe 6ce3 823e
00000040: da16 773e 82ba bfb6 ea1a 333e 3bc0 8b3c
00000050: cbbc 933e a0a0 2b3d 4102 de3e 860d 1d3c
00000060: 1f3c f83d c92a 6a3d 518d 87bd 5ddc ff3d
00000070: d22c 99bb 9868 7d39 5d86 1dbd 797b 0abe
00000080: 8fab 303e 5f62 df3e 16f6 2a3e df72 1c3e
00000090: 6e5e 863e 681b 973c ad15 f33c 7ec0 67be
000000a0: 6349 473e 55b4 b7b8 66a3 473d 2cd7 013f
000000b0: b1e9 a23e 538e 293e 22a4 953c da69 363e
000000c0: 207f 82bd 22e7 af38 8f1b af3e 8aec 3b3d
000000d0: 9482 9b3e b316 0a3e e508 a33d 9d23 a137
000000e0: da29 863e b51d 50bd 89b0 bd3c 7b3e 1b39
000000f0: ed72 b438 3180 413d 3e4a b2b9 e288 23bd
00000100: 4cb4 053e 7e03 bf3e 0b0f 053d 10a4 03b8
00000110: 2c29 4abe a72e 7c3e 9fe1 0abd 70c2 e537
00000120: 5bc2 02b8 2006 c63e 1ba5 cc38 94ae 953e
00000130: 8d40 a43d 42c0 c33e 21e1 373e 381d ebbd
00000140: ce62 bdb8 55a4 80be 70be ab3d 7b98 993e
00000150: 11de 973d de75 8137 7ab4 3e3e f1bc e43d
00000160: 4bda 1c3e 0266 873d 8f5a df3e d08e 3f3d
00000170: e5dc b53d a401 5c3e f049 feb7 54f4 d33d
00000180: 7a3a 3fbe 8670 383e 04b4 4738 5af1 3038
00000190: 0825 f63d ca27 053f d903 b83e 5b03 a2bd
000001a0: 7100 4f3e 0a83 9c3e 2aa6 b43e e75e 3bb7
000001b0: 5fb3 11bc 8b3e d138 268c 3438 c8a2 003f
000001c0: 754e eb39 e08c 7c3c a265 ce3d 0d81 9e3e
000001d0: a469 213d 48b5 d03d 3570 4d3e 89ea a83e
000001e0: 120d 6438 823e 4e3e c3ac b2be 2e85 b3be
000001f0: 3f5e 31b8 afcf 053e a22c ee38 894a 72bd
00000200: fc39 563e baf0 af3d de9b b93d e1d5 d13e
00000210: 604a 053f 400d bc3d 6446 e23e af6c 653e
00000220: 3574 c83e f11e 76b8 d81d d33b 7eec 1c3e
00000230: f80b eebd 3cf7 023e 3ce0 b5bd 14c4 123e
00000240: 91f9 323e 1a88 98b8 40b9 823e debf c4b8
00000250: f168 963d 59a1 4b3e 99c6 ba3e f4b0 8fb8
00000260: 1d3a 253e 6ccc 593e 5c79 6f3e 8a83 273e
00000270: 357c a23e fd3d 103c c5a0 1d3c 3b1b 9e3e
00000280: 2566 403f 5192 273e 15c0 3039 1818 ad3e
00000290: 5eef fe3e d5e0 323e a9bb 0639 dc1b 8a3e
000002a0: e6fa 043f 26e8 9a3d c738 bf3e 62fc 8eb9
000002b0: 3c69 f0bd 767e 973e 18df 663e c824 743e
000002c0: 85fc a2bc f156 853d e69e a63e 54fc a33e
000002d0: 7405 3f3e 4d17 0fbe 38be aa3d fafd 923c
000002e0: 3990 673e 20ff 1c3e 7657 b93e ddc6 333e
000002f0: aa87 da38 bff8 953e 4d8e af3c 8edf 633e
00000300: 180e b83e 893e 963e df74 513e dbce c13d
00000310: 9e47 0e3f 87ee 91b8 7c70 f43c 4c71 363e
00000320: 6042 fa3c cf37 493e e3ac e73e 2200 433e
00000330: af2b 203e 1807 5abd ce3a 9837 c317 b83d
00000340: e642 18b7 3c24 2cbd 1ebd d8bd 762f a13e
00000350: ee32 903e 98c1 e53d 99fe 6338 34f3 5b3e
00000360: f8fa 2db8 ab3e 803e 5f04 c9bd f2eb cd3d
00000370: 6ff1 1c38 ea3e e33d d9c9 043e 904b 1db8
0.11217838 0.2342479 0.15155001 0.10237258 0.1635495 -0.019434543 0.30471328 0.4151208
0.13409264 0.2775328 0.2340444 0.31051087 5.7993184e-05 6.475723e-05 -0.16750742 0.25564134
0.24129811 -5.713956e-06 0.17490736 0.017059436 0.28854975 0.04190123 0.43361095 0.009585744
0.12120842 0.05716971 -0.06618751 0.12493203 -0.0046745325 0.00024166924 -0.038458217 -0.13523664
0.17252944 0.4362974 0.16695437 0.15278195 0.2624392 0.018445686 0.029673422 -0.22632024
0.19461589 -8.7597095e-05 0.048739813 0.5071895 0.31818917 0.16558199 0.018266741 0.17813817
-0.063719034 8.387702e-05 0.34200713 0.045879878 0.3037306 0.13485222 0.07960681 1.920928e-05
0.26203805 -0.05080958 0.023155468 0.00014805228 8.6044754e-05 0.047241393 -0.0003400612 -0.039925463
0.13057059 0.37307352 0.03248505 -3.138563e-05 -0.19742268 0.24627171 -0.033906575 2.738947e-05
-3.1175423e-05 0.38676548 9.758231e-05 0.29234755 0.080201246 0.3823262 0.17956974 -0.114801824
-9.030626e-05 -0.25125375 0.083859324 0.29999146 0.07415403 1.5432885e-05 0.18623534 0.1116885
0.15317647 0.06611253 0.43623778 0.046767056 0.08880023 0.21485001 -3.031359e-05 0.10349336
-0.18674651 0.18011674 4.761295e-05 4.2186446e-05 0.12018782 0.5201384 0.35940436 -0.07910796
0.20215012 0.30568725 0.35283023 -1.1168165e-05 -0.008892863 9.977546e-05 4.3045868e-05 0.50248384
0.00044881148 0.015414447 0.10077979 0.30957833 0.039407387 0.10190827 0.20062335 0.32991436
5.437161e-05 0.20141032 -0.34897432 -0.35062546 -4.2287862e-05 0.13067506 0.00011357038 -0.059153114
0.20920557 0.08590837 0.090629324 0.4098349 0.5206661 0.09182215 0.4419433 0.22404741
0.3915116 -5.8679787e-05 0.0064427666 0.1532459 -0.116233766 0.12789625 -0.0888066 0.1433261
0.17478015 -7.273276e-05 0.2553196 -9.381746e-05 0.07344235 0.19885768 0.36479643 -6.8517315e-05
0.1613545 0.21269387 0.23386139 0.16358772 0.31735387 0.008803842 0.00962085 0.3088015
0.7515586 0.16364409 0.00016856224 0.33807445 0.49791998 0.17468579 0.00012849145 0.2697438
0.5194534 0.0756381 0.37348005 -0.0002727239 -0.11738822 0.2958867 0.22546041 0.23842156
-0.019895801 0.065107234 0.32543105 0.3202845 0.18654424 -0.13973732 0.083370626 0.017943371
0.2261361 0.15331697 0.3619954 0.17556329 0.000104203194 0.2929134 0.021430159 0.22253248
0.35948253 0.29344586 0.20454739 0.09463283 0.5557803 -6.958568e-05 0.029838793 0.17816657
0.030549228 0.19650196 0.4524909 0.1904302 0.15641664 -0.05322942 1.8147195e-05 0.08988907
-9.075482e-06 -0.042026743 -0.10582946 0.31481522 0.28163856 0.11218566 5.435813e-05 0.21479493
-4.1480147e-05 0.25047812 -0.09815287 0.100547686 3.741815e-05 0.11095984 0.12967624 -3.750209e-05

running_mean f4 [224]
00000000: d3aa 223e 3ccc a2bd 5a96 1e3e e597 0dbe
00000010: 014a 23be 53d1 343e 62e7 08be c892 71bd
00000020: 4ffd 6e3e d4e6 b93d 69ee 533f 9b11 0dbe
00000030: c230 b8b6 a2e1 1536 0711 5e3e f2df 953e
00000040: aa99 aebd 88a9 62b6 8389 9b3d 42df 613f
00000050: 84d5 25bd 804f fb3d c8af 023f 9262 adbd
00000060: df6b 333d dfb1 a53e adb3 b2bd 60d3 b83e
00000070: b51a 9abd 21bd 5d36 000b e33b e0b6 103e
00000080: f371 1ebd a912 993d 3fab c13d a082 843e
00000090: de19 cdbb 6a41 a03e 7300 05bd ed2a 873e
000000a0: fd9d 583e ca4f 59b3 c18d 6a3e f1ba 093d
000000b0: 0494 d3bd c2cd cfbc 7f8a cdbd b922 ca3d
000000c0: 03c3 373e f555 de34 34fe 17bd 2676 d1bd
000000d0: c77d 023e c440 c43d 7a33 63bd 1afb e6b5
000000e0: 16a1 073e fec5 763e a7eb dbbd d2a6 b736
000000f0: 1cfc 1a36 47ce 4abd 080b 10be 4083 dcbd
00000100: 1881 55bd e219 77bd b80f a03e 724c 32b7
00000110: 5640 513d 972c bd3c d1b3 e23d 1f62 fe35
00000120: 3f35 e5b5 23b2 c4bc 3f76 dab4 5678 0c3e
00000130: 5820 e6bd eed8 62bc 6c1a aa3e bec4 443e
00000140: f586 4436 cc24 7f3d b878 983d c414 aa3d
00000150: 3559 f7bd 7e02 d035 da1f 123b d7bf 013d
00000160: 6f90 4dbc 4785 dabd 91e0 bf3c 4be1 f53e
00000170: 3c9f f1bd 13f3 1fbd 5142 afb6 9e8a 16be
00000180: 58c2 023e 88a4 763e 6e2b 5336 d3ed 2436
00000190: 2be4 833e 356e 4d3e a0bd 51bd 2ec0 29bd
000001a0: ad55 a8bb c2a5 8bbd 51a6 e03e 4962 29b5
000001b0: c96e 033f 140b 05b4 56b5 5ab5 444d cdbd
000001c0: e5c2 0eb6 fcb2 393c 2d9a 14be b1ee 1abe
000001d0: e368 84bc afca 74bd 0b38 1c3e 3da0 ab3d
000001e0: d06c 6cb6 372d fd3d d6e6 983e af4a 163f
000001f0: d14c 9235 077d 01be 1e8f a9b5 8e7a c0bd
00000200: 49c4 213e 8f78 19be 4804 7ebd ca02 0bbc
00000210: e287 cabc 2b15 7b3d c5c3 e33c 5240 9b3d
00000220: 74aa 6cbd a46f f1b6 6686 02be 80f8 09be
00000230: 3960 13be c50e 9dbd 7740 443e b712 9b3d
00000240: 194d d7bc 690f 5c35 d8fb 9fbd 87ad 1935
00000250: 41dd 483e b8f0 853e 1e23 e3bd 3c4f ab36
00000260: ecdf a3bd 86fb 543e 3f33 453e df8c ce3c
00000270: 6be3 75bd 9798 d1bd cb2d 1abe 0148 833e
00000280: 4903 f33d 0b11 b43e 9ae0 39b6 13eb f0bd
00000290: 098a 94bc 805f 9abd c61d 15b6 4eb1 ebbd
000002a0: 1dd8 dc3c ea43 063c abe4 ee3c 7378 afbd
000002b0: 934b 0e3d 9297 1abc 08e1 80bd 1f39 863c
000002c0: 2e37 9e3d 1812 bc3e adf7 c2bd 10af 333e
000002d0: 2203 8cbd 16ca f03c d4a8 febd 5aca d0bd
000002e0: 0b3f f93d 98c2 2a3e 3c62 dcbd b746 513e
000002f0: b8b8 98b6 feeb 8d3d 82b7 3a3d cc88 cdbd
00000300: 1e49 863e 792f b93d 3f98 f23d 9bff 973d
00000310: 5749 433d 519e a1b5 96bf 483d f340 1a3f
00000320: 9606 e63e 10dc 113d 68c8 603d e724 9b3c
00000330: f4a8 7dbd 1927 fc3c b650 b3b5 5cff fc3e
00000340: bdc7 4336 82dc 243d 65ca 3d3e d878 92bd
00000350: cd38 53bc 18d1 8ebd 275b 70b6 d3d1 1b3e
00000360: cad2 95b6 cceb a13e 7ce2 17be 53c5 e53e
00000370: 27d5 00b6 dde0 c8bd f9c6 e6bc 87ed 6fb6
0.15885477 -0.07949111 0.15487042 -0.13827474 -0.15946199 0.17657976 -0.13369516 -0.058977872
0.23338817 0.0907723 0.8278566 -0.13776247 -5.4893035e-06 2.2334066e-06 0.21686183 0.2927242
-0.08525403 -3.3775304e-06 0.07594588 0.8823129 -0.040486827 0.12271023 0.5104947 -0.084660664
0.043804046 0.32362267 -0.08725677 0.36098766 -0.07524625 3.3041654e-06 0.0069288015 0.14132261
-0.03868289 0.07474262 0.09456491 0.2588091 -0.006259187 0.31299907 -0.03247113 0.26399937
0.21154018 -5.0596817e-08 0.22905637 0.033625547 -0.10330966 -0.025366668 -0.10036182 0.09869904
0.17945485 4.1413264e-07 -0.03710766 -0.10227613 0.12743293 0.095826656 -0.055469014 -1.7209416e-06
0.13245043 0.24098966 -0.107383065 5.4732454e-06 2.3094535e-06 -0.049513128 -0.14066708 -0.107672215
-0.052125067 -0.06032742 0.31261992 -1.0627426e-05 0.051086746 0.023092551 0.110694535 1.8953032e-06
-1.7077326e-06 -0.024010723 -4.06917e-07 0.1371778 -0.11236638 -0.013845665 0.33223283 0.19215676
2.9284831e-06 0.06229095 0.074449 0.08304742 -0.12077562 1.5497933e-06 0.0022296817 0.031677093
-0.012546643 -0.10669952 0.023422511 0.48023447 -0.1179795 -0.039050173 -5.2231267e-06 -0.14701316
0.12769449 0.24086201 3.146673e-06 2.4576336e-06 0.25760016 0.20061572 -0.05120623 -0.041443042
-0.0051371665 -0.06818725 0.4387689 -6.310043e-07 0.5134092 -1.239062e-07 -8.1475207e-07 -0.10024503
-2.1273092e-06 0.011334177 -0.14511938 -0.15130116 -0.016163295 -0.059763607 0.15255754 0.083801724
-3.5230078e-06 0.1236214 0.29863614 0.5870771 1.0900204e-06 -0.1264535 -1.2633134e-06 -0.093983755
0.15797533 -0.14987396 -0.0620158 -0.008484552 -0.024722997 0.061299484 0.027803311 0.075806275
-0.057779744 -7.1953564e-06 -0.12746581 -0.13473701 -0.14392175 -0.07668833 0.19165216 0.07571929
-0.02628188 8.197881e-07 -0.07811707 5.7249457e-07 0.19615652 0.26160216 -0.110906824 5.105421e-06
-0.08001694 0.20799074 0.1925783 0.025213657 -0.060031336 -0.10234182 -0.15056531 0.25640872
0.11865861 0.35169253 -2.7697884e-06 -0.11763587 -0.018132227 -0.075377464 -2.222006e-06 -0.115084276
0.02695852 0.008194903 0.029161772 -0.08567896 0.034740042 -0.009435551 -0.06292921 0.01638466
0.077253684 0.36732554 -0.09519897 0.1754725 -0.06836535 0.029393237 -0.12434545 -0.101948455
0.121702276 0.16675794 -0.10760924 0.20437132 -4.551457e-06 0.069297776 0.045585163 -0.100358576
0.2622766 0.09042258 0.11845445 0.074218 0.047677364 -1.2041511e-06 0.049010836 0.60255355
0.449269 0.03561026 0.054878622 0.018938495 -0.061928704 0.030780362 -1.3360029e-06 0.49413574
2.9173527e-06 0.040249355 0.18534239 -0.07151955 -0.01289196 -0.06973475 -3.5815845e-06 0.1521676
-4.465085e-06 0.3162521 -0.1483249 0.4487711 -1.9197557e-06 -0.09808514 -0.02817105 -3.5752034e-06

running_var f4 [224]
00000000: 2ca9 f43d 8c7b 8e3c d43c 603c e653 573b
00000010: dd5e 3d3a 0845 bd3e 5543 4c3b a729 b63c
00000020: d91d 923e 8d2c b03d 9850 5c3f 94f0 453b
00000030: 2f6e d534 0cac 4334 946e 5f3e e929 203d
00000040: 7d04 733c 973b da34 3de0 733d ff74 a03f
00000050: f2fc b53d c402 d13d 9bb2 113f 9a06 613c
00000060: 9ef2 d13c 50b3 123e fb94 b03c 9d7e a73c
00000070: 1165 993c b0c1 6334 44ab e43d fd7c 6b3e
00000080: 00e4 e53c 04ad 003e b758 713d 13e4 943e
00000090: 4bd8 183d c9d6 3a3c 4a1c 4f3c 2a96 c83e
000000a0: 71d4 9b3e 25eb ad34 5f78 d83d 29a9 9b3d
000000b0: 34c3 6e3c 6e67 5a3d 91c4 2a3b 278b 0f3c
000000c0: 9816 9d3d 866a 8534 cc4e 083d 7805 4b3c
000000d0: d548 363d fad8 333c 26e5 423d 96b3 b334
000000e0: 49fa ea3c 67f2 fb3c a9c2 543c cc50 aa35
000000f0: ab98 1834 fca5 a83c 2d85 7d3b 2bc8 083c
00000100: 33ed 703c ef7a 4a3c 0a98 273e fe9b 6435
00000110: 9339 163e d57e 113d 13d4 c93c f65e d133
00000120: 0b78 0c34 177f 173d e133 da34 1fed b13d
00000130: ff11 4c3c 31bc 893d 75ea 583d 55e1 053d
00000140: 1064 ec34 d971 4b3d a736 113d 6d96 5e3d
00000150: 8646 843b 762a b533 69f4 a23c a2fc 2d3d
00000160: c25e 373d e418 263c 5b2e b93c 066d 413e
00000170: 357a be3b bd2d e03c 5c20 ef34 c073 793a
00000180: a60a 593e 346c 413e 7baa 7c35 fe5f fb33
00000190: 134a ad3e 2df1 0b3e a607 ae3c 1407 3b3d
000001a0: ad56 6d3d e1f0 aa3c c644 503f 6580 2f33
000001b0: affb 483f 17e2 5835 0b57 2033 7edc 2c3c
000001c0: 459b 8935 3179 4b3c df21 c03a 01e6 3d3a
000001d0: 0d2d 5f3d cb3d 843c 98f4 c73b 971b 403d
000001e0: a0e0 9b34 6d30 983d 49e0 d63e 57cf 403f
000001f0: 3612 c833 ec51 bb3b 4813 c333 ee01 ee3b
00000200: 9c2f 2e3d 1531 c23a 4b09 933c 088c e73c
00000210: 4035 083d d35a ac3d 141e 713d 18a4 d13c
00000220: 215d 7a3c b368 dd34 03fa 403b df1e 383b
00000230: 7820 023b caf1 0e3d 9f8c a23e 62b6 5d3d
00000240: 0eac a93c 5ad6 c434 0dd4 bc3c 5019 ea33
00000250: 77a1 ae3d 0bd8 d73d 707b 9d3b fb5e ad35
00000260: 6f1d 363c 81df 803e abcf 843e ca45 183d
00000270: d65d 5c3c 1f84 833c 4929 a03a 3412 b83e
00000280: ec4e 183e 6dec f83d ec66 8034 5143 203c
00000290: 3b3f 1f3d cf48 6c3c 6385 1d34 ff9f e63b
000002a0: b14b 5c3d 30fe f43c fc37 9a3d 0706 8f3c
000002b0: 79db 153e 07ae 1f3d 71ae af3c e0e2 243d
000002c0: 879a 8b3d 6e89 4a3f 2055 b63c 8700 cd3d
000002d0: 502d 883c 7ce5 0d3e 8cd2 9d3a 9f63 103c
000002e0: f7c8 a83d a95f 643e 4f57 4d3c 356e 2d3c
000002f0: 63de a434 7241 343d 0905 b83d f501 473b
00000300: 47fd 683e 5e4b 0d3e d7dd b23d 6b47 2a3e
00000310: e4c8 883d a082 9f34 6812 373e 86d8 703f
00000320: 7905 f73e f6e5 233c 0ba1 f63c 5512 e53c
00000330: e062 873c 356e 9e3d 6c0b 1633 3fb1 7f3f
00000340: ef9f 0535 d239 863c ef1b 3f3e ff1f fe3c
00000350: a42a b33d 9c15 e43c 5a63 3d34 1ef4 833e
00000360: 95e1 af34 543c 703e 4933 ef3a 01a3 bc3d
00000370: c109 b734 6de6 433c c7ea 0f3d 32e1 e233
0.119463295 0.017392896 0.013686378 0.0032856404 0.00072239136 0.3696673 0.0031168063 0.022236658
0.28538397 0.086022474 0.86060476 0.003020321 3.975451e-07 1.822338e-07 0.21819526 0.03910247
0.014832613 4.0649022e-07 0.059540022 1.2535704 0.08886136 0.102056056 0.56913155 0.013734484
0.025628384 0.14326215 0.021555414 0.020446116 0.01872495 2.1211486e-07 0.11165479 0.22996898
0.02806282 0.12566 0.058922496 0.29080257 0.037315648 0.011403748 0.012641022 0.39177066
0.30435517 3.239485e-07 0.10569834 0.07600624 0.014572907 0.053321294 0.0026057104 0.008761204
0.07670325 2.4850686e-07 0.03327827 0.012391441 0.04450305 0.010977024 0.047581814 3.3472014e-07
0.028683798 0.030755235 0.012985864 1.2689502e-06 1.4211643e-07 0.02058696 0.0038684115 0.008348505
0.01470499 0.012358411 0.16366592 8.516362e-07 0.146704 0.035521347 0.024637258 9.749594e-08
1.3082187e-07 0.036986437 4.064341e-07 0.086878054 0.0124554625 0.06725348 0.05295797 0.032685596
4.403123e-07 0.04966912 0.03545251 0.054342676 0.0040367274 8.436193e-08 0.019891934 0.042477258
0.044768102 0.01013777 0.022605112 0.18889245 0.005812908 0.02736556 4.4540764e-07 0.0009515844
0.21195468 0.18888932 9.41254e-07 1.1705559e-07 0.33845577 0.1366622 0.021243881 0.045661047
0.05794399 0.020866813 0.8135494 4.0862137e-08 0.7850904 8.0795274e-07 3.7332068e-08 0.010550616
1.0252485e-06 0.012419031 0.0014658532 0.0007244051 0.054486323 0.016142746 0.006102156 0.04690131
2.9034436e-07 0.074311115 0.4196799 0.75316375 9.316538e-08 0.005716553 9.083902e-08 0.0072634136
0.042525873 0.0014815653 0.017948767 0.028265014 0.03325391 0.08415761 0.058866575 0.025590941
0.015280993 4.1240637e-07 0.0029445894 0.0028094572 0.0019855779 0.034898557 0.3174791 0.054129012
0.020711925 3.6663806e-07 0.023050332 1.09010784e-07 0.08526891 0.10539254 0.0048059747 1.2917147e-06
0.011115416 0.2517052 0.25939688 0.03717593 0.013450107 0.016054211 0.0012219335 0.35951388
0.14873856 0.1215447 2.3916743e-07 0.0097816745 0.03887866 0.014421656 1.467029e-07 0.007038116
0.053783122 0.029906362 0.075302094 0.017458929 0.14634503 0.038984325 0.021445485 0.040255427
0.06816583 0.7911595 0.022257388 0.10009866 0.01662317 0.13857073 0.0012040897 0.008812814
0.08241456 0.22302116 0.012533023 0.010585357 3.0709188e-07 0.044007726 0.089853354 0.0030366157
0.22752868 0.13798282 0.08733719 0.16628806 0.06678942 2.97111e-07 0.17878115 0.9408039
0.48246363 0.010003557 0.030106088 0.027962843 0.01652664 0.07735864 3.4934985e-08 0.9987983
4.9779095e-07 0.016384993 0.18663 0.031021116 0.087483674 0.027842335 1.763814e-07 0.25772184
3.2760423e-07 0.23460513 0.0018249537 0.09210778 3.4093503e-07 0.011956793 0.03513601 1.0564908e-07

weight f4 [192, 224]
00000000: 5a82 6c3c 60e3 9b3d e2fb aebc db91 1e3c
00000010: c083 a53d 633c a9bd 93d1 a83d c023 2abe
00000020: 48df 8abe 87ad 28bd 10cf 913d 4102 0b3b
00000030: 4176 ce38 19e3 e038 0476 3dbd 27f0 df3d
00000040: 01ab 18bd b9e0 2839 d39f 2d3b 50a2 c5bc
00000050: 0979 8fbc 2694 2c3d e920 60bd 5be1 27bd
00000060: a991 fdbc 3a38 d9bd d3e0 85be b99c 43bb
00000070: e965 6d3d 8995 0838 f3a0 153c d049 133d
00000080: 459d eebd 3660 88be 840d 1dbc 3996 c83c
00000090: 0069 a5bd 4f36 803d e2c2 043d 8741 0d3e
000000a0: ebf8 94bd bfcd 9db9 d08f 81bc f8d1 8c3d
000000b0: 4f38 94bc 49be 993e b1d4 0ebe 7ab5 323e
000000c0: 9ea4 92bc b6a7 4639 e188 91bd 9062 b83d
000000d0: 24e6 24be 28fb 26be 89fe 563d b87a 1b39
000000e0: 2337 793e 31f3 9bbc 6fdb 273e f4b5 a039
000000f0: df52 c9b7 3c0f a03c 3745 093e a512 bdbd
00000100: 4dd9 dcbc 1757 a8bd edcb 80bb cebf 12b9
00000110: 997c fd3c d031 48bc 0938 4e3d e54e edb6
00000120: 59ad d2b8 4065 fabd 200f 3d39 781c 7a3d
00000130: c24c 673d 9815 2bbe f8b8 3a3e 426e a9bd
00000140: 4fb5 ab38 ab0e eb3c bb20 d93d 39b9 903d
00000150: 6a98 983b 04bd 0db8 b758 60bd e1b2 0ebe
00000160: dc20 d6bc 809d 993d 7326 913d 4d34 6abc
00000170: 71bb 0a3d ce55 b7bd 8cb1 adb8 ff8b 813d
00000180: 0e3c dabd cdcf 80bd f713 3eb7 1e05 f838
00000190: 7aef eabd acdb 6c3c 9b73 553d aa62 e43c
000001a0: c744 a0bd 8aef 863d 8d6d 543e e17b a437
000001b0: 7c20 53bd a98f b238 9838 9538 0f71 14bd
000001c0: 763c ae39 5cae 53bc 8750 3d3d 477e 27be
000001d0: 25ba 273e ae30 43bc aa63 acbd 0c73 0b3e
000001e0: 0d52 4538 3ec6 a73c d795 f33d ba62 3f3c
000001f0: dc83 1a39 8bc5 8c3d 4b3c 4cb8 3989 0abe
00000200: 4509 af3d 403e e03d b10c 9abc 3cc4 4d3d
00000210: 9fd2 803c e8b2 ff3a fd00 103e 5464 29be
00000220: a4a4 61bd b16c 8cb9 062c debc 0cd6 203e
00000230: 8c8f 19bd 1516 bcbc 36e1 063d 74fd 24be
00000240: e660 013e 86f6 b2b9 71ed 49bc a268 04b9
00000250: ca3e 2c3d cda6 21bd 4b8e 46bd 7fd1 bfb7
00000260: d5cf c9bd a71b d73d 681e dd3d 7c60 5ebe
00000270: 2d23 34be 96ec ed3c 813b 37bd 2829 b0bd
00000280: 38a5 d23b d066 25bc d050 94b9 260f 903d
00000290: b3b8 22bd 7d59 093d 2eac c9b7 92b4 8b3e
000002a0: 791a 453d bbe4 9f3d 313e 14bb 3330 b83d
000002b0: 5bfe 1bbc c94c da3d f69b 28bd b39c fbbc
000002c0: 420d cf3d cd2f 15bc 453b ec3c a029 29bd
000002d0: d974 f13d 619b cc3b 0faf 2abc b9f0 a73d
000002e0: 1356 63bd b9ee 343c 7c91 acbc 6fa3 c53d
000002f0: 32f5 de38 15bb 703c afa1 54be e518 13be
00000300: c2c7 b33c 5146 c1bd f74f a43c b27a 23be
00000310: 3700 cfbd 6905 84b9 18c8 d7bd 3c8f 25bd
00000320: d7c0 73be 749c dc3d da17 ca3c e3e0 643b
00000330: f4d8 30bc 2e23 c43d 76f5 81b8 651d d9bd
00000340: ac70 2739 697b d53c 6c5b 04bd 6fa9 00be
00000350: ebd5 cbbd e738 c53c 81ac 3f39 3616 afbc
00000360: 8572 f338 0b90 943d cc2f 903c 5573 8a3d
00000370: 6046 8b38 6644 c8bc 3669 133e 25b8 13b9
00000380: 9467 f03c a912 a6bd 21bc ecbd 26c9 9fbd
00000390: efd4 36be 7ecf b63d e0ef aa3d 88d2 b33d
000003a0: 29e2 e4bb c1c6 893d d123 413d 2a35 843d
000003b0: 8eaa b7b8 b31a f538 fdb3 2cbd 5fcb f3bd
000003c0: 7c14 fcbd 35ad 3bb9 716c c83b 4d50 1fbe
000003d0: c1b6 8e3d 05d6 27bf a7b5 91bc 84df f73a
000003e0: ccb0 f73d d134 02be cfa6 21be a29c 52be
000003f0: 606c bcbd d111 1cb8 34d8 2b3d d864 2cbd
0.014435375 0.07611728 -0.021360341 0.009678329 0.0808177 -0.08263471 0.08243098 -0.166152
-0.27123475 -0.041181114 0.07119572 0.002121106 9.844872e-05 0.000107234526 -0.046255127 0.10934477
-0.037272457 0.00016105444 0.0026492968 -0.024125248 -0.017513769 0.042133473 -0.054718886 -0.0409864
-0.030953245 -0.106064275 -0.2614809 -0.0029848053 0.057958517 3.2564192e-05 0.009132612 0.035959065
-0.116510905 -0.26635903 -0.009585742 0.024485694 -0.08076668 0.062603585 0.032412417 0.13794528
-0.0727404 -0.00030098666 -0.015815645 0.06875986 -0.018093256 0.3002799 -0.13948323 0.1745204
-0.017900761 0.00018945229 -0.07106186 0.09003174 -0.16103417 -0.16306746 0.052488837 0.00014827668
0.24337439 -0.019036861 0.16392301 0.00030653144 -2.3999657e-05 0.019538514 0.1340531 -0.09232072
-0.026959086 -0.08219736 -0.00393056 -0.00013995098 0.030943202 -0.0122189075 0.050346408 -7.072335e-06
-0.00010045869 -0.12226343 0.00018030079 0.061062306 0.056469686 -0.16707456 0.18234622 -0.08272983
8.187687e-05 0.028693518 0.10601946 0.070665784 0.004656841 -3.3793054e-05 -0.054772105 -0.13935424
-0.026138715 0.07500744 0.07087412 -0.014294696 0.033870164 -0.08951913 -8.2823535e-05 0.0632553
-0.10655986 -0.06289635 -1.1329531e-05 0.00011826515 -0.11471458 0.014456671 0.052112203 0.027879078
-0.07825618 0.06588657 0.20744915 1.960801e-05 -0.05154465 8.51446e-05 7.115415e-05 -0.036240634
0.00033232913 -0.0129199885 0.046219375 -0.16356765 0.16379602 -0.011913462 -0.08417447 0.13618106
4.7044876e-05 0.020480271 0.11893814 0.011681253 0.00014735706 0.06873616 -4.8693542e-05 -0.13528909
0.0854669 0.10949373 -0.01880488 0.05023597 0.015725432 0.0019508274 0.14062877 -0.16542178
-0.055088654 -0.00026783862 -0.027120601 0.15706652 -0.037490413 -0.022959748 0.03292962 -0.1611231
0.1263462 -0.0003413448 -0.012324677 -0.0001262748 0.042052068 -0.039465714 -0.048475545 -2.2866529e-05
-0.09854094 0.10503321 0.10796815 -0.21716493 -0.17591543 0.029043477 -0.04473448 -0.086016
0.006428387 -0.010095313 -0.0002828897 0.07034139 -0.039726924 0.03353261 -2.4041245e-05 0.27286202
0.04812095 0.07807299 -0.0022620077 0.08993568 -0.009521092 0.10659177 -0.04116436 -0.030714368
0.101099506 -0.009105635 0.028836856 -0.041299462 0.11789865 0.0062441085 -0.010417714 0.08200211
-0.05550201 0.011043244 -0.021065466 0.09650313 0.00010631456 0.014693041 -0.20764802 -0.14364965
0.021945838 -0.0943724 0.020057661 -0.15964773 -0.10107463 -0.00025181033 -0.10536212 -0.040419802
-0.23804031 0.107720286 0.024669576 0.0034924082 -0.010793913 0.095770225 -6.19692e-05 -0.1060131
0.00015968335 0.026059823 -0.03231375 -0.12564634 -0.09952911 0.024074985 0.00018279442 -0.021372896
0.00011608474 0.072540365 0.017600916 0.06760279 6.641145e-05 -0.024446677 0.14395604 -0.00014087612
0.029346265 -0.08109028 -0.1155932 -0.07802038 -0.17854665 0.08926295 0.08346534 0.0878039
-0.006984968 0.067273624 0.047153298 0.06455453 -8.757888e-05 0.000116874835 -0.042163838 -0.11904024
-0.123085946 -0.00017898234 0.006116443 -0.15557976 0.06968451 -0.6556094 -0.017786814 0.0018911217
0.12094268 -0.1271546 -0.15786289 -0.20567563 -0.092003584 -3.720989e-05 0.041954234 -0.04208836

weight f4 [192]
00000000: 01c6 bd3e c232 813f 18b9 ef3e 506f c53e
00000010: 6cd8 df3e 6ca6 c83e 3fde 9c3e 9184 e53e
00000020: b62f a23e 53c4 133f 440a 993e 678d 083f
00000030: 8a32 a63e 9356 0e3f bbe6 f63e 5b12 6f3f
00000040: bfe0 e73e 8cf2 d63e 857b bb3e cf5c 9c3e
00000050: b431 483f f18e 133f 620a 9d3e 62cf e63e
00000060: d4bd 1d3f 092c a63e 49e7 bb3e 74f3 1f3f
00000070: a5a0 263f 6afc 0e3f f6b0 083f 2ca1 a03e
00000080: e6c8 173f 1323 ae3e 5e79 923e 1b4b 053f
00000090: 619a 423f 5571 aa3e 5ea1 023f ed29 4b3f
000000a0: ce2b 333f 9715 c53e af4c 133f e7bc f03e
000000b0: 4deb d13e d721 d33e fd1d f93e 956e c13e
000000c0: 795a 1c3f 96ee 9d3e 17a1 1e3f 5483 813f
000000d0: 392e 323f f34b 0a3f 45c9 cf3e 0c94 2a3f
000000e0: 1bc3 213f d03d f73e 76eb cb3e 33fa 003f
000000f0: 7fd1 3f3f 7098 e23e 0b29 d73e 74e0 b83e
00000100: b4d1 533f d251 dc3e dd51 1e3f 798d 0a3f
00000110: acd2 df3e 2116 2e3f e7d9 b83e 6297 383f
00000120: d253 263f e4e6 d03e 48e4 3a3f 7780 e33e
00000130: 78a6 293f fb2b bb3e d2f1 6a3e ace3 e73e
00000140: 6dbb 023f 776a 603f e8d5 043f 8cc5 f13e
00000150: 1dd4 b73e 4988 0c3f ee9f 993e 062c f93e
00000160: 630d 353f 3457 043f ffd0 a33e a8ad c53e
00000170: 11a2 d63e 3bf9 c73e 5906 0a3f 0ced 0d3f
00000180: 1769 043f 7c5b 003f 8dfd ea3e 7600 7b3f
00000190: 7ec6 173f 3594 de3e 9004 353f f31b 083f
000001a0: 2afa bf3e 3745 f63e b4d6 303f bc07 db3e
000001b0: 5ce8 103f c69c 5d3f 0127 db3e ab4b 093f
000001c0: d441 c73e 496b 073f ab94 843f 23b8 3c3f
000001d0: 21ff 5b3f 0959 423f 27bf fc3e 5453 033f
000001e0: 6073 2d3f 88bb 2c3f 8cda f53e ab6d 973e
000001f0: 4d63 d93e b3fb 403f 5793 063f f3a5 ea3e
00000200: e7d0 c13e c8f7 9f3e 6ff6 d13e cbaa be3e
00000210: 335b b53e a75e 323f 93c1 db3e b142 0b3f
00000220: ef0c 103f 7d54 e23e 7b3f 123f 7988 a93e
00000230: e740 843e 0708 143f ec6a dc3e e058 893e
00000240: 7649 853e 8a15 e33e 76cb 063f 3583 e13e
00000250: c533 d43e 388e ad3e 6a24 bf3e adee 253f
00000260: abe0 ee3e 7d5d 453f 1f16 163f 6e24 d13e
00000270: cbf7 233f 6db1 b63e 4fe9 023f d0ae ff3e
00000280: 6cd9 ba3e fd79 b73e 05d2 f83e adea f03e
00000290: 1c62 093f fb46 4d3f cd40 093f 1cf2 c53e
000002a0: 1dda d73e 5a0e 093f 065e 023f ff27 bc3e
000002b0: cb94 193f 09ea e03e a9b6 033f ca89 e53e
000002c0: 21b3 1a3f 92ec 003f 4495 b83e f7a1 a23e
000002d0: ecdf 023f 30c1 fe3e 2ed6 903e de7c 0a3f
000002e0: 46cf d93e 92f2 783f 7fd9 003f 1d6c 0f3f
000002f0: 4491 343f 0fcf 1c3f 85c9 033f 6bcc cd3e
0.37065127 1.0093615 0.46820903 0.38561487 0.43719804 0.3918947 0.3063831 0.44827703
0.31677026 0.5772144 0.29890645 0.5334076 0.32460433 0.5560085 0.48222908 0.93387383
0.45288655 0.41981924 0.36617675 0.30539557 0.7820084 0.57639986 0.30671984 0.45080096
0.6161778 0.3245547 0.36699894 0.62480855 0.65088874 0.55853903 0.5339502 0.31372964
0.5929092 0.34011135 0.2860822 0.52067727 0.76016814 0.3328959 0.51027477 0.7936085
0.69988716 0.38493034 0.57538885 0.4701912 0.40999833 0.41236755 0.48655692 0.3777968
0.6107555 0.3084609 0.61964554 1.0118203 0.6960178 0.5402214 0.40583244 0.6663215
0.6318833 0.48289347 0.3982808 0.50381774 0.7492904 0.44256926 0.420235 0.36108744
0.82741857 0.43031174 0.61843663 0.5412212 0.43715417 0.68002516 0.36103746 0.7210599
0.6497165 0.40801156 0.7300458 0.44433948 0.66269636 0.36556992 0.2294381 0.45290887
0.5106724 0.8766245 0.51888895 0.4722103 0.35904017 0.54895455 0.3000483 0.486664
0.7072355 0.5169556 0.3199539 0.38609052 0.41920522 0.39057335 0.53915936 0.5543983
0.51722854 0.50139594 0.4589657 0.9804758 0.5928725 0.43472448 0.70710087 0.5316765
0.37495548 0.48099682 0.6907761 0.42779338 0.5660455 0.8656734 0.42803195 0.53631085
0.3891741 0.5289808 1.035787 0.7371847 0.8593617 0.75917107 0.49364588 0.51299024
0.67754173 0.6747365 0.480183 0.29575858 0.42458573 0.7538406 0.5256857 0.45829734
0.37854692 0.3124373 0.41008326 0.3723968 0.35421142 0.6967568 0.42921123 0.5439864
0.56269735 0.44205084 0.57128114 0.33111933 0.25830767 0.5782475 0.43050325 0.2682562
0.2603261 0.4435237 0.52654207 0.44045416 0.41445747 0.33897567 0.3733247 0.64817315
0.46655783 0.77095777 0.58627504 0.40848106 0.6404998 0.3568224 0.5113725 0.4993806
0.36494005 0.35835257 0.48597732 0.47054043 0.5366533 0.8018643 0.53614503 0.38661277
0.42158595 0.53537524 0.5092472 0.36749265 0.59992665 0.43928555 0.5145059 0.44831687
0.6042958 0.5036098 0.3605138 0.31764194 0.5112293 0.49756765 0.28288406 0.5409678
0.4254095 0.9724513 0.5033187 0.5602434 0.7053416 0.61253446 0.5147937 0.4019502

bias f4 [192]
00000000: 196f 4f3e ec8d 003e 6613 103e 9753 d03c
00000010: 4857 d73d f1b4 bfbd 07e5 3bbc 0836 5c3e
00000020: e158 0d3d 3f18 303e 2737 a73d 6735 df3d
00000030: 4106 a73c d847 2b3e ab86 183e a99f 283e
00000040: faf0 e0bd 6d9b 983d 7105 813d 820d f03c
00000050: 947a e83d 466c 383e ec7d 4a3e eb78 5b3e
00000060: 9166 5e3e 2555 37bc 169e c53d 15dc 7d3d
00000070: 5518 323e 69e4 3d3d 52c0 5f3d d44f 73bb
00000080: adc7 783d eb0a 0a3d 1bc6 cf3d 8a2c 583d
00000090: 8e99 1cbd dff6 113e 465a 4e3d 963e 1a3d
000000a0: 5f1d 843d dc57 8f3b b15a 4cbd f500 7b3e
000000b0: 110c 5c3d 0696 af3d 8964 243d 713c 033e
000000c0: c3ab 9a3d 69f0 64bd 713e 223e bb79 0c3e
000000d0: 97a1 e53c 7db4 023d 37b9 583e fbfb a63d
000000e0: 51a3 933e b5ca cc3d 8e0a 9d3e 725f 553d
000000f0: 0eb0 3c3e f947 413d 47a0 7ebd c84e a0bd
00000100: 7e8f 633e e4b9 073e 65f7 40be b3c2 babd
00000110: bcc1 093e e9d3 bf3d 1a55 c33d be90 223e
00000120: 5f6c f43c 926b db3d 2315 483e 9d38 c53d
00000130: ad62 b33d 9a39 873d 7c14 993d d977 803e
00000140: 5441 6d3d 1107 313e 6796 f93d 3bc1 6e3e
00000150: cc46 4b3b cfbe 9e3d 4bb3 033e 17b7 cf3d
00000160: 1c93 6b3d ebcd 313d f507 98bd 6da2 dfbd
00000170: b157 303e e69f 133e 60b5 f23d ed26 b43b
00000180: f1ea 2e3e ccae 373e f943 4a3d 8f52 18be
00000190: 1811 803d c05b 383d 6207 6dbc e96b 2abd
000001a0: adc4 203d 28bb a43d b6f0 1d3e e02c 873d
000001b0: d8db 863d 84b0 f23d 1345 183e cf6d 6b3d
000001c0: e3be dc3d 8f0c c9bd 8ded 093e bab9 153e
000001d0: bd95 78bc 2af2 6a3e f2c3 86bc 10fe 673e
000001e0: cc33 f6bc 09ac 4b3d 15a7 90bd ba1f 7d3d
000001f0: c822 e93d 14a9 5f3c c1f8 353e 6503 6d3c
00000200: 14af 4e3e 407e 503e 6df8 8a3d bb5e 423e
00000210: dfde 6f3c 1c75 b1bd 5942 7b3d 320b 353d
00000220: c696 a63e c440 2f3e c726 2a3e 27f9 983d
00000230: 6c6b 58bd 10d0 d33c 2d7a 5cbc ab4d c838
00000240: 548d 143e 22a9 743e 6c20 693d ff1c b03d
00000250: 9716 18be dd32 823d 75c3 1d3e 9afb 873d
00000260: c911 453d 96b0 c33d 9497 383e 5fbf 8abc
00000270: e02b 483d 1a35 b03d 82dc 853d 420f e53d
00000280: e01c 263e 5da2 0cbe 2ee4 743d 5a9a 1d3e
00000290: 0737 293e ac87 153e 9193 d63d 297d acbe
000002a0: a609 083e 4791 673d 7866 103e 2d3d babd
000002b0: 4da6 833d e3fe 253d 8ebf 6dbd bb9e 0dbc
000002c0: 05e8 7a3e e7fa 793e c505 263b 57fc 133e
000002d0: 7b74 143e 126d 093e 71ea 523d 3f9a e43d
000002e0: 848f 933c 66b1 383d e707 c73d 5670 033e
000002f0: 6992 ef3d 5f41 513e da1b 84ba 27dd 1e3e
0.20257224 0.12554139 0.140699 0.025430484 0.105146945 -0.09360684 -0.011468179 0.21504986
0.03450859 0.17196749 0.08164816 0.108988576 0.020388724 0.16726625 0.14895122 0.16467156
-0.10983463 0.0745152 0.06299866 0.029303316 0.11351505 0.18010053 0.19774598 0.21432845
0.21718813 -0.011189734 0.09649293 0.061977465 0.17392094 0.046360407 0.05462677 -0.0037126439
0.0607373 0.03370182 0.101452075 0.05277685 -0.03823238 0.1425433 0.05037906 0.037657343
0.064509146 0.0043744873 -0.049891178 0.24512084 0.053722445 0.085735366 0.04013494 0.12816025
0.07552292 -0.055893335 0.15844132 0.13718311 0.028031154 0.03191041 0.21164404 0.0815353
0.28835538 0.09999601 0.30672115 0.052092977 0.18426535 0.04718778 -0.06216457 -0.07827526
0.22222707 0.13254505 -0.18844374 -0.09119167 0.1345281 0.093665905 0.09537716 0.15875527
0.029836832 0.10713877 0.19539313 0.09629939 0.08759055 0.066027835 0.0747461 0.25091437
0.05792363 0.17287852 0.1218689 0.23315899 0.003101754 0.077512376 0.12861364 0.101423435
0.05751334 0.04340927 -0.07423393 -0.10919652 0.17220952 0.14416465 0.11851001 0.0054978044
0.1708181 0.17937773 0.04938123 -0.14875244 0.062532604 0.045009375 -0.014467092 -0.041606817
0.039250065 0.0804351 0.15423855 0.06600356 0.065849006 0.11850074 0.148701 0.05747777
0.10778596 -0.098168485 0.13469525 0.1462163 -0.015172419 0.22943941 -0.016450856 0.22655511
-0.030053996 0.049724612 -0.07063118 0.061797835 0.11383587 0.013651151 0.17770673 0.014466141
0.20183975 0.2036066 0.06785665 0.1898145 0.014640539 -0.08664915 0.06134257 0.04420013
0.32536906 0.1711455 0.16616355 0.07469397 -0.05283682 0.025856048 -0.013456863 9.55121e-05
0.14507037 0.23892644 0.056915686 0.085992806 -0.14852367 0.06357358 0.15406592 0.06639786
0.048112664 0.095551655 0.18026572 -0.016936956 0.048869967 0.08603878 0.06536199 0.11184551
0.16221952 -0.13733812 0.05978792 0.15390912 0.16524898 0.14602536 0.10477365 -0.3368924
0.1328493 0.05653503 0.14101589 -0.090936996 0.06428204 0.040526282 -0.05804401 -0.008643801
0.24502571 0.24412118 0.0025333029 0.14451729 0.14497559 0.13420513 0.051493112 0.111622326
0.01801277 0.045091055 0.09718304 0.12835822 0.116978474 0.20435093 -0.0010079101 0.1551405
