models/nn_to_lev_cat0123_epoch16.pt (torch, 349660 bytes, 43 tensors)

weight f4 [224, 28]
0.31546125 0.14711423 -0.073493585 -0.17435458 0.32096177 0.2548217 -0.60217655 -0.042971734
0.5258996 0.12853229 0.033928763 -0.0112884175 0.16367564 -0.123502634 0.05277719 0.047193196
0.048635464 -0.111876145 -0.054404404 -0.011018509 0.009511085 -0.09279641 0.13791102 -0.16559203
0.06731172 0.11723942 -0.15186293 0.5000301 -0.027758505 -0.123244554 0.1871862 0.19901004
0.14645174 -0.27766687 0.22814716 0.7696501 0.8723074 -0.009640769 -0.08963946 -0.11171365
0.10631265 -0.11880311 -0.119153425 -0.14874221 -0.1304591 0.080218635 -0.16347052 0.029235188
-0.1889821 -0.17346531 0.14951897 0.028953938 0.17870058 -0.14070827 0.2470772 0.15556267
0.030132314 0.19745772 -0.17027009 0.28152385 -0.5574728 0.22591133 0.6476538 -0.17720343
-0.5379152 0.18944022 -0.1432498 -0.05200493 -0.100618444 0.30614924 -0.23171876 0.14860828
-0.41644445 0.31221133 0.17350078 -0.2178397 0.036447693 -0.17769659 0.18913764 -0.07493456
0.0230381 -0.07826748 0.07806371 0.03917797 -0.06475858 0.0048931986 0.16632599 0.0004134627
0.29101366 -0.22077948 0.3992385 0.26087287 0.13748397 0.2385288 -0.3058934 0.25226665
0.03773444 0.1682628 0.28280938 -0.2139899 -0.20599386 0.19628905 -0.14470927 0.107449986
-0.21907194 0.08648178 0.09260685 0.07112069 0.13822886 -0.12264696 0.015779732 0.29133812
0.07729548 -0.48953405 0.43238243 0.27610847 -0.19194992 -0.029039523 0.8809649 0.28721982
-1.3642689 -0.059640836 0.1780234 -0.09266306 -0.04654557 0.17242482 -0.13891974 0.03577631
0.024027592 -0.043150518 0.04588127 -0.011722475 -0.049758926 -0.01563165 -0.03630929 -0.1054313
-0.07539441 0.13392031 0.028047496 0.016017271 0.12806715 0.084971786 -0.10592894 -0.047666572
0.5866176 -0.6232569 0.49781072 -0.4062166 -0.17298885 0.16690959 -0.32823032 0.106774025
-0.18159804 0.33527604 -0.19318424 0.16923068 -0.06381389 -0.16979451 0.0006288061 0.09668336
-0.20966093 0.35482508 -0.12968959 -0.23495768 -0.035933748 0.054764412 0.076108925 0.23346122
-0.02683372 0.013732358 0.009217364 0.10965863 -0.3767072 -0.07322147 -0.08229707 0.11785722
0.066766806 0.0030605255 -0.19936863 -0.03811942 -0.05816365 0.077674605 0.15792519 -0.082950555
-0.21172358 -0.04402685 -0.12962879 0.011293341 0.01402557 -0.019929834 0.010247486 -0.041369993
0.03443067 0.100298144 -0.025337534 0.1428714 -0.100756794 0.0629529 -0.21960726 0.12304742
0.27753365 0.3155967 0.1767587 -0.072445065 -0.17622644 -0.1360955 0.0692284 -0.043495234
-0.0047614677 0.32301992 0.074582346 -0.00723227 0.08972926 -0.017799832 -0.22500369 0.086526535
0.13473895 -0.05436312 0.13005283 -0.00977206 -0.018625228 0.09503753 -0.050665267 -0.22113374
0.44585237 -0.33933702 -0.37462837 -0.25746885 -0.49695548 0.19972248 0.44906157 -0.1372312
-0.4695614 0.102142334 -0.0045188493 -0.18652628 0.14221315 0.046684485 -0.12245146 -0.16223384
0.1390485 0.062300477 0.25396806 -0.20302925 -0.14291872 0.038357176 0.042824723 0.08377972
0.075983584 0.014828408 -0.18798344 0.217117 -0.21445794 0.14219937 0.3426436 -0.3083418
00000000: 2384 a13e 1da5 163e ce83 96bd 028a 32be
00000010: 1a55 a43e fd77 823e 3e28 1abf 2103 30bd
00000020: 5ba1 063f f89d 033e e3f8 0a3d 0ef3 38bc
00000030: 969a 273e f3ee fcbd e52c 583d a74d 413d
00000040: fb35 473d 521f e5bd 27d7 5ebd fa86 34bc
00000050: 62d4 1b3c 0b0c bebd 8c38 0d3e f590 29be
00000060: bada 893d 391b f03d f581 1bbe f901 003f
00000070: ce65 e3bc a467 fcbd bdad 3f3e 4ac9 4b3e
00000080: 72f7 153e 5a2a 8ebe 699f 693e ca07 453f
00000090: 8a4f 5f3f 51f4 1dbc e594 b7bd 20ca e4bd
000000a0: 72ba d93d 0c4f f3bd b606 f4bd e14f 18be
000000b0: 1297 05be ab49 a43d d164 27be a27e ef3c
000000c0: 8684 41be e4a0 31be 801b 193e cf30 ed3c
000000d0: 49fd 363e d415 10be ce01 7d3e d24b 1f3e
000000e0: 0bd8 f63c 5b32 4a3e 485b 2ebe e523 903e
000000f0: 8ab6 0ebf 4d55 673e a4cc 253f d174 35be
00000100: d0b4 09bf 9efc 413e 13b0 12be 1f03 55bd
00000110: 0b11 cebd 98bf 9c3e af47 6dbe c52c 183e
00000120: 3538 d5be 2ada 9f3e 30aa 313e 5f11 5fbe
00000130: 2d4a 153d 18f6 35be 4cad 413e 4a77 99bd
00000140: 66ba bc3c b34a a0bd dedf 9f3d 1479 203d
00000150: 25a0 84bd 2057 a03b 5c51 2a3e 06c6 d839
00000160: beff 943e 0414 62be fd68 cc3e 2191 853e
00000170: 99c8 0c3e e540 743e 0f9e 9cbe 1829 813e
00000180: 6e8f 1a3d 154d 2c3e 64cc 903e 2b20 5bbe
00000190: 0ef0 52be ffff 483e ab2e 14be bd0e dc3d
000001a0: 6554 60be 5c1d b13d a9a8 bd3d b9a7 913d
000001b0: de8b 0d3e 542e fbbd 7f44 813c 452a 953e
000001c0: 184d 9e3d 35a4 fabe 3b61 dd3e 175e 8d3e
000001d0: 858e 44be 4be4 edbc ea86 613f 7a0e 933e
000001e0: 5da0 aebf f349 74bd c44b 363e 21c6 bdbd
000001f0: 91a6 3ebd 2290 303e fa40 0ebe 2e8a 123d
00000200: 83d5 c43c 99be 30bd 00ee 3b3d a00f 40bc
00000210: 04d0 4bbd f20d 80bc 0db9 14bd 5eec d7bd
00000220: 6268 9abd 6822 093e ddc3 e53c a736 833c
00000230: 0924 033e b005 ae3d 46f1 d8bd 063e 43bd
00000240: 922c 163f c48d 1fbf 0ce1 fe3e 9ffb cfbe
00000250: fd23 31be 59ea 2a3e ce0d a8be 57ac da3d
00000260: d6f4 39be 4da9 ab3e 17d2 45be cf4a 2d3e
00000270: dbb0 82bd 9dde 2dbe 77d6 243a ed01 c63d
00000280: 5bb1 56be a2ab b53e 59cd 04be bf98 70be
00000290: 442f 13bd a650 603d ffde 9b3d 7510 6f3e
000002a0: 64d2 dbbc affd 603c 6d04 173c b494 e03d
000002b0: c4df c0be 23f5 95bd 5e8b a8bd 205f f13d
000002c0: 09bd 883d 1993 483b 4a27 4cbe 1c23 1cbd
000002d0: 023d 6ebd dd13 9f3d 24b7 213e fbe1 a9bd
000002e0: 11ce 58be 8055 34bd 69bd 04be b507 393c
000002f0: 81cb 653c e443 a3bc 12e5 273c 9573 29bd
00000300: 2d07 0d3d 1d69 cd3d a990 cfbc e14c 123e
00000310: 9459 cebd 73ed 803d bae0 60be 4900 fc3d
00000320: e418 8e3e e495 a13e 3c00 353e 145e 94bd
00000330: b474 34be 9e5c 0bbe 9fc7 8d3d 0f28 32bd
00000340: 1606 9cbb de62 a53e a1be 983d aefc ecbb
00000350: f9c3 b73d f4d0 91bc 5e67 66be d334 b13d
00000360: 02f9 093e ddab 5ebd 922c 053e fe1a 20bc
00000370: ef93 98bc 09a3 c23d 6286 4fbd e270 62be
00000380: c346 e43e 95bd adbe 4acf bfbe f5d2 83be
00000390: f370 febe 0d84 4c3e 66eb e53e 5686 0cbe
000003a0: 5a6a f0be 0030 d13d db12 94bb bf00 3fbe
000003b0: 53a0 113e 3b38 3f3d d5c7 fabd a120 26be
000003c0: bb62 0e3e c92e 7f3d 1a08 823e e6e6 4fbe
000003d0: 4959 12be 6a1c 1d3d fa68 2f3d b494 ab3d
000003e0: 489d 9b3d daf2 723c bb7e 40be eb53 5e3e
000003f0: dd9a 5bbe b69c 113e fb6e af3e fade 9dbe

bias f4 [224]
-0.13164891 0.07355501 -0.19134578 -0.057631034 0.34863213 -0.087069795 -0.011964559 -0.11691346
0.03072857 -0.5303918 0.3124675 -0.074400716 -0.058491502 -0.38957295 0.08637184 0.2658255
-0.1760055 -0.2625495 0.50231177 0.2311951 0.34618092 -0.72020465 -0.40428385 -0.1827826
0.43030408 0.22702824 -0.008553323 0.6872029 -0.23315075 -0.18841013 -0.13311364 0.5186304
0.6865589 -0.42583913 -0.16654648 0.014686731 -0.48299828 -0.20387658 0.15417814 -0.5519114
-0.0020098672 0.19023359 -0.08282162 0.14270082 0.17691204 0.888904 0.04402622 0.15816766
0.26452458 -0.68314147 0.32709685 -0.65107745 0.31109104 0.27346987 -0.19802104 -0.1256453
-0.001099619 0.30994412 0.17041974 -0.02266456 -0.11829297 0.32047263 0.16125724 -0.28193521
0.12124794 0.16047232 -1.0133357 -0.30026585 -0.1756802 0.18222736 0.04057042 0.6700798
0.36367333 0.104488805 -0.015145392 -0.14863883 0.24878773 0.06602938 0.49987933 0.16184177
0.5552982 -0.14600077 -0.80862844 -0.22223534 0.2255381 -0.47121245 -0.363152 -0.32211947
-0.0997687 0.27520743 0.08857925 0.28527507 0.106522284 -0.106093995 0.10130537 0.38692403
0.13323478 -0.4981972 0.09581497 -0.12767895 -0.028229522 0.014897824 0.50014997 -0.32073766
-0.3065434 0.19087765 0.059710797 -0.22543608 0.32794884 -0.37324128 0.048639514 0.015112195
-0.07883386 0.046280157 0.13293843 -0.05453717 -0.08040354 -0.017262658 -0.16880278 -0.26031896
-0.6181928 0.029488705 0.30129644 0.4335039 0.083002515 -0.049068686 0.899875 0.19739418
0.06728026 0.08977065 -0.3694921 0.064552225 -0.15739758 0.5399533 -0.06909752 -0.2977046
-0.28873855 -0.19806564 0.29945037 -0.43115944 -0.07544636 0.17365342 0.2815914 -0.42426512
0.16642837 0.21891181 -0.6032104 -0.43720746 0.42447218 0.09181113 0.43632284 -0.085969634
0.43522143 0.98874307 0.30419996 0.22810024 -0.30733022 0.36882213 0.16020858 -0.14948134
0.213631 0.19478627 0.009130016 -0.271039 0.004932476 0.09871633 0.070539534 -0.15434209
-0.3808269 1.0492036 0.052777596 0.03137785 -0.058101274 -0.4402861 0.034184627 -0.34452912
-0.3901079 -0.19124416 -0.062074743 0.12488954 -0.7826592 -0.021311732 -0.4966225 0.12272303
0.36940363 -0.3433814 -0.42707708 -0.35695976 0.27099952 0.054570552 -0.8671631 -0.21425714
0.0031481802 0.37906966 0.17223589 0.72824174 0.19156691 -0.008536494 -0.14293604 0.081747785
0.047391113 -0.030233197 -0.10666598 -0.006793616 -1.6910976 0.70599824 0.5473002 0.21261342
-0.12727441 0.030820156 0.20452398 0.21202354 -0.14661834 -0.1747313 -0.33743632 -0.31787947
-0.13696223 0.06878555 -0.05106082 -0.4582971 0.3501234 -0.2177608 -0.070272006 0.33162016
00000000: f9ce 06be 02a4 963d 26f0 43be 850e 6cbd
00000010: e97f b23e a651 b2bd ff06 44bc 5370 efbd
00000020: 7bba fb3c c2c7 07bf bdfb 9f3e 675f 98bd
00000030: c994 6fbd 1b76 c7be b8e3 b03d 481a 883e
00000040: c93a 34be e36c 86be 8197 003f 69be 6c3e
00000050: a03e b13e 555f 38bf 4bfe cebe 5d2b 3bbe
00000060: d150 dc3e 177a 683e 3d23 0cbc 87ec 2f3f
00000070: 12bf 6ebe 96ee 40be f14e 08be f6c4 043f
00000080: 53c2 2f3f 9607 dabe 298b 2abe 9da0 703c
00000090: 8d4b f7be 06c5 50be e0e0 1d3e 114a 0dbf
000000a0: fab7 03bb 98cc 423e 629e a9bd 2a20 123e
000000b0: 6e28 353e 368f 633f d654 343d b4f6 213e
000000c0: c46f 873e 5ce2 2ebf 3d79 a73e 03ad 26bf
000000d0: 5347 9f3e 3e04 8c3e 07c6 4abe 29a9 00be
000000e0: 1721 90ba ffb0 9e3e 8382 2e3e 07ab b9bc
000000f0: 9643 f2bd fd14 a43e 9e20 253e d059 90be
00000100: d750 f83d db52 243e fcb4 81bf 72bc 99be
00000110: 83e5 33be cf99 3a3e 2b2d 263d 5a8a 2b3f
00000120: 6433 ba3e 3afe d53d 6124 78bc c734 18be
00000130: 36c2 7e3e 693a 873d 2ff0 ff3e d9b9 253e
00000140: 0628 0e3f 3a81 15be 4602 4fbf a991 63be
00000150: 76f3 663e c242 f1be 0fef b9be d8ec a4be
00000160: 8853 ccbd fde7 8c3e 0a69 b53d 930f 923e
00000170: 5b28 da3d cf47 d9bd 3179 cf3d e81a c63e
00000180: b36e 083e b413 ffbe a43a c43d 45be 02be
00000190: 9941 e7bc 0116 743c d409 003f ba37 a4be
000001a0: 42f3 9cbe 6e75 433e 4f93 743d b7d8 66be
000001b0: e9e8 a73e 7b19 bfbe 3a3a 473d 2499 773c
000001c0: a673 a1bd 4390 3d3d 0321 083e 5e62 5fbd
000001d0: 9caa a4bd 6b6a 8dbc a3da 2cbe 8748 85be
000001e0: e241 1ebf 4c92 f13c 8743 9a3e 39f4 dd3e
000001f0: 39fd a93d 3ffc 48bd 355e 663f b321 4a3e
00000200: 3cca 893d add9 b73d 122e bdbe f533 843d
00000210: d52c 21be 613a 0a3f 0083 8dbd bd6c 98be
00000220: 8ad5 93be b8d1 4abe 8f51 993e eec0 dcbe
00000230: 9f83 9abd 34d2 313e bf2c 903e 4739 d9be
00000240: 336c 2a3e 6b2a 603e ff6b 1abf a8d9 dfbe
00000250: 6b54 d93e 7907 bc3d b565 df3e d910 b0bd
00000260: 58d5 de3e 441e 7d3f 19c0 9b3e 1c93 693e
00000270: 635a 9dbe 41d6 bc3e b80d 243e a311 19be
00000280: 16c2 5a3e 0d76 473e 1096 153c a0c5 8abe
00000290: 9ca0 a13b ca2b ca3d 0877 903d da0b 1ebe
000002a0: befb c2be 4e4c 863f 522d 583d 0f86 003d
000002b0: 9afb 6dbd 2e6d e1be 2e05 0c3d 1f66 b0be
000002c0: 39bc c7be 82d5 43be 1642 7ebd 16c6 ff3d
000002d0: 5a5c 48bf f195 aebc 4e45 febe 3656 fb3d
000002e0: 7922 bd3e b0cf afbe d9a9 dabe 6ec3 b6be
000002f0: 73c0 8a3e 5f85 5f3d 67fe 5dbf 3966 5bbe
00000300: b351 4e3b 6b15 c23e 9b5e 303e 0d6e 3a3f
00000310: 1e2a 443e a7dc 0bbc d35d 12be 626b a73d
00000320: 2f1d 423d 9cab f7bc b173 dabd fb9c debb
00000330: e375 d8bf 4dbc 343f de1b 0c3f 55b7 593e
00000340: 3954 02be 8d7a fc3c bc6e 513e b31c 593e
00000350: 1e23 16be c3ec 32be 74c4 acbe 19c1 a2be
00000360: d43f 0cbe 70df 8c3d 2725 51bd eba5 eabe
00000370: 6043 b33e b0fc 5ebe c5ea 8fbd 1eca a93e

weight f4 [224]
0.5704359 0.5867619 0.5655646 0.40552294 1.3586229 0.5163861 0.8061045 0.47650626
0.4674449 0.42168427 0.52692187 0.5835205 0.4137312 0.5557948 0.4300285 0.6896931
0.5658181 0.47224948 0.4606618 0.3760995 0.6785379 0.3452803 0.37526506 0.4433789
0.48317644 0.44037813 0.5182085 0.47965446 0.6203101 0.39627308 0.3955091 0.8558002
1.0648038 0.4144803 0.3277682 0.5442937 0.513167 0.4227045 0.5458757 0.5401333
0.6071061 1.0522032 0.35564655 0.675424 0.5737784 1.1183723 0.50592315 1.6066138
0.5470855 0.49175107 1.2959903 0.37508225 0.71770906 0.53379416 0.46047813 0.28239396
0.6773088 1.0492818 0.75211227 0.5103845 0.4783771 0.37096485 0.45834312 0.56267154
0.35468417 0.70384943 0.4713978 0.4292182 0.47562203 0.5501287 0.5337425 1.0496476
0.8920358 0.40882668 0.47211963 0.36181062 0.54620475 0.5213047 0.80570304 0.51870984
0.613418 0.45667592 0.3990522 0.4124925 0.6626317 0.5584172 0.40525016 0.5756666
0.3867385 0.4618301 0.48868412 0.54984987 0.6189056 0.57861894 0.50754577 0.939352
0.5699876 0.4104301 0.4277661 0.3833788 0.5169933 0.4355611 0.9666508 0.44012296
0.44061655 0.7039609 0.55714726 0.4260157 0.628428 0.38396662 0.7169559 0.44535705
0.29362443 1.0354592 0.5559717 0.68271875 0.53244317 0.6057545 0.526678 0.39045802
0.43873033 0.6163641 0.93667716 0.6357863 0.62021387 0.51252735 1.0997947 0.80509937
0.46644875 0.52578616 0.4263519 0.5718768 0.6165193 0.77180564 0.48337224 0.34835246
0.4916118 0.4992287 0.83878577 0.4130552 0.47841385 0.70920056 1.1117185 0.6581861
0.46869573 0.541112 0.46302682 0.4007128 0.70469403 0.6774102 0.40375593 0.6596905
0.44295272 1.1616709 0.4543729 0.53860414 0.31385955 0.5528145 0.68355185 0.54919326
0.7762198 0.5882194 0.53597885 0.44600934 0.41906193 0.5630334 0.58025557 0.46006298
0.46711072 1.3408726 0.3888638 0.4912092 0.4120488 0.3912837 0.44728965 0.35786277
0.585518 0.3545221 0.39176616 0.52612066 0.3248699 0.6538551 0.42460227 0.39106652
0.5471885 0.4183895 0.41071245 0.41528082 0.4955909 0.7942544 0.3753199 0.47035852
0.7081811 0.8831318 0.5246146 1.1971016 0.59538233 0.392908 0.43496394 0.55879104
0.55831105 0.5938878 0.45793635 0.7004875 0.6510489 0.6448234 1.2270043 0.5409403
0.40991178 0.5592284 0.5299781 0.73051 0.4998142 0.48067293 0.37246034 0.50467086
0.51304334 0.64914215 0.57422006 0.4520323 0.7816068 0.5763455 0.59358287 0.5145079
00000000: 1608 123f 0736 163f d7c8 103f b4a0 cf3e
00000010: 5be7 ad3f e131 043f dd5c 4e3f a1f8 f33e
00000020: f054 ef3e 00e7 d73e 5ae4 063f 9961 153f
00000030: 93d4 d33e 9148 0e3f b22c dc3e ba8f 303f
00000040: 74d9 103f afca f13e dddb eb3e 1d90 c03e
00000050: a9b4 2d3f 94c8 b03e be22 c03e 8f02 e33e
00000060: e762 f73e 3e79 e13e 50a9 043f 4595 f53e
00000070: a5cc 1e3f 4ee4 ca3e 2b80 ca3e b915 5b3f
00000080: 7e4b 883f c336 d43e 3cd1 a73e d556 0b3f
00000090: ea5e 033f b96c d83e 83be 0b3f 2d46 0a3f
000000a0: 4e6b 1b3f 98ae 863f 4e17 b63e 96e8 2c3f
000000b0: 24e3 123f d326 8f3f 2e84 013f 85a5 cd3f
000000c0: cc0d 0c3f ccc6 fb3e 03e3 a53f c80a c03e
000000d0: c8bb 373f bca6 083f cac3 eb3e f195 903e
000000e0: 1c64 2d3f de4e 863f 6e8a 403f 8fa8 023f
000000f0: d8ed f43e 1bef bd3e f3ab ea3e 3e0b 103f
00000100: 2a99 b53e 7a2f 343f 0d5b f13e 7dc2 db3e
00000110: bb84 f33e 3cd5 0c3f 59a3 083f da5a 863f
00000120: 755c 643f bb51 d13e aab9 f13e 3e3f b93e
00000130: 13d4 0b3f 3a74 053f 8e42 4e3f 2bca 043f
00000140: f608 1d3f 6dd1 e93e 9250 cc3e 3832 d33e
00000150: 3ba2 293f 6ef4 0e3f f37c cf3e e35e 133f
00000160: 9702 c63e ff74 ec3e ce34 fa3e f6c2 0c3f
00000170: 9970 1e3f 5f20 143f 85ee 013f 5f79 703f
00000180: b5ea 113f e523 d23e 2904 db3e 3a4a c43e
00000190: ac59 043f dd01 df3e 6d76 773f cc57 e13e
000001a0: 7e98 e13e c836 343f 34a1 0e3f bb1e da3e
000001b0: a8e0 203f 4697 c43e 6c8a 373f d705 e43e
000001c0: f155 963e ed89 843f 2954 0e3f a8c6 2e3f
000001d0: 324e 083f ba12 1b3f 5fd4 063f 1dea c73e
000001e0: 43a1 e03e 0aca 1d3f 13ca 6f3f e4c2 223f
000001f0: 56c6 1e3f fe34 033f 13c6 8c3f fe1a 4e3f
00000200: 5fd2 ee3e ec99 063f cc4a da3e 8566 123f
00000210: 35d4 1d3f 0e95 453f 917c f73e 415b b23e
00000220: 8bb4 fb3e e79a ff3e aaba 563f f97b d33e
00000230: a9f2 f43e 2b8e 353f cb4c 8e3f e27e 283f
00000240: e3f8 ef3e 5186 0a3f da11 ed3e 3a2a cd3e
00000250: d466 343f c16a 2d3f 19b9 ce3e 7ae1 283f
00000260: b3ca e23e a2b1 943f 91a3 e83e f6e1 093f
00000270: 33b2 a03e 4085 0d3f 41fd 2e3f ee97 0c3f
00000280: 57b6 463f 8c95 163f e935 093f 565b e43e
00000290: 498f d63e f522 103f a18b 143f 608d eb3e
000002a0: 2329 ef3e b7a1 ab3f 2819 c73e c67f fb3e
000002b0: 0ff8 d23e 5656 c83e 2603 e53e ca39 b73e
000002c0: 82e4 153f ec83 b53e 9395 c83e d8af 063f
000002d0: 5955 a63e 0c63 273f 7865 d93e df39 c83e
000002e0: 8c14 0c3f 2637 d63e e748 d23e b09f d43e
000002f0: 17be fd3e 4254 4b3f ee29 c03e d5d2 f03e
00000300: 5b4b 353f ed14 623f 244d 063f a03a 993f
00000310: fa6a 183f 3d2b c93e 98b3 de3e ee0c 0f3f
00000320: 79ed 0e3f 0809 183f a276 ea3e 2653 333f
00000330: 24ab 263f 2513 253f 7a0e 9d3f 107b 0a3f
00000340: f5df d13e 9829 0f3f a5ac 073f b402 3b3f
00000350: a6e7 ff3e c31a f63e 1fb3 be3e 1c32 013f
00000360: cf56 033f 2e2e 263f 1600 133f c770 e73e
00000370: 6217 483f 618b 133f 0cf5 173f cab6 033f

bias f4 [224]
0.09267476 -0.38816178 0.038310315 -0.057630632 0.104262546 0.30847803 0.29501435 0.07312062
0.18637389 0.101803586 0.07034582 0.17278968 0.155234 0.10870957 -0.031777717 0.16815408
0.19453934 0.2163692 -0.16370012 0.17579694 0.0042503905 0.06887721 -0.10949651 -0.02082635
0.032198653 0.16742228 0.11482946 0.11975446 -0.095872544 0.14386344 0.03765675 -0.13426429
0.022804644 0.0406619 0.18254977 0.14112361 -0.063727796 -0.14590278 -0.0735639 0.09105372
-0.0035611163 0.19049992 0.06833359 0.013188643 -0.034207378 0.10702505 0.12428326 -0.11709886
0.07544041 0.049183328 -0.051844366 0.08288808 -0.17996937 -0.20343676 0.056103304 -0.11373089
0.07252043 0.19663922 -0.030966809 -0.025413172 0.046378624 -0.21521953 0.28085726 0.2819084
-0.32168552 0.12382721 -0.20113914 0.12933965 0.021874746 0.120136715 -0.04115765 0.12669049
-0.1091356 0.20942259 0.054398756 0.08789788 -0.049277935 0.06612239 0.03251876 -0.1660481
0.07912624 0.11133017 0.026977867 0.026911885 -0.0825521 0.18630898 0.038209222 0.053992514
-0.09329153 0.017793657 0.016567169 0.1408633 0.050217267 0.29689446 -0.03510236 -0.047400694
0.16276024 0.10092642 0.037195098 0.05224364 0.13998994 0.020186596 -0.08676827 -0.059206262
-0.17562813 0.073602885 0.08897692 0.22710404 0.17624906 -0.13753104 -0.016782016 -0.07055465
-0.1694051 0.0281805 0.20304307 0.24171825 -0.07143157 0.08858746 -0.08172829 -0.046806328
0.046504248 0.026709858 0.08055562 -0.13847558 0.22210893 -0.018276846 0.08972723 -0.087900884
0.026617032 0.053707536 -0.011130516 -0.08944832 0.16814847 0.036958914 0.18170787 -0.02824738
0.0005126181 0.13232957 0.08489536 -0.032402366 0.0770016 -0.0138101755 -0.22326854 0.0010454674
-0.19192715 0.121631466 0.04530549 -0.081256494 0.36088338 -0.04480477 0.077152945 0.17226411
-0.009351704 0.081610665 -0.30609176 0.1634526 0.08321941 0.21003859 0.109465405 0.10639817
0.10122921 0.059293114 0.2464905 -0.009944897 0.11188296 0.067913994 -0.139443 -0.080541044
0.056614418 0.07577656 0.025731284 -0.21948102 -0.10844738 -0.05235989 0.100882165 0.089066826
-0.052153625 -0.02994703 0.056465916 0.20069268 -0.19641247 0.1884029 0.12936032 -0.2571017
-0.057248026 -0.07891209 0.14391127 0.2565161 -0.016484413 0.2743809 -0.069367334 -0.2312161
0.2958281 0.08206554 -0.22494185 -0.033134196 0.25595656 -0.004989958 -0.24439923 0.30874828
0.12334573 0.19480169 -0.032138664 0.16485083 -0.06283288 -0.016735505 -0.05399986 0.18187805
-0.10050752 0.15968212 -0.14302036 0.10495093 -0.12461363 0.22022809 -0.17935519 -0.038438518
0.16353837 0.21943517 0.114580244 -0.07167445 0.28022787 0.19570863 0.051686034 0.042658355
00000000: 44cc bd3d 24bd c6be 47eb 1c3d 190e 6cbd
00000010: 9a87 d53d d5f0 9d3e 1f0c 973e 43c0 953d
00000020: ccd8 3e3e 667e d03d 7811 903d c7ef 303e
00000030: a9f5 1e3e 1fa3 de3d 5a29 02bd 9530 2c3e
00000040: 5235 473e e38f 5d3e 01a1 27be 1d04 343e
00000050: dc46 8b3b 7f0f 8d3d b53f e0bd 069c aabc
00000060: bce2 033d bf70 2b3e b52b eb3d d441 f53d
00000070: d358 c4bd f050 133e f73d 1a3d 947c 09be
00000080: ced0 ba3c 188d 263d 54ee 3a3e b582 103e
00000090: b883 82bd 8a67 15be aca8 96bd 5f7a ba3d
000000a0: 9e61 69bb 6912 433e 7bf2 8b3d 2e15 583c
000000b0: 091d 0cbd f32f db3d 3988 fe3d 87d1 efbd
000000c0: 8080 9a3d 7574 493d c25a 54bd 3ac1 a93d
000000d0: e449 38be ba51 50be 94cc 653d beeb e8bd
000000e0: 9785 943d cb5b 493e 1bae fdbc 492f d0bc
000000f0: 83f7 3d3d 8262 5cbe 86cc 8f3e 4c56 903e
00000100: f7b3 a4be 1f99 fd3d 6bf7 4dbe 9d71 043e
00000110: ab32 b33c 3d0a f63d ed94 28bd 27bb 013e
00000120: 7c82 dfbd e072 563e 3bd1 5e3d ce03 b43d
00000130: a9d7 49bd 2d6b 873d 6432 053d 8308 2abe
00000140: f00c a23d 1201 e43d b000 dd3c 5076 dc3c
00000150: 1311 a9bd c8c7 3e3e 4681 1c3d 4127 5d3d
00000160: a10f bfbd 01c4 913c dfb7 873c 783e 103e
00000170: 9fb0 4d3d 8d02 983e 7ec7 0fbd 3b27 42bd
00000180: 9faa 263e 83b2 ce3d e359 183d 6dfd 553d
00000190: 8659 0f3e 5c5e a53c 90b3 b1bd 4482 72bd
000001a0: dcd7 33be 1cbd 963d 8839 b63d f68d 683e
000001b0: a27a 343e f0d4 0cbe 707a 89bc f57e 90bd
000001c0: 8878 2dbe cbda e63c 86ea 4f3e fd84 773e
000001d0: b74a 92bd 586d b53d 2961 a7bd feb7 3fbd
000001e0: 3d7b 3e3d a2ce da3c 58fa a43d 8bcc 0dbe
000001f0: 8670 633e 53b9 95bc e9c2 b73d 6105 b4bd
00000200: f60b da3c 6ffc 5b3d c55c 36bc ae30 b7bd
00000210: 1d2f 2c3e 3b62 173d a111 3a3e 0d67 e7bc
00000220: 3861 063a 6781 073e 9edd ad3d 58b8 04bd
00000230: 04b3 9d3d 1344 62bc 82a0 64be 1108 893a
00000240: 8d88 44be eb19 f93d 4092 393d ce69 a6bd
00000250: b5c5 b83e 3585 37bd 5d02 9e3d 0166 303e
00000260: e437 19bc 7e23 a73d 0fb8 9cbe 1e60 273e
00000270: f06e aa3d 5b14 573e 662f e03d 49e7 d93d
00000280: 4351 cf3d 56dd 723d 0168 7c3e ecef 22bc
00000290: e522 e53d 7e16 8b3d 25ca 0ebe b4f2 a4bd
000002a0: 85e4 673d be30 9b3d 6aca d23c a2bf 60be
000002b0: a919 debd 5377 56bd 4f9b ce3d ab68 b63d
000002c0: 0a9f 55bd 7953 f5bc ce48 673d 6282 4d3e
000002d0: 5a20 49be b1ec 403e 0877 043e d6a2 83be
000002e0: e87c 6abd a99c a1bd 7a5d 133e 1456 833e
000002f0: 520a 87bc a77b 8c3e 7610 8ebd eac3 6cbe
00000300: c876 973e fa11 a83d 2857 66be b9b7 07bd
00000310: bd0c 833e cd82 a3bb cb43 7abe 4114 9e3e
00000320: b09c fc3d 187a 473e d5a3 03bd a8ce 283e
00000330: 86ae 80bd e618 89bc f52e 5dbd 3d3e 3a3e
00000340: e3d6 cdbd b683 233e ee73 12be 83f0 d63d
00000350: 6e35 ffbd 7983 613e e3a8 37be b571 1dbd
00000360: 9a76 273e 9db3 603e 0ca9 ea3d 0eca 92bd
00000370: 077a 8f3e d867 483e bcb4 533d 87ba 2e3d

running_mean f4 [224]
0.14271072 0.7448755 -0.021771131 0.27569604 0.32641134 0.041629896 0.12681018 0.15072611
0.2012167 -0.04809034 0.36147925 0.06114304 0.1896841 -0.0067174323 0.1662527 0.27072787
0.13376069 -0.008877707 0.50977737 0.42738968 0.37978786 -0.019346407 -0.025696017 0.061186217
0.46395138 0.46893826 0.12201439 0.675937 0.044701625 0.050071612 0.1198808 0.41153964
0.5322397 0.00904546 0.07323575 0.10434772 0.10287568 0.07606868 0.29704303 0.30117732
0.33595133 0.20287026 0.103710175 0.13557512 0.38586247 0.72891265 0.19016495 0.13382027
0.22869802 0.040250897 0.23863465 0.029873496 0.2552143 0.22018015 0.09687377 0.09646578
0.11584307 0.26888746 0.19179496 0.074487016 0.0073690163 0.49361822 0.20780773 0.1705328
0.3755219 0.3544171 0.032597594 0.01399871 0.18184513 0.14981355 0.10980177 0.5265392
0.30504927 0.27890232 0.09484486 0.09415119 0.29585218 0.31315863 0.38554722 0.22424477
0.5187622 0.06615307 -0.044708673 0.121055655 0.20249152 0.07022048 -0.04277034 0.17031442
0.0984503 0.3399474 0.23244293 0.25749284 0.2653297 0.09024607 0.19687551 0.3223809
0.1711299 0.032202188 0.20629352 0.11752717 0.19652052 0.2340139 0.3728731 0.16048507
0.10259184 0.47345412 0.31161672 0.098945245 0.27023077 0.04534321 0.6154282 0.1771691
0.10681912 0.114840776 0.23907526 0.2261905 0.0728383 0.026789032 0.13713324 0.024102101
-0.049527917 0.537604 0.21208484 0.46508133 0.17454308 0.11547151 0.7521809 0.17860019
0.15084176 0.22664668 0.20861898 0.118877016 0.052616917 0.41157672 0.100092515 0.06945364
0.03178394 0.08273168 0.22326632 0.1735891 0.0914705 0.15565792 0.29621544 0.19805686
0.36288133 0.2232393 0.07608764 -0.07103684 0.40627292 0.10272879 0.6286415 0.015150642
0.45445803 0.8522837 0.6526207 0.30722305 -0.011169783 0.401141 0.21812774 0.019654626
0.21514085 0.40254346 0.07734123 -0.039504703 0.27339858 0.14178067 0.2706999 0.054987263
0.011286236 0.8976929 0.28806582 0.18615134 0.059216093 0.009982253 0.17969279 0.012654174
0.25343302 0.08975479 0.2526172 0.16222556 -0.045721035 0.1519196 0.08481295 0.34757647
0.5113841 0.05731816 -0.0071111303 0.01655294 0.4192135 0.09881784 0.09060717 0.42959958
0.20397928 0.2989274 0.17428792 0.5876247 0.30324572 0.21202628 0.0059963055 0.20327984
0.1962712 0.1036433 0.3212243 0.29299012 0.0059647183 0.5666969 0.42898726 0.24623951
0.07739677 0.26638126 0.23304771 0.51116276 0.02021519 0.08895346 0.08945808 0.30595663
0.08475857 0.15786678 0.11316723 0.026609445 0.26172954 0.18544683 0.1265754 0.35454357
00000000: c222 123e 29b0 3e3f 5f59 b2bc 0828 8d3e
00000010: 631f a73e 1c84 2a3d 87da 013e f257 1a3e
00000020: c00b 4e3e 60fa 44bd cf13 b93e 2071 7a3d
00000030: 8c3c 423e e81d dcbb 263e 2a3e d89c 8a3e
00000040: 90f8 083e cd73 11bc c580 023f d2d2 da3e
00000050: 8e73 c23e 5b7c 9ebc 7480 d2bc 669e 7a3d
00000060: 098b ed3e ad18 f03e aee2 f93d 350a 2d3f
00000070: 0d19 373d e417 4d3d 1184 f53d 53b5 d23e
00000080: dc40 083f 6933 143c a0fc 953d 42b4 d53d
00000090: 7cb0 d23d e5c9 9b3d 0616 983e ea33 9a3e
000000a0: d001 ac3e 39bd 4f3e 0066 d43d 34d4 0a3e
000000b0: c48f c53e 059a 3a3f 9aba 423e 2e08 093e
000000c0: d02f 6a3e 20de 243d a45c 743e 43b9 f43c
000000d0: 73ab 823e e876 613e c165 c63d da8f c53d
000000e0: 223f ed3d 9eab 893e e665 443e a68c 983d
000000f0: ca77 f13b 87bb fc3e 8dcb 543e 26a0 2e3e
00000100: 6844 c03e 2876 b53e 0e85 053d d85a 653c
00000110: 9c35 3a3e b968 193e c0df e03d 46cb 063f
00000120: 6b2f 9c3e 49cc 8e3e 063e c23d 57d2 c03d
00000130: f079 973e 5456 a03e 7266 c53e 6ca0 653e
00000140: 99cd 043f 437b 873d 7120 37bd 07ec f73d
00000150: f059 4f3e c1cf 8f3d f42f 2fbd e766 2e3e
00000160: 50a0 c93d 960d ae3e 8505 6e3e 1ad6 833e
00000170: 4bd9 873e eed2 b83d bc99 493e 1c0f a53e
00000180: ad3c 2f3e 71e6 033d 9c3e 533e 16b2 f03d
00000190: ad3c 493e 57a1 6f3e 39e9 be3e 3356 243e
000001a0: ac1b d23d 9468 f23e 3a8c 9f3e cea3 ca3d
000001b0: b05b 8a3e cdb9 393d b48c 1d3f d16b 353e
000001c0: fcc3 da3d a431 eb3d 25d0 743e 7c9e 673e
000001d0: 3f2c 953d ac74 db3c a86c 0c3e c571 c53c
000001e0: c9dd 4abd 6aa0 093f c52c 593e 241f ee3e
000001f0: 6cbb 323e 547c ec3d ed8e 403f f8e2 363e
00000200: 4376 1a3e 1116 683e 37a0 553e cb75 f33d
00000210: d684 573d 2fba d23e 4efd cc3d b63d 8e3d
00000220: e02f 023d 3a6f a93d ed9f 643e 57c1 313e
00000230: e354 bb3d ca64 1f3e 8da9 973e 6bcf 4a3e
00000240: 95cb b93e d898 643e d6d3 9b3d c37b 91bd
00000250: 0103 d03e 7963 d23d a6ee 203f 663a 783c
00000260: b9ae e83e 442f 5a3f 2612 273f 574c 9d3e
00000270: 7701 37bc 5a62 cd3e e15c 5f3e bd02 a13c
00000280: e24d 5c3e 2d1a ce3e 1465 9e3d afcf 21bd
00000290: e6fa 8b3e f42e 113e 2d99 8a3e 533a 613d
000002a0: e8e9 383c 34cf 653f 5d7d 933e 759e 3e3e
000002b0: 938c 723d 9b8c 233c 6301 383e 7453 4f3c
000002c0: f9c1 813e 5cd1 b73d 0b57 813e 751e 263e
000002d0: fb45 3bbd d090 1b3e 69b2 ad3d 8bf5 b13e
000002e0: 12ea 023f 72c6 6a3d 7c04 e9bb 089a 873c
000002f0: 27a3 d63e 0261 ca3d 4090 b93d 7af4 db3e
00000300: f2df 503e 030d 993e 8878 323e 936e 163f
00000310: 0643 9b3e 6b1d 593e a87c c43b 9728 503e
00000320: 51fb 483e f042 d43d 8377 a43e cd02 963e
00000330: af73 c33b 0c13 113f 38a4 db3e 3626 7c3e
00000340: 3382 9e3d 2063 883e 0fa4 6e3e 90db 023f
00000350: 539a a53c 3b2d b63d cc35 b73d 59a6 9c3e
00000360: e795 ad3d d4a7 213e 38c4 e73d 0dfc d93c
00000370: 6a01 863e c6e5 3d3e fb9c 013e bc86 b53e

running_var f4 [224]
0.16833934 1.0496805 0.045674134 0.23569094 0.26733053 0.06743964 0.08625469 0.22374107
0.19701886 0.056281675 0.26435804 0.07156265 0.15953009 0.083812945 0.104060136 0.12485674
0.20704812 0.061415855 0.34942928 0.4602586 0.21986926 0.102826156 0.06222719 0.05674555
0.37597018 0.8038261 0.11332602 0.4948084 0.15619543 0.11301044 0.1230696 0.108446375
0.062333692 0.07379599 0.07758402 0.11008952 0.24165477 0.1358039 0.278006 0.65836275
0.44808584 0.1061675 0.118317746 0.049951557 0.5651493 0.043838065 0.22405472 0.04491494
0.091072105 0.13379966 0.04859452 0.14596173 0.08246608 0.082381025 0.113865025 0.12898578
0.07953633 0.1679808 0.1068705 0.086083084 0.045115076 0.5459498 0.14599833 0.30639654
0.7311762 0.4279677 0.1458807 0.09445169 0.15610065 0.05764134 0.08216945 0.104306266
0.1086914 0.19993393 0.081126004 0.14063536 0.2424514 0.2740653 0.08742631 0.1578608
0.35615724 0.13177626 0.07108549 0.14349954 0.085570134 0.15223299 0.04084992 0.16972825
0.099987395 0.20501441 0.1725303 0.158741 0.20297599 0.09221329 0.16886868 0.11869808
0.111971036 0.13623793 0.189992 0.20372385 0.2384439 0.26707152 0.06575271 0.16025075
0.084961645 0.47920817 0.35558453 0.13267663 0.088164546 0.16427906 1.4960485 0.22494462
0.17164196 0.08665217 0.24832776 0.18639025 0.12774867 0.028759407 0.09713354 0.10586897
0.060106963 1.2920088 0.040655088 0.29826072 0.086065255 0.13202417 0.11430249 0.07306296
0.098187044 0.23562711 0.40596953 0.07598381 0.08953511 0.085303925 0.10720775 0.10037362
0.08655112 0.091234274 0.05570071 0.2558985 0.10052801 0.06321568 0.1764685 0.21604301
0.27634972 0.11676765 0.15266843 0.036094714 0.24615316 0.066397846 0.9609448 0.036172096
0.3466324 0.19658242 0.7611791 0.29028392 0.07297166 0.30022156 0.1357139 0.05819584
0.12349575 0.408595 0.06859957 0.03107826 0.3017977 0.07497159 0.33086127 0.10743263
0.0963948 0.033687554 0.2002371 0.19589815 0.05609312 0.058466267 0.16060974 0.093474
0.45087618 0.1386444 0.29953453 0.08691702 0.04170799 0.10981081 0.19854146 0.495923
0.6814673 0.18674429 0.080047116 0.073158085 0.52977556 0.043333855 0.25755 0.55445653
0.1911014 0.087220736 0.09142424 0.09939287 0.22468206 0.27774975 0.045564614 0.14675719
0.24174222 0.078574955 0.40187526 0.3534841 0.08678317 0.10298779 0.10098596 0.1771644
0.107957356 0.36757445 0.12934601 0.3489569 0.07119465 0.10359778 0.13869795 0.37901726
0.09230768 0.11102401 0.13347478 0.1223088 0.058383446 0.20582698 0.1387844 0.27024347
00000000: 2661 2c3e ee5b 863f cd14 3b3d f758 713e
00000010: 8cdf 883e cb1d 8a3d 4da6 b03d 611c 653e
00000020: 50bf 493e 9d87 663d f059 873e 708f 923d
00000030: db5b 233e 1fa6 ab3d 7b1d d53d e4b4 ff3d
00000040: 6c04 543e 318f 7b3d 65e8 b23e 04a7 eb3e
00000050: 6825 613e 8596 d23d f0e1 7e3d 066e 683d
00000060: 2a7f c03e 8cc7 4d3f 7917 e83d 8757 fd3e
00000070: b2f1 1f3e 0472 e73d ea0b fc3d 2219 de3d
00000080: 9d51 7f3d 5a22 973d 5fe4 9e3d 9d76 e13d
00000090: 5974 773e 2d10 0b3e cd56 8e3e 768a 283f
000000a0: 826b e53e 596e d93d 9350 f23d 019a 4c3d
000000b0: a0ad 103f 8b8f 333d 9a6e 653e baf8 373d
000000c0: 0384 ba3d c702 093e 0c0b 473d fe76 153e
000000d0: fae3 a83d 62b7 a83d 1132 e93d d914 043e
000000e0: f2e3 a23d 2903 2c3e ecde da3d 544c b03d
000000f0: 96ca 383d 5ec3 0b3f 9680 153e 02e0 9c3e
00000100: 5d2e 3b3f 951e db3e c061 153e e36f c13d
00000110: d9d8 1f3e 5319 6c3d 7548 a83d 869e d53d
00000120: 9999 de3d 7bbb 4c3e 6425 a63d b702 103e
00000130: 2e45 783e 4952 8c3e 910c b33d 43a6 213e
00000140: 3e5a b63e 5bf0 063e 4595 913d 8bf1 123e
00000150: 653f af3d f7e2 1b3e 3f52 273d 3ecd 2d3e
00000160: 31c6 cc3d 4cef 513e c8ab 303e 008d 223e
00000170: f0d8 4f3e 52da bc3d e9eb 2c3e fb17 f33d
00000180: 1251 e53d f581 0b3e 438d 423e fc9c 503e
00000190: a32a 743e 99bd 883e 5ba9 863d c618 243e
000001a0: 5f00 ae3d c65a f53e 2d0f b63e 62dc 073e
000001b0: 9d8f b43d c538 283e 847e bf3f e257 663e
000001c0: e9c2 2f3e b176 b13d a249 7e3e 16dd 3e3e
000001d0: 8cd0 023e d998 eb3c f3ed c63d d5d1 d83d
000001e0: b832 763d 8b60 a53f f385 263d a1b5 983e
000001f0: fb42 b03d 5831 073e 6d17 ea3d 08a2 953d
00000200: 4a16 c93d 3c48 713e 3ddb cf3e 669d 9b3d
00000210: 2f5e b73d d3b3 ae3d bd8f db3d af90 cd3d
00000220: b741 b13d 09d9 ba3d 6d26 643d 2105 833e
00000230: a1e1 cd3d 3977 813d 29b4 343e 613a 5d3e
00000240: b67d 8d3e e123 ef3d 1d55 1c3e 0dd8 133d
00000250: 930f 7c3e 98fb 873d 7a00 763f 3129 143d
00000260: cd79 b13e e74c 493e a2dc 423f 18a0 943e
00000270: 2a72 953d a4b6 993e 96f8 0a3e c35e 6e3d
00000280: 57eb fc3d 5d33 d13e ee7d 8c3d d697 fe3c
00000290: 3a85 9a3e b48a 993d a666 a93e a405 dc3d
000002a0: a36a c53d f6fb 093d f40a 4d3e 8699 483e
000002b0: e6c1 653d 537a 6f3d e176 243e 4c6f bf3d
000002c0: 3ed9 e63e ccf8 0d3e 975c 993e 8d01 b23d
000002d0: ffd5 2a3d 7de4 e03d 744e 4b3e 9fe9 fd3e
000002e0: a474 2e3f e539 3f3e beef a33d e8d3 953d
000002f0: 5f9f 073f d77e 313d 98dd 833e ddf0 0d3f
00000300: 16b0 433e c9a0 b23d a23c bb3d 7d8e cb3d
00000310: 0e13 663e 3735 8e3e f6a1 3a3d 8447 163e
00000320: 468b 773e e8eb a03d 98c2 cd3e defb b43e
00000330: 60bb b13d 43eb d23d bad1 ce3d 966a 353e
00000340: bf18 dd3d b832 bc3e 4873 043e 7baa b23e
00000350: 80ce 913d 132b d43d d606 0e3e 8d0e c23e
00000360: cf0b bd3d 8e60 e33d 9dad 083e 097d fa3d
00000370: 7b23 6f3d 4fc4 523e 7f1d 0e3e 5a5d 8a3e

weight f4 [192, 224]
0.03952106 0.08324619 0.07020284 0.042543136 0.03800511 -0.103692085 -0.08088161 -0.19109355
-0.13481677 0.10057428 0.08871777 -0.012540848 -0.22640881 0.0142010655 -0.017834192 -0.06539818
-0.039386686 -0.003513457 -0.1270327 -0.14791253 0.00082729873 0.12887572 0.00094798964 0.056503087
-0.22181588 0.03911533 -0.15805292 -0.12889819 0.17858656 -0.07539903 -0.087347865 0.04359361
-0.009975416 -0.26875246 0.10737911 -0.2610759 -0.16115291 -0.24964902 -0.06371311 -0.016070867
0.21183462 0.14319755 -0.12051018 -0.1440001 -0.08121033 -0.024008654 0.057118677 0.0055735935
-0.057517964 0.0042338716 -0.07809359 0.19065991 -0.00075230957 0.10808735 -0.027307028 0.11392096
0.21588384 0.0008230987 0.24607636 0.18857466 -0.17682701 0.06844535 0.041112423 0.14463489
-0.024156028 -0.08263502 0.054940164 -0.11233092 -0.20428033 -0.027021004 0.034101564 -0.0027786868
-0.13014475 0.110001005 -0.11312724 -0.015596182 0.014942379 -0.10350201 0.10915383 -0.037409954
-0.09283649 0.015477739 -0.024741545 -0.055793706 0.11291988 -0.06400997 0.12671776 -0.40032408
-0.077573486 -0.057694755 0.098337375 0.102944195 -0.03817917 0.08334886 -0.022949418 0.09845629
-0.16754316 0.093775794 0.20245998 -0.073773414 -0.12736484 0.01599111 0.016170762 -0.007913102
-0.022806693 0.17027764 0.1031037 -0.26896042 0.091317005 0.06927739 -0.17545755 0.12936005
0.0554312 0.068968534 0.015821977 0.18956167 -0.28997567 -0.11672365 0.13342836 -0.06284313
-0.20477758 -0.0039407783 0.023679592 -0.019145044 0.05251737 -0.26705623 0.10278446 -0.10670527
0.007367593 -0.076784305 -0.006009884 0.20343803 0.10011999 0.015110968 -0.086187266 -0.08689951
-0.00258977 -0.026717206 -0.06510658 0.110568754 -0.22914541 0.14209978 -0.02873678 0.2427194
-0.04326158 0.09307263 0.0672694 -0.010747746 0.2067783 0.022803718 0.08880322 0.011405689
0.048817895 0.07167847 -0.0056571187 -0.118134655 -0.100135304 0.21447739 -0.106121935 0.04651372
0.12064905 0.11347986 -0.05923616 -0.05304902 -0.06372479 0.027627356 -0.03918892 -0.14321445
-0.021508176 -0.048958596 -0.15430221 0.08357908 -0.11377344 -0.12388335 -0.02374175 -0.32817894
-0.06225316 -0.1421705 0.21282347 0.1415739 0.017163957 0.16474316 -0.042795103 0.13485236
-0.07490348 0.21999246 -0.018570486 -0.07981709 -0.065802276 -0.0036146173 -0.14159873 0.19181445
0.018794188 -0.1892722 0.08179601 0.18431444 -0.07583056 -0.13212997 0.17893313 -0.13006853
-0.10019416 0.10115741 -0.09071988 -0.034447502 0.08912404 -0.06137312 -0.031004956 -0.041007295
-0.16938315 -0.19254053 -0.13839187 0.1949599 0.076948665 0.16190648 -0.010168031 -0.09849557
0.0762673 -0.18432263 -0.29986775 0.031262625 0.026830208 -0.077775784 -0.12132428 0.10990219
-0.12745678 -0.25348037 0.24375208 -0.3249153 0.16439818 -0.12786885 -0.008067801 0.095796205
-0.05891862 0.20354646 -0.24884683 0.05548784 0.18281773 -0.05810244 -0.029796854 0.26868293
-0.106716484 0.11089856 0.06470967 -0.04877366 -0.06515745 0.1980152 0.18986519 -0.046083566
0.12331514 0.29527897 0.04036355 0.014621315 0.28992227 0.15558152 0.043219686 0.039727677
00000000: d6e0 213d fa7c aa3d 82c6 8f3d b641 2e3d
00000010: 3fab 1b3d 845c d4bd 42a5 a5bd 07ae 43be
00000020: 680d 0abe e3f9 cd3d aab1 b53d 2178 4dbc
00000030: b6d7 67be 96ab 683c 0319 92bc 7bef 85bd
00000040: ef53 21bd 0742 66bb dc14 02be 6276 17be
00000050: 14df 583a fff7 033e 8282 783a c86f 673d
00000060: b423 63be 6537 203d a0d8 21be e3fd 03be
00000070: 65df 363e cf6a 9abd 70e3 b2bd 378f 323d
00000080: ed6f 23bc ec99 89be 94e9 db3d beab 85be
00000090: 4505 25be fea3 7fbe 057c 82bd 0da7 83bc
000000a0: 2deb 583e 61a2 123e 0bce f6bd c374 13be
000000b0: 9a51 a6bd ccad c4bc 46f5 693d b1a2 b63b
000000c0: f597 6bbd 4abc 8a3b 88ef 9fbd 5a3c 433e
000000d0: a436 45ba e75c dd3d fdb2 dfbc 644f e93d
000000e0: a710 5d3e 38c5 573a 71fb 7b3e b719 413e
000000f0: 2412 35be 132d 8c3d 8065 283d 2b1b 143e
00000100: dde2 c5bc 8d3c a9bd f008 613d c10d e6bd
00000110: dd2e 51be 275b ddbc 15ae 0b3d a11a 36bb
00000120: aa44 05be 3548 e13d 41af e7bd 2187 7fbc
00000130: e1d0 743c ddf8 d3bd 0b8c df3d 2e3b 19bd
00000140: 0f21 bebd 5896 7d3c c8ae cabc f187 64bd
00000150: 8a42 e73d a917 83bd 4dc2 013e 47f7 ccbe
00000160: d9de 9ebd 5651 6cbd 1b65 c93d 68d4 d23d
00000170: c361 1cbd cfb2 aa3d 6b00 bcbc 74a3 c93d
00000180: 6f90 2bbe 860d c03d ab51 4f3e 8416 97bd
00000190: ee6b 02be caff 823c 8c78 843c f5a5 01bc
000001a0: 1ad5 babc 435d 2e3e 0828 d33d 2eb5 89be
000001b0: 6904 bb3d 4ee1 8d3d 25ab 33be f676 043e
000001c0: d30b 633d 603f 8d3d 179d 813c 741c 423e
000001d0: b177 94be cf0c efbd 72a1 083e e6b3 80bd
000001e0: 37b1 51be a521 81bb b4fb c13c 11d6 9cbc
000001f0: 741c 573d 98bb 88be a980 d23d 4b88 dabd
00000200: d96b f13b 1741 9dbd 90ee c4bb 0f52 503e
00000210: b60b cd3d fe93 773c f382 b0bd 5ff8 b1bd
00000220: 21b9 29bb 0bde dabc 9956 85bd df71 e23d
00000230: 18a5 6abe 9b82 113e 6569 ebbc 6f8b 783e
00000240: 0e33 31bd dd9c be3d 8ac4 893d 5017 30bc
00000250: b1bd 533e ddce ba3c 76de b53d edde 3a3c
00000260: 46f5 473d 29cc 923d 5a5f b9bb 95f0 f1bd
00000270: bd13 cdbd f69f 5b3e 7556 d9bd 2c85 3e3d
00000280: d916 f73d 2168 e83d 9ea1 72bd ee49 59bd
00000290: 2582 82bd c452 e23c 9084 20bd cfa6 12be
000002a0: ea31 b0bc cf88 48bd 6601 1ebe 822b ab3d
000002b0: 0d02 e9bd 8eb6 fdbd 0f7e c2bc 1207 a8be
000002c0: 2bfd 7ebd 2595 11be 65ee 593e c0f8 103e
000002d0: 6d9b 8c3c 6eb2 283e eb49 2fbd bd16 0a3e
000002e0: ff66 99bd b445 613e 2221 98bc 2477 a3bd
000002f0: 58c3 86bd 37e3 6cbb 42ff 10be 026b 443e
00000300: 45f6 993c 92d0 41be ab84 a73d edbc 3c3e
00000310: 0d4d 9bbd 144d 07be 3f3a 373e af30 05be
00000320: 9932 cdbd 9e2b cf3d 58cb b9bd d318 0dbd
00000330: aa86 b63d 6162 7bbd 1bfe fdbc 44f7 27bd
00000340: c772 2dbe 5829 45be 99b6 0dbe 91a3 473e
00000350: 4397 9d3d d0ca 253e d097 26bc 0cb8 c9bd
00000360: 0832 9c3d 12bf 3cbe 4488 99be 3d0d 003d
00000370: 06cb db3c e948 9fbd dd78 f8bd 6614 e13d
00000380: 0884 02be 2ec8 81be 259a 793e 4c5b a6be
00000390: ff57 283e 0df0 02be cf2e 04bc cd30 c43d
000003a0: a754 71bd 7c6e 503e b4d1 7ebe 3847 633d
000003b0: 9234 3b3e d3fc 6dbd 8818 f4bc cf90 893e
000003c0: 2c8e dabd c91e e33d 8186 843d e4c6 47bd
000003d0: 4571 85bd 7fc4 4a3e 056c 423e 1fc2 3cbd
000003e0: a68c fc3d ce2e 973e 4054 253d 3d8e 6f3c
000003f0: b170 943e c350 1f3e 2007 313d 7db9 223d

weight f4 [192]
0.4305273 0.57692003 0.5385205 0.38707367 0.5151549 0.5333586 0.4064629 0.34744096
0.7147582 0.42912257 0.5520003 0.34353969 0.46288547 0.44219276 0.5771152 0.46676213
0.40718326 0.50280607 0.71777314 0.3732074 0.5421576 0.5084671 0.39041606 1.1359699
0.42601624 0.5091609 0.46168464 0.4423738 0.53893965 0.41791242 0.8172 0.59711576
0.43558756 0.6029312 0.39419645 0.59330916 0.43310836 0.46732512 0.59650797 0.57563245
0.5594449 0.6315494 0.59349686 0.56722265 0.7378426 0.34864202 0.7311282 0.41522262
0.45690304 0.6840242 0.33237916 0.6171826 1.417192 0.70143634 0.5504721 0.34423304
0.508992 0.65854144 0.43851563 0.2959836 0.46230373 0.42826533 0.55101615 0.45747238
0.38077837 0.40428987 0.47668993 0.45584777 0.36126006 0.5991682 0.43094653 0.4179863
0.54111844 0.5336733 0.406745 0.64424115 0.589165 0.47379798 0.3491006 0.45771173
0.46051738 0.6070716 0.4271354 0.51254046 0.49206457 0.3280314 0.5858249 0.4932537
0.46956536 0.42456582 0.3664964 0.45505586 0.6714229 0.38413778 0.40189368 0.83389854
0.38222903 0.4027037 0.39121094 0.5832277 0.58829445 0.5467904 0.5224568 0.9329463
0.7148337 0.923773 0.65066993 0.50346726 0.8623416 0.58677524 0.4465114 0.43973297
0.44248506 0.45181516 0.6346489 0.49098328 0.39948145 0.4603945 0.4864974 0.4799976
0.40469328 0.48366815 0.46155608 0.3983808 0.54031277 0.44546598 0.5425581 0.6118842
0.6562163 0.9804565 0.5131481 0.4268844 0.7557196 0.46676892 0.62276715 0.4610289
0.3618745 0.4326733 0.43889925 0.47666922 0.368512 0.610345 0.62619823 0.4234338
0.58203274 0.3795384 0.50852513 0.3870242 1.2934906 0.35422146 0.8103321 0.48137844
0.5431226 0.8793054 0.40331605 0.5787261 0.562734 0.47722444 0.36379287 0.54897094
0.36235544 0.7399318 0.40229294 0.36485282 0.4483751 0.5454515 0.48543322 0.46191072
0.8975369 0.44574523 0.41967914 0.57748914 0.91805893 0.4901498 0.575141 0.2811264
0.5726191 0.48496634 0.42503297 0.42756948 0.730647 0.5802807 0.5429311 0.41024813
0.43113318 0.53525454 0.5567961 0.5494723 1.1336831 0.45853496 0.7187616 0.4915442
00000000: 136e dc3e 08b1 133f 7bdc 093f 852e c63e
00000010: 31e1 033f 308a 083f e81b d03e c8e3 b13e
00000020: 65fa 363f f4b5 db3e e44f 0d3f 6fe4 af3e
00000030: 53ff ec3e 1767 e23e d2bd 133f 72fb ee3e
00000040: 537a d03e e6b7 003f fbbf 373f 0a15 bf3e
00000050: d7ca 0a3f e62a 023f 9de4 c73e 7667 913f
00000060: cd1e da3e 5e58 023f ee61 ec3e d27e e23e
00000070: f3f7 093f 9ef8 d53e 0534 513f 94dc 183f
00000080: 5505 df3e b359 1a3f 1ed4 c93e 1ce3 173f
00000090: 61c0 dd3e 3d45 ef3e bfb4 183f a65c 133f
000000a0: c837 0f3f 39ad 213f 69ef 173f 8135 113f
000000b0: 41e3 3c3f 3581 b23e 382b 3b3f 0f98 d43e
000000c0: 32ef e93e 361c 2f3f 9a2d aa3e aeff 1d3f
000000d0: 8c66 b53f 5591 333f bdeb 0c3f 503f b03e
000000e0: 4d4d 023f 2c96 283f 1f85 e03e 2a8b 973e
000000f0: 13b3 ec3e 9845 db3e 650f 0d3f d239 ea3e
00000100: 62f5 c23e 15ff ce3e b410 f43e e164 e93e
00000110: 14f7 b83e 1663 193f 06a5 dc3e 4d02 d63e
00000120: bd86 0a3f d09e 083f e140 d03e fdec 243f
00000130: 84d3 163f a695 f23e 50bd b23e 3159 ea3e
00000140: efc8 eb3e 0b69 1b3f 7eb1 da3e da35 033f
00000150: e3ef fb3e bbf3 a73e 9ff8 153f c08b fc3e
00000160: df6a f03e b160 d93e 6ba5 bb3e 15fd e83e
00000170: 5fe2 2b3f b5ad c43e 02c5 cd3e 607a 553f
00000180: 86b3 c33e 2e2f ce3e cd4c c83e 694e 153f
00000190: 779a 163f 75fa 0b3f bbbf 053f 92d5 6e3f
000001a0: 57ff 363f 637c 6c3f 4e92 263f 3be3 003f
000001b0: 6bc2 5c3f e736 163f 249d e43e ae24 e13e
000001c0: 678d e23e 5154 e73e 5a78 223f 2962 fb3e
000001d0: d588 cc3e d4b8 eb3e 3016 f93e 3fc2 f53e
000001e0: f533 cf3e 5aa3 f73e 1451 ec3e 91f8 cb3e
000001f0: f051 0a3f 1e14 e43e 16e5 0a3f 71a4 1c3f
00000200: cbfd 273f 32ff 7a3f ad5d 033f 9890 da3e
00000210: d776 413f 56fc ee3e ab6d 1f3f fb0b ec3e
00000220: 9d47 b93e 5b87 dd3e 67b7 e03e fd0d f43e
00000230: 9bad bc3e 923f 1c3f 874e 203f 51cc d83e
00000240: 1900 153f db52 c23e b42e 023f 0928 c63e
00000250: 1a91 a53f 845c b53e ed71 4f3f 3c77 f63e
00000260: 150a 0b3f 291a 613f 717f ce3e 6527 143f
00000270: 560f 103f c356 f43e 0f43 ba3e 5c89 0c3f
00000280: a786 b93e 2c6c 3d3f 57f9 cd3e fdcd ba3e
00000290: 6c91 e53e b6a2 0b3f b48a f83e 907f ec3e
000002a0: fac4 653f b838 e43e 2fe0 d63e 54d6 133f
000002b0: e905 6b3f eaf4 fa3e 713c 133f cdef 8f3e
000002c0: 2a97 123f 824d f83e ec9d d93e 63ea da3e
000002d0: af0b 3b3f 478d 143f 88fd 0a3f 0b0c d23e
000002e0: 7dbd dc3e 7106 093f 308a 0e3f 37aa 0c3f
000002f0: 871c 913f 18c5 ea3e c300 383f aeab fb3e

bias f4 [192]
0.037186127 0.82228816 0.048038688 0.20753446 0.0557777 0.28461114 0.04660034 0.049136814
0.25602722 0.38274154 -0.15080255 -0.2104174 0.15326256 -0.3216595 -0.09925904 -0.003229517
-0.062719174 0.11873194 -0.04971907 0.20034021 -0.051462453 0.12122947 -0.3138761 0.10216909
0.10370803 -0.10943489 -0.36964405 -0.019482354 0.08904588 0.23761046 -0.030867273 -0.023014495
-0.02881522 0.030053627 0.25259632 0.07112497 -0.10166643 0.03978227 0.1820039 0.32350525
0.049191326 0.17101547 0.18496856 0.12324173 0.06781626 0.10125497 0.28214496 -0.105848044
-0.030881638 0.1791362 0.19914034 0.055295438 0.14443597 0.018090252 0.10865509 0.29086217
-0.1700178 0.11289726 0.28283745 -0.248598 0.43271098 0.05639656 -0.13261718 0.5363198
-0.1759281 0.1386231 0.18049811 0.27918312 0.08677611 0.39058888 0.17067087 0.019283835
-0.06429536 -0.116092145 -0.043815356 -0.05458038 -0.0200781 -0.011532894 0.12833023 0.05003199
0.0711206 0.13772339 0.10147405 0.2955912 -0.020986205 0.24651481 0.010504216 0.28177348
-0.07867727 0.0066984273 0.093807496 -0.09631196 -0.013626809 -0.15202145 0.013074017 -0.05424285
-0.09217144 -0.117883585 0.14405583 0.16793373 0.2137458 0.028747322 -0.06459295 0.12798668
-0.17406335 0.3553528 0.22010927 0.1667936 0.18312018 0.21571489 -0.105414525 -0.18664563
0.13348716 0.04151582 -0.1134151 0.22581172 0.10319888 0.045193303 -0.26376653 -0.14302562
-0.581791 0.03175591 0.19573423 -0.020693451 -0.18288428 0.06720887 0.25037917 0.1909617
0.14080176 0.096241616 0.13183819 0.011663338 0.14673577 0.3240831 -0.152501 0.23712826
-0.16154006 0.04088396 -0.17628467 0.15855975 0.32757658 0.27278528 0.03942545 0.074978754
0.06332242 -0.07015762 0.118265614 0.042553864 0.16985245 -0.046347164 -0.5189973 0.027106646
-0.0579327 0.18783055 0.33999985 -0.063955426 0.00897889 -0.19260816 0.08979398 0.18626085
-0.08777186 0.14233768 0.13593395 0.14299898 -0.27531067 0.08894935 -0.09778154 0.018552784
0.014368663 -0.09528292 0.45278394 0.25487602 0.17923838 0.08799958 -0.12269135 0.25026137
0.29749158 0.14602065 0.09218987 0.39918396 0.2328018 0.029439382 0.24243537 0.117752455
-0.05641534 -0.038324255 0.22916499 0.08219176 0.26130283 0.045948587 -0.17585441 0.023047613
00000000: 7b50 183d 7a81 523f 37c4 443d ea83 543e
00000010: 2877 643d 8db8 913e 00e0 3e3d af43 493d
00000020: 0016 833e b3f6 c33e fc6b 1abe a977 57be
00000030: dcf0 1c3e 8eb0 a4be 5348 cbbd 4ea6 53bb
00000040: e972 80bd bb29 f33d 39a6 4bbd fc25 4d3e
00000050: 4bca 52bd 2847 f83d 5eb4 a0be 073e d13d
00000060: e064 d43d 661f e0bd fc41 bdbe 7599 9fbc
00000070: b05d b63d 2850 733e 5ddd fcbc e588 bcbc
00000080: e50d ecbc 0633 f63c 4e54 813e f8a9 913d
00000090: 7d36 d0bd bcf2 223d 3b5f 3a3e 7ba2 a53e
000000a0: d87c 493d ae1e 2f3e 6668 3d3e 2966 fc3d
000000b0: 40e3 8a3d c45e cf3d 4e75 903e dcc6 d8bd
000000c0: 7dfb fcbc 7b6f 373e 72eb 4b3e 787d 623d
000000d0: 06e7 133e 0232 943c 8f86 de3d e3eb 943e
000000e0: 2519 2ebe ae36 e73d 12d0 903e 7990 7ebe
000000f0: 4b8c dd3e 1400 673d cccc 07be 414c 093f
00000100: 7f26 34be 37f3 0d3e 7fd4 383e 17f1 8e3e
00000110: acb7 b13d 44fb c73e 58c4 2e3e 22f9 9d3c
00000120: 49ad 83bd b8c1 edbd bb77 33bd ad8f 5fbd
00000130: d47a a4bc 77f4 3cbc 0069 033e 58ee 4c3d
00000140: ada7 913d 5c07 0d3e a0d1 cf3d bb57 973e
00000150: 43eb abbc 616e 7c3e e019 2c3c 9d44 903e
00000160: 8c21 a1bd 7b7e db3b 251e c03d 343f c5bd
00000170: fb42 5fbc 83ab 1bbe 6734 563c c02d 5ebd
00000180: 61c4 bcbd f36c f1bd 5f83 133e d2f6 2b3e
00000190: 2ee0 5a3e 817f eb3c 4f49 84bd f10e 033e
000001a0: aa3d 32be cdf0 b53e 5364 613e f1cb 2a3e
000001b0: db83 3b3e 5de4 5c3e 92e3 d7bd 0820 3fbe
000001c0: dcb0 083e 7e0c 2a3d 2d46 e8bd 303b 673e
000001d0: ef59 d33d 9d1c 393d 680c 87be 4f75 12be
000001e0: 41f0 14bf 7c12 023d 8e6e 483e 5085 a9bc
000001f0: 0446 3bbe cea4 893d b331 803e 778b 433e
00000200: 562e 103e 531a c53d 9700 073e 9617 3f3c
00000210: e741 163e 38ee a53e 3929 1cbe c0d1 723e
00000220: c26a 25be f075 273d f883 34be 7d5d 223e
00000230: 1eb8 a73e 83aa 8b3e 957c 213d 768e 993d
00000240: 2faf 813d ccae 8fbd 3e35 f23d f64c 2e3d
00000250: cded 2d3e 86d6 3dbd 02dd 04bf c20e de3c
00000260: d74a 6dbd a756 403e 7614 ae3e 10fb 82bd
00000270: 321c 133c 133b 45be e8e5 b73d 2abb 3e3e
00000280: bcc1 b3bd f8c0 113e 4532 0b3e 536e 123e
00000290: 85f5 8cbe 142b b63d b041 c8bd 02fc 973c
000002a0: 8a6a 6b3c b123 c3bd 4cd3 e73e 1c7f 823e
000002b0: 448a 373e 2039 b43d 9a45 fbbd 4222 803e
000002c0: d150 983e 7086 153e 0bce bc3d d761 cc3e
000002d0: 9863 6e3e dc2a f13c fa40 783e 3328 f13d
000002e0: c613 67bd e5f9 1cbd 3aaa 6a3e 2754 a83d
000002f0: 7cc9 853e 9634 3c3d 2e13 34be 59ce bc3c
