models/nn_to_lev_cat0_epoch16.pt (torch, 334421 bytes, 43 tensors)

weight f4 [224, 10]
00000000: c225 85b6 00ce 44b8 20bd 9cb8 b70d 1239
00000010: a36d f438 490a 8a38 d8e9 e338 7496 d238
00000020: 3e57 9438 82ce 9838 a190 d637 140e d837
00000030: 071a d637 1907 8138 b811 4238 8e43 1338
00000040: 3e38 5cb7 2c37 d7b6 89ad 87b6 b05d 2c37
00000050: e639 9138 ab58 b338 e224 cd38 cba9 2237
00000060: 6d63 0337 455b a337 7ddf b337 f90d 9837
00000070: 4230 9f37 43c3 8fb8 c441 943e bf23 17bf
00000080: 1fd0 963e 727a 1a3d d531 38be c90f 0e3e
00000090: eccf 1dbe ae9e b83e dbc9 4abe d77a 673b
000000a0: 935a 5f38 118a 1339 99ff 5239 7d8e 0db9
000000b0: 765c 68b7 de34 9338 4c47 adb8 6ec4 aab8
000000c0: 8cb4 47b8 7536 86b9 85ea 39be 4bd3 65be
000000d0: d950 a8be a960 d03e 4304 c23d 3a14 3ebd
000000e0: 239f 413e a3d1 b03d 678d 423e 89f4 85bd
000000f0: ed2c 9c3d 0589 77be f843 433e 45d2 02be
00000100: ebd6 2d3e 440e 2fbd b953 323f aaeb 36be
00000110: aacf 13bf bfa9 c9ba 1eed 97b7 3a9b 52b8
00000120: 5809 84b8 a5a9 0d39 fdcf da38 30bf a538
00000130: 96cb f738 f28a f638 700d e038 046e 2937
00000140: 4524 acbd 3714 85be 8b13 aa3e 6ec5 5cbe
00000150: bed4 8d3e 654d 22bd 4dbc 083f 534a 90be
00000160: 94c2 b1be ff9e f33c b6aa 03b9 34ef e3b8
00000170: 8df0 acb8 d4ef a238 4313 c138 3a89 9838
00000180: 1414 78b9 d9d0 29b9 77bd ffb8 2a05 b138
00000190: 9c7b 1cb9 aa87 27b9 fe7a 30b9 e30d ebb7
000001a0: 1d2f 3a37 1920 0538 7dd1 deb8 ae2c b5b8
000001b0: 99cd 79b8 e310 c2b7 a58c 973e d37f 513e
000001c0: 6760 643e 34ff cebd 18b9 02be bea4 08be
000001d0: 079d 66be 432f 58be a786 63be d67e dbbd
000001e0: c75a 5239 0fe0 6239 fb85 6539 f47b 0fb9
000001f0: a76e 8cb8 a433 19b7 b372 4939 c413 1239
00000200: bdae d738 08f3 e3b7 d841 5a3e 02ef 043e
00000210: 5f74 8cbe fa35 823e 7e62 d0bd 2e1a 52be
00000220: 2f34 b9be 70fd 5abe c828 f23e 9252 05bd
00000230: 9b0e a6b8 78d9 a8b8 1be1 a2b8 8fc2 9cb8
00000240: aa47 8db8 5a2e 70b8 3783 7738 96b8 0338
00000250: 6668 cf37 e306 dab6 9775 b937 dfc3 5536
00000260: 3cff a7b7 f931 b837 54b3 af37 4fe6 5537
00000270: bdd3 a637 93ca b837 42cf b137 17d6 8eb7
00000280: 7128 c63e cb34 8c3d 4d67 6fbc aceb 8ebe
00000290: 1008 0b3e ad72 f73d 7660 083e 8f50 ab3e
000002a0: 48f6 a43e f6d0 6ebe 93d9 01b7 a6f1 27b7
000002b0: f4bd 85b7 6f50 78b8 0573 19b8 870b c2b6
000002c0: 3623 1ab7 1847 f4b6 20a6 e8b6 dfdc ad37
000002d0: 7c7a de3d eb62 e03d e2c2 013e 80d6 a8be
000002e0: a011 f23d 384c 973e 17b9 d33c 983a cdbc
000002f0: 1485 febd a696 42bd e6cf edb7 38c3 06b8
00000300: 531a 12b8 b180 a6b8 56cd 6eb8 606c 05b8
00000310: c457 0bb8 31f8 cbb7 81fe 9cb7 ff96 9437
00000320: b616 d1bc 179f c23b bae8 1e3e 195b 9f3d
00000330: bbc7 3c3d c6b8 163c cbf3 58be 38d5 f6be
00000340: 0dbe 24bf 88ea fb3d 70f7 733e 9bc9 573e
00000350: 5a34 e3be 3e46 56be 42f1 08be fa48 b13e
00000360: c4a4 2cbe 7af1 94be df95 003f c82c 563d
00000370: 385f 3b39 5135 0f39 7311 d038 1164 7c38
00000380: b074 5db6 d786 1fb8 54aa 4939 0306 0a39
00000390: 1436 d038 e5fb 3fb9 99cd 7ab7 d50d 7b37
000003a0: fbdc 1338 31d7 7638 f666 8138 7720 9738
000003b0: bbfb 8bb6 4ba1 c835 fb66 5936 2e86 9ab7
000003c0: 56af 9fb7 e511 4fb8 3537 49b8 5044 81b8
000003d0: e7d5 0fb8 357d 82b7 8a4e a4b7 9cd7 59b7
000003e0: e5e4 acb6 bc69 3d38 200c 0337 f96e 0136
000003f0: b16b 92b6 332a 0eb6 9514 8736 b0cc 4d36
-3.9681045e-06 -4.6921894e-05 -7.473887e-05 0.00013928754 0.00011655248 6.5822685e-05 0.0001086776 0.000100416044
7.07344e-05 7.28639e-05 2.5578136e-05 2.5755762e-05 2.5522908e-05 6.1525214e-05 4.6269706e-05 3.5110446e-05
-1.3126117e-05 -6.413922e-06 -4.0435157e-06 1.0273812e-05 6.924923e-05 8.551901e-05 9.782032e-05 9.6954855e-06
7.831358e-06 1.9473615e-05 2.1442533e-05 1.8126319e-05 1.8976749e-05 -6.855142e-05 0.28956425 -0.5903892
0.2945566 0.03771443 -0.1798776 0.13873209 -0.15411347 0.36058563 -0.19803564 0.003532102
5.3251697e-05 0.00014070446 0.00020122378 -0.00013499889 -1.3849805e-05 7.0193535e-05 -8.262563e-05 -8.1428196e-05
-4.7613445e-05 -0.00025599045 -0.18155868 -0.22443883 -0.32874182 0.40698746 0.09473469 -0.04640601
0.18908362 0.08633735 0.18999253 -0.06540782 0.076257564 -0.24173363 0.19068897 -0.12775524
0.16976516 -0.042738214 0.69659 -0.17863336 -0.57738745 -0.0015385671 -1.8111019e-05 -5.0212468e-05
-6.295991e-05 0.00013510005 0.00010433791 7.9034246e-05 0.00011815799 0.00011756075 0.00010683655 1.00988e-05
-0.08405355 -0.25991985 0.33218035 -0.21559688 0.27701372 -0.03962459 0.53412324 -0.28181705
-0.34718764 0.029738901 -0.00012556728 -0.000108687585 -8.246405e-05 7.7694334e-05 9.206545e-05 7.273485e-05
-0.00023658603 -0.00016194898 -0.00012194638 8.4409796e-05 -0.00014923367 -0.000159769 -0.00016830486 -2.802065e-05
1.1097433e-05 3.1739564e-05 -0.00010624805 -8.639075e-05 -5.9557704e-05 -2.3134466e-05 0.2959949 0.20458917
0.223024 -0.1010727 -0.1276592 -0.13344094 -0.22520839 -0.21111779 -0.22219335 -0.107175514
0.00020060978 0.00021636508 0.00021889053 -0.00013683719 -6.696331e-05 -9.131534e-06 0.00019211583 0.00013931008
0.000102845464 -2.7173679e-05 0.2131418 0.12981799 -0.27432534 0.25431806 -0.10175036 -0.205178
-0.36172625 -0.21385741 0.4729674 -0.03254945 -7.918217e-05 -8.051371e-05 -7.766691e-05 -7.474899e-05
-6.7367524e-05 -5.7263627e-05 5.9011592e-05 3.1404743e-05 2.4724937e-05 -6.497708e-06 2.2108476e-05 3.1853485e-06
-2.0026804e-05 2.195778e-05 2.0945132e-05 1.2749412e-05 1.988734e-05 2.202884e-05 2.1196556e-05 -1.7027412e-05
0.3870273 0.06846007 -0.014612031 -0.27914178 0.13577294 0.120824195 0.13318047 0.334599
0.32219148 -0.233219 -7.739657e-06 -1.0010239e-05 -1.594329e-05 -5.9202717e-05 -3.6585163e-05 -5.7829925e-06
-9.1873135e-06 -7.280043e-06 -6.9334783e-06 2.0726058e-05 0.10863206 0.10956367 0.12671998 -0.3297615
0.11819768 0.29550338 0.025845094 -0.025052354 -0.124277264 -0.04750695 -2.8349412e-05 -3.21299e-05
-3.483363e-05 -7.9394675e-05 -5.6934856e-05 -3.1810603e-05 -3.322192e-05 -2.4315059e-05 -1.8715162e-05 1.7713288e-05
-0.025523525 0.005939375 0.15518466 0.077810474 0.046088915 0.009199327 -0.2118675 -0.48209548
-0.64352494 0.12300593 0.23824859 0.21073 -0.4437588 -0.20925233 -0.13373283 0.3462599
-0.16859728 -0.29090482 0.50228685 0.0522888 0.00017869181 0.00013657405 9.921463e-05 6.0174676e-05
-3.2999487e-06 -3.8034133e-05 0.00019232306 0.00013162945 9.928286e-05 -0.00018309017 -1.4949031e-05 1.4963986e-05
3.5253335e-05 5.8851383e-05 6.170377e-05 7.206288e-05 -4.171828e-06 1.4948104e-06 3.2395462e-06 -1.8420713e-05
-1.9035924e-05 -4.936931e-05 -4.797355e-05 -6.1639235e-05 -3.429307e-05 -1.5555512e-05 -1.9586896e-05 -1.2984408e-05
-5.1526463e-06 4.5159584e-05 7.8110315e-06 1.9287093e-06 -4.363676e-06 -2.1184212e-06 4.0257096e-06 3.0666524e-06

bias f4 [224]
00000000: 5e4a 4eb4 4894 93b1 ef3c 53b3 ab7c 323e
00000010: 1955 9fb4 53f1 093e afcb 7f3e 261b d1b3
00000020: 2233 633e e00d ecb4 79e7 3fb4 e21a e73c
00000030: 27c2 cdb4 8b7d 37bf 7b7c 11b3 65b1 b0b2
00000040: 25c2 95be 630b a3b2 84da 18bf 470c 39b2
00000050: d53d 98be af0d 113e a984 9eb2 0f47 81b3
00000060: 9442 00b4 bbba a5b1 ebce a6b1 b2c1 f0b3
00000070: 37da 1db4 ab6b dab3 dc09 af3d 3c21 9db3
00000080: e060 3db3 f306 4ebe c1fb dfb2 4162 81be
00000090: f9de 18bf aef2 19b2 0b54 8ab1 43c1 47bf
000000a0: 2739 4ab5 9e76 0abf 9980 5534 cdf2 66b4
000000b0: f3a4 5bb3 8063 3ab4 34c4 153d dbd6 6db1
000000c0: c9b8 35bf 23a0 a0b4 e57f eab2 49f1 39bd
000000d0: 7649 f8b2 9f9c 1bbf b2c8 8cb2 2436 66b3
000000e0: 4555 bcb1 498b 77b4 0b43 d8b1 5b0e d2be
000000f0: 092c 3abf 67e6 18b4 4d8c 90b3 3555 83b4
00000100: 918e 90b2 b3db afbe 0eb0 71b0 0198 a6b3
00000110: eaa3 a4b2 b0b1 80b4 7b72 2db2 9057 14b3
00000120: 6dee 72b5 a2de 34b3 5c15 c9b3 b29a a3be
00000130: a5dd 14bf 7b5c 12b4 2c82 9cbe 3b62 efbd
00000140: 5b67 17bf f4fe e4b4 ef85 3eb4 0349 fc31
00000150: 38c7 d4b2 6081 92be b104 31b4 f684 e335
00000160: ef89 f731 612e d2b2 cd7c 07b2 17fc 0fbf
00000170: b8df 1ab2 8de6 a2be 6fc0 02b3 8f3b 32bf
00000180: c764 c5b4 eded 07bf 46bf aabd 2dd6 0bb1
00000190: 26de 96b3 a320 1bb2 54ed 4bbe 782d 923d
000001a0: cecd 90b2 35db c4b0 ce98 97be d773 58b3
000001b0: b631 15bf e906 25bf f462 6eb4 68ef e434
000001c0: f243 dbb3 b283 b63e e918 3db4 1124 e93d
000001d0: bd8c 8db1 2b79 89b5 aa5b 80b1 232f 2f3e
000001e0: 3905 49b2 a22a 88bf b58f 953e f6fb ba31
000001f0: 7609 57b6 4f16 cdb4 cd5e 76b4 0aa2 8ab2
00000200: 1f48 aebe 460c 10b4 a75b ef3e 8209 06b4
00000210: bdd7 43bf fa46 36bf ed24 01bf 9fff 92bd
00000220: 3f0a 33bf 2f71 31be e139 423e d33d d4b5
00000230: de9b d8b3 e59c 8fb3 9e8b a9b2 523a 55bf
00000240: 3367 45b3 4333 96b3 bb1b 3e35 cdbc 8ab2
00000250: 5b5d 5db3 f6e3 32bf 492f 8dbe 1974 feb3
00000260: dd19 e7be 584f 4dbf 3d89 74bf 5f18 e7b5
00000270: e134 a033 7bc2 09b4 53e2 ebb1 3e39 bdb1
00000280: 3828 35bf 517e 60be 7992 d8be 9a92 42b1
00000290: 15c6 99bd 7007 c23e 943b adbe 9f62 463e
000002a0: 0a35 50be 56da b0be 0ab6 bfbe 9eea edbc
000002b0: bc9b d73e 615f 23b4 9494 2abf 9d70 3bbe
000002c0: f366 bab1 de6a 7db2 0a7e 00bd a14c 88bd
000002d0: 5e75 2ebf 0611 37bf 0771 bbb4 5ef4 24bc
000002e0: d745 85b2 453d 3433 7f16 8abe 28ab e1b2
000002f0: 1212 cc33 fa75 cbb4 842b c1b0 982d d2be
00000300: 0e8c c7b3 a6f2 c4b4 323a 1e3e 5895 9fbd
00000310: 1493 2abf 1433 2eb4 88a9 2bb3 8739 a1b3
00000320: 0447 f8b4 566d 22b3 aaf7 ae34 15f3 fdb3
00000330: 2765 40b3 9d4a 2cbf 6fb0 c83e d440 65b5
00000340: 353f 2c3e cd8e b9b5 f895 b3bd d0fe 5ab2
00000350: d08b 3bb2 15f7 213e 5117 a5b2 8ebc bebe
00000360: 2763 28b3 801c 3cb3 63c4 5e32 3935 25bf
00000370: 34bc 68b3 330f 44b4 261d bab3 fbb5 7634
-1.92123e-07 -4.2951207e-09 -4.9182685e-08 0.1743037 -2.9677975e-07 0.13470964 0.24980043 -9.737259e-08
0.22187474 -4.396852e-07 -1.787247e-07 0.02821106 -3.832549e-07 -0.7167594 -3.3873658e-08 -2.0569766e-08
-0.29249683 -1.8980876e-08 -0.5970843 -1.0771209e-08 -0.29734674 0.14165376 -1.8453948e-08 -6.019956e-08
-1.194515e-07 -4.823361e-09 -4.8547597e-09 -1.1211104e-07 -1.470115e-07 -1.0171001e-07 0.085468024 -7.3169275e-08
-4.40931e-08 -0.20119838 -2.6075101e-08 -0.25270274 -0.5971523 -8.960951e-09 -4.025883e-09 -0.7802927
-7.533403e-07 -0.54087245 1.9883954e-07 -2.150875e-07 -5.113993e-08 -1.7358798e-07 0.036564067 -3.461017e-09
-0.70985085 -2.9918837e-07 -2.7299345e-08 -0.045396123 -2.8904406e-08 -0.6078586 -1.638941e-08 -5.360029e-08
-5.481214e-09 -2.3054339e-07 -6.2940493e-09 -0.41026577 -0.7272344 -1.4239923e-07 -6.731043e-08 -2.4462648e-07
-1.6828638e-08 -0.34347305 -8.792548e-10 -7.757627e-08 -1.9166652e-08 -2.3971143e-07 -1.0095955e-08 -3.4538573e-08
-9.049898e-07 -4.2112e-08 -9.363677e-08 -0.3195396 -0.581507 -1.3630954e-07 -0.30568063 -0.11688658
-0.5914208 -4.2653812e-07 -1.7743854e-07 7.3424657e-09 -2.4770642e-08 -0.2861433 -1.6486116e-07 1.6951515e-06
7.2043274e-09 -2.4468308e-08 -7.886411e-09 -0.56244034 -9.0148475e-09 -0.3181652 -3.0443e-08 -0.6962213
-3.6767435e-07 -0.5309742 -0.08337264 -2.0348907e-09 -7.025328e-08 -9.029608e-09 -0.19914752 0.07137579
-1.6857395e-08 -1.4323179e-09 -0.29608768 -5.0396775e-08 -0.5827898 -0.6446367 -2.2201476e-07 4.26425e-07
-1.02103414e-07 0.3564735 -1.7611059e-07 0.11383832 -4.11964e-09 -1.024256e-06 -3.7357113e-09 0.17107825
-1.1700927e-08 -1.063801 0.29211202 5.441957e-09 -3.2043004e-06 -3.8200457e-07 -2.2945024e-07 -1.6139001e-08
-0.340394 -1.341551e-07 0.46749613 -1.2483181e-07 -0.76501065 -0.7120205 -0.5044697 -0.07177662
-0.6993751 -0.17328332 0.18967392 -1.5813224e-06 -1.0086636e-07 -6.6874954e-08 -1.973768e-08 -0.83292115
-4.5961496e-08 -6.994244e-08 7.082087e-07 -1.6151171e-08 -5.154048e-08 -0.6987909 -0.27575138 -1.1848915e-07
-0.4513692 -0.80199194 -0.9552191 -1.7217934e-06 7.460199e-08 -1.2829871e-07 -6.8651302e-09 -5.5071316e-09
-0.70764494 -0.21923186 -0.4229925 -2.8314049e-09 -0.07508484 0.378963 -0.33834517 0.19373558
-0.20332733 -0.34541577 -0.37443572 -0.029042538 0.42111003 -1.5215257e-07 -0.6663296 -0.18304677
-5.4250164e-09 -1.4750837e-08 -0.0313702 -0.06655241 -0.6814784 -0.7151035 -3.4913703e-07 -0.010068027
-1.5514997e-08 4.196524e-08 -0.26970288 -2.627128e-08 9.502777e-08 -3.7897536e-07 -1.4054966e-09 -0.4105041
-9.2921354e-08 -3.6684395e-07 0.15451887 -0.07792157 -0.66630673 -1.6223595e-07 -3.9968228e-08 -7.507611e-08
-4.624527e-07 -3.7818005e-08 3.2590225e-07 -1.1825447e-07 -4.479548e-08 -0.6730135 0.39197108 -8.5403485e-07
0.16820987 -1.3825135e-06 -0.08768839 -1.2747208e-08 -1.0916622e-08 0.1581691 -1.9219131e-08 -0.3725323
-3.9205727e-08 -4.379808e-08 1.2966754e-08 -0.64534336 -5.418788e-08 -1.8259452e-07 -8.666602e-08 2.297674e-07

weight f4 [224]
00000000: 3406 be38 bf0c 2ab8 d80d 7bb8 d1b9 c43f
00000010: b653 c3b8 2322 0f3f 30c9 963f 2bc5 ab38
00000020: 5957 653f 90ab 5eb8 756e b2b8 2c53 123f
00000030: c9c0 c9b8 7e8d 013f e39c 9fb8 b980 86b7
00000040: 8b64 123f 824d b337 d7c0 ff3e 113a 4138
00000050: ff26 7b3f 9342 843f 4ffd fab8 1f9c 1638
00000060: e706 ebb7 6d69 95b6 affb 0236 dfd2 19b8
00000070: 7a80 ddb6 77f0 0038 ab2e ff3e 9f15 0339
00000080: 2329 d335 4b3a 173f 3235 9eb8 5236 443f
00000090: 469c 143f d2c8 9535 cfc5 b2b7 c46b 503f
000000a0: 376a d238 c649 c23e 5415 4eb9 edb7 0b38
000000b0: 40bd 98b7 2ee7 44b7 505f 2e3f 4483 95b5
000000c0: 5086 5c3f 23be 25b7 613f 26b7 2aba 273f
000000d0: 5f58 0db6 367c c43e 7e67 f2b6 f830 2f35
000000e0: 33ba 19b6 bceb 67b8 00a6 8a37 4553 833f
000000f0: dc38 133f 6232 35b8 c8c6 0d38 1ccf 01b8
00000100: 4fcf 42b6 ffdd 3b3f f0da a332 fe44 a0b7
00000110: 5772 8638 549d 81b8 51ce 51b7 0ec0 a1b7
00000120: 568e b238 58ec 58b7 634e f136 17bb 353f
00000130: 4e4c 293f bd16 5338 6424 143f 8a21 5a3f
00000140: a9aa 443f 340d d3b7 2796 8c38 5a4d a6b8
00000150: 54ac 89b8 fd1a b93e e018 b237 abbd a4b9
00000160: 0cf6 a2b8 0603 2238 cfc6 dc36 f91c d03e
00000170: 8a7e 5738 1dcc f83e 4e2d 9f36 3470 8f3f
00000180: 21b7 ff37 84e5 603f 2b76 383f 3423 a5b6
00000190: 4c59 1238 71f7 2137 5e91 f73e dc57 253f
000001a0: 65a0 b636 d4ae 6c36 accb 753f 7365 2cb8
000001b0: 19f2 f63e 0c86 323f 2da0 8638 085e 3d39
000001c0: 3306 9c38 629e d43f 45a1 f635 6447 8e3f
000001d0: 2330 13b6 1706 6db8 173d 3cb6 58c3 f93e
000001e0: 5572 b237 0f31 f23e c060 873f 1299 75b8
000001f0: bc95 2839 48b1 99b8 0c29 30b5 dc68 13b7
00000200: e45f 303f 42f4 5837 c3ef ae3f b95c 89b7
00000210: e816 0c3f 93c0 1f3f b927 ca3e bfb3 893f
00000220: 2d81 8d3f 5c6d 9b3e 7de8 903f fcc8 8839
00000230: a412 a237 c93f b3b6 df53 9337 c5a9 043f
00000240: a962 e236 2086 b737 fe85 7739 e6c6 d5b6
00000250: c0f3 a8b8 b253 d03e 6b73 1a3f b4c5 6d37
00000260: dbfc e03e 8cc3 e33e 428e ce3e efea 9539
00000270: f2aa 1639 c402 ef36 2117 03b7 2eb4 9d36
00000280: 114a 093f 979c bc3f 9b1b 353f f509 88b5
00000290: 044e 3f3f d40a 0a40 ea51 5e3f 4a59 f83e
000002a0: 6a0f d23e 9c59 0e3f a5bb 6c3f 8a9d ef3d
000002b0: d681 6e3f c168 adb7 cc42 023f 079d 0c3f
000002c0: 3954 a8b7 f912 0cb8 c836 3e3f 00b3 c63e
000002d0: 3cb4 c53e 4458 ec3e 86a8 67b8 10de 483d
000002e0: e445 5d38 ec7b 2b39 ffb4 6b3f 20d5 eab6
000002f0: dd20 fbb8 6ede ddb6 612b df36 5a86 583f
00000300: d80a 14b8 550e 72b8 4fe2 c63f 964e 5d3f
00000310: 282e 973f 22e9 47b7 8314 7d38 98aa 0cb6
00000320: 966e 1539 a056 1039 9ed9 2db9 bd94 ecb7
00000330: 6b1e 0439 4883 be3e a318 8f3f 4aaa abb7
00000340: 280e 7f3f 854f 1237 da46 3e3e d592 a737
00000350: b5c8 82b7 83a8 3c3f e8f8 4e38 6f28 0a3f
00000360: 3055 38b8 ceaf f8b7 ca69 a2b8 df68 063f
00000370: c093 8e38 9859 c8b7 54a3 8436 adac 6fb9
9.0610614e-05 -4.054303e-05 -5.9855956e-05 1.5369207 -9.313917e-05 0.55911463 1.1780148 8.190641e-05
0.89586407 -5.3088705e-05 -8.508276e-05 0.5715816 -9.620336e-05 0.50606525 -7.610933e-05 -1.6033986e-05
0.57184666 2.1374555e-05 0.49951813 4.6068864e-05 0.9810638 1.0332817 -0.00011968111 3.5908186e-05
-2.8017397e-05 -4.452819e-06 1.9518009e-06 -3.667443e-05 -6.60127e-06 3.074153e-05 0.49840292 0.00012501188
1.5732697e-06 0.59073323 -7.5439355e-05 0.76645386 0.58050954 1.1159811e-06 -2.1311365e-05 0.8141444
0.000100333644 0.3794691 -0.00019653636 3.3311477e-05 -1.8207938e-05 -1.1736336e-05 0.68114185 -1.1139568e-06
0.86142445 -9.879036e-06 -9.909128e-06 0.6551844 -2.1062076e-06 0.38376015 -7.22421e-06 6.526384e-07
-2.2907159e-06 -5.5294237e-05 1.6528182e-05 1.0259787 0.57508636 -4.3200685e-05 3.380215e-05 -3.0948882e-05
-2.9028922e-06 0.73385614 1.9075259e-08 -1.9105613e-05 6.4109154e-05 -6.180504e-05 -1.25054075e-05 -1.9282128e-05
8.5142136e-05 -1.2929631e-05 7.191485e-06 0.709886 0.66132057 5.0327497e-05 0.5786803 0.85207427
0.76822907 -2.5159308e-05 6.703688e-05 -7.929905e-05 -6.564768e-05 0.36153403 2.1230837e-05 -0.0003142183
-7.770592e-05 3.8626626e-05 6.5796553e-06 0.40647104 5.1377843e-05 0.48593226 4.7438434e-06 1.1206117
3.0483645e-05 0.87850213 0.7205531 -4.9214814e-06 3.4892277e-05 9.65396e-06 0.48353094 0.6458719
5.442695e-06 3.5268504e-06 0.96013904 -4.1102478e-05 0.4823158 0.6973579 6.419453e-05 0.00018059474
7.439814e-05 1.6610835 1.8375364e-06 1.1115537 -2.1932726e-06 -5.6510875e-05 -2.8049742e-06 0.48781848
2.1272494e-05 0.47303054 1.0576401 -5.855511e-05 0.00016077509 -7.32863e-05 -6.562484e-07 -8.786297e-06
0.6889632 1.2931474e-05 1.366692 -1.637485e-05 0.5472245 0.6240322 0.3948343 1.0757979
1.1055046 0.30356872 1.132095 0.00026089686 1.9320585e-05 -5.3420413e-06 1.7562821e-05 0.5182155
6.7468104e-06 2.1877757e-05 0.00023605672 -6.3710495e-06 -8.056266e-05 0.40688854 0.60332364 1.4172332e-05
0.43942913 0.44485128 0.4034291 0.00028594534 0.00014368797 7.123077e-06 -7.813594e-06 4.6999403e-06
0.5362864 1.4735287 0.7074525 -1.0135687e-06 0.7472842 2.156911 0.8684374 0.48505622
0.41027385 0.55605483 0.9247382 0.1169997 0.93166864 -2.0671987e-05 0.50883174 0.54927105
-2.006638e-05 -3.339627e-05 0.7430234 0.3880844 0.3861407 0.4616109 -5.523164e-05 0.0490399
5.2755597e-05 0.00016353995 0.92073053 -6.9985545e-06 -0.00011974734 -6.6122075e-06 6.650968e-06 0.84580004
-3.529605e-05 -5.7710644e-05 1.5537814 0.8644804 1.1810961 -1.1915605e-05 6.0339004e-05 -2.0960924e-06
0.00014250944 0.0001376518 -0.00016579634 -2.8202654e-05 0.00012599833 0.37209535 1.1179394 -2.0464086e-05
0.99630976 8.720793e-06 0.18581715 1.9976325e-05 -1.559067e-05 0.7369463 4.934604e-05 0.53967947
-4.3948356e-05 -2.964577e-05 -7.744467e-05 0.5250377 6.798608e-05 -2.3883578e-05 3.9529205e-06 -0.00022857143

bias f4 [224]
00000000: dd9b 5839 74ce 07b9 1a8c 00b9 060c 0c3c
00000010: 7eab 9539 8d0c 9dbe f883 603e 28fc 9d39
00000020: ee67 713e 53c6 a238 608a 2f39 17c7 f6bd
00000030: 3db4 21b9 b1a9 95be d27d af38 269c 65b9
00000040: 36ba 273e d494 80b8 886f 6c3e e938 29b9
00000050: c6af 99be a7a4 233e e235 d7b8 57b6 9738
00000060: 9a77 fb37 f31e 4e37 8ce7 9fb8 3b48 c3b9
00000070: 2607 6c39 1af0 9d38 80cd 173e b945 6039
00000080: 44a4 70b7 ee35 a03e cc6b c4b8 d012 673e
00000090: 8764 bf3e 8d38 93b8 dfcc d1b6 cb37 973e
000000a0: 6f6a d6b8 ede1 68be fa2f 7038 d055 95b8
000000b0: d2eb cdb8 27ae cc38 7bb8 9e3e 799a 7738
000000c0: 6923 b9bd c2ac b0b8 04fe a6b7 07bb 35be
000000d0: 072b f4b6 43be 10be 5369 3836 d150 3338
000000e0: f0ff bab6 28ba d639 a100 d9b8 9b4c ba3d
000000f0: 9004 e53c a4fe 82b9 1996 4139 59ea ce38
00000100: 32c6 abb8 88d7 933e 3b5b efb7 f644 0539
00000110: d47c 1cb9 0aa0 a5b9 f865 6836 d1d4 c7b8
00000120: be59 a139 c7ca 8fb8 97ce 5fb8 917d 793e
00000130: 98d1 fb3e d3eb a6b9 2ce5 32be d3fe 113f
00000140: 6a53 a2be 5c37 88b9 7df3 6ab9 5c16 1ab9
00000150: 0301 55b8 6728 aa3e 3b6f 6338 fe64 9838
00000160: 4f81 53b9 9927 04b8 639c a637 4f0a 13bf
00000170: b408 aeb8 2f26 033d 20c6 b3b8 3ef0 f13d
00000180: e3dd 8fb9 5efb 683e 89d4 84be 1976 61b7
00000190: f572 9639 5c4c dd37 a13e 7a3e eafa 903e
000001a0: f4b4 64b7 8a5c b137 b553 0f3e eb44 0a39
000001b0: 9b29 c1bd f88d b63d 83b2 cbb8 74ae b3b9
000001c0: 0c4e 81b9 29fb 313e a80b 2eb9 d5f9 153e
000001d0: 58bf 6db8 b2e3 3e38 9900 28b7 49ae 56be
000001e0: 2eda 9938 a59a 9a3d 3c6f b5be 1814 2939
000001f0: 4214 c039 3af3 d0b8 eb98 5439 8263 8738
00000200: ef83 ff3e cc93 2e38 ed95 f23c 95fc 45b8
00000210: 44c6 523e 2154 023f 9df3 d33e 9bdc 173c
00000220: 6f16 91bd dcc8 933e b1dc 9c3e cb4f c037
00000230: b721 8239 014e a3b8 9591 2336 2b82 7cbd
00000240: 9b2e bfb7 8b3d b1b7 c235 43b9 c6f4 c138
00000250: 0752 edb9 7ffb 0e3e 86ef bd3e faeb 0639
00000260: 5d6d 20bf 6870 74be 0538 503e ef3b 4ab8
00000270: a88c 7038 61e1 e8b9 ae31 4036 0fa7 4cb8
00000280: e810 623e cbcb be3d 3f1b 4b3e 9589 4538
00000290: b731 4ebe 8f21 653c 6f4d 033d 54cb b6be
000002a0: 5d5e 5c3f 21d7 2bbe 4937 27be 0227 17be
000002b0: e822 ff3c 0c89 ec39 f340 7e3e be3e 87be
000002c0: 0ab6 3cb8 74fe 14b9 68ce 90be e3e2 c6bd
000002d0: b635 933e ca91 223d d136 0c39 b741 ae3d
000002e0: 6d6d 6337 72fe 8eb8 5a06 1bbe 6392 8eb8
000002f0: 266c ceb8 0c7a 4fb9 0337 5a33 299c f93e
00000300: 8eb8 bcb9 c80d fdb9 0186 a33d 48f5 733e
00000310: 3c85 d23d 3363 20b9 d8e4 0f39 f0c4 3238
00000320: eb3b 47b8 1883 6339 28bb 40b9 83d8 2db9
00000330: 2bab 9539 fde0 ae3d aadc 58bd f091 b8b9
00000340: f5d7 223e 79bf 9139 59c3 023e aa9a b638
00000350: 8527 2637 28e3 29be 4536 b038 2bdb 033e
00000360: 87e6 87b8 c0e0 1db8 b2e7 7eb5 32b0 0abe
00000370: bc19 56b8 91d9 0539 598a 20b6 6209 b238
0.00020657429 -0.00012951513 -0.00012259223 0.0085477885 0.00028547266 -0.30673638 0.21925342 0.00030133245
0.23574802 7.761703e-05 0.00016740849 -0.12049692 -0.000154213 -0.29231027 8.368086e-05 -0.00021897312
0.16379628 -6.131237e-05 0.23089421 -0.00016138297 -0.30016917 0.15980779 -0.00010262035 7.2342045e-05
2.9977225e-05 1.2285763e-05 -7.62484e-05 -0.00037247114 0.00022509377 7.531066e-05 0.14824486 0.00021388278
-1.4343361e-05 0.31291145 -9.366087e-05 0.2256577 0.37381384 -7.0200396e-05 -6.2525355e-06 0.29534754
-0.0001022414 -0.22742434 5.726514e-05 -7.1208575e-05 -9.819087e-05 9.7599164e-05 0.31000122 5.9033253e-05
-0.09039957 -8.4245126e-05 -1.9907027e-05 -0.17747127 -7.2767757e-06 -0.14135079 2.7479443e-06 4.275219e-05
-5.573027e-06 0.00040955958 -0.000103474835 0.090966426 0.027956277 -0.00024985254 0.0001846183 9.866496e-05
-8.190832e-05 0.28875375 -2.8533503e-05 0.00012709558 -0.00014923821 -0.0003159049 3.4630048e-06 -9.5286996e-05
0.00030775176 -6.8565416e-05 -5.3359745e-05 0.24364306 0.49183345 -0.0003183769 -0.17470235 0.57029456
-0.31704265 -0.00025981187 -0.00022406685 -0.00014694914 -5.07841e-05 0.3323395 5.422461e-05 7.266736e-05
-0.000201707 -3.150813e-05 1.9861565e-05 -0.57437605 -8.2985876e-05 0.032018837 -8.572289e-05 0.11813401
-0.00027440404 0.22752139 -0.259434 -1.3438542e-05 0.0002869588 2.638081e-05 0.24437954 0.28316432
-1.363199e-05 2.1143136e-05 0.13996775 0.0001318638 -0.09431764 0.08913797 -9.713045e-05 -0.00034271518
-0.00024662947 0.17380966 -0.00016598275 0.14646085 -5.6683406e-05 4.5511588e-05 -1.00137195e-05 -0.20964922
7.336248e-05 0.07549027 -0.35436428 0.00016124581 0.00036636187 -9.9635174e-05 0.00020274862 6.4558364e-05
0.49905345 4.162248e-05 0.029612506 -4.7203695e-05 0.20583445 0.5090962 0.413968 0.009268905
-0.07084357 0.2886418 0.30637124 2.292534e-05 0.00024820652 -7.786975e-05 2.4373633e-06 -0.061647575
-2.2790677e-05 -2.1128702e-05 -0.00018616676 9.24855e-05 -0.00045265278 0.13963126 0.37096804 0.00012867144
-0.62666875 -0.23871005 0.2033387 -4.821637e-05 5.7351455e-05 -0.0004441841 2.8639147e-06 -4.8792976e-05
0.22076762 0.09316214 0.19834612 4.7096593e-05 -0.20136152 0.013985052 0.03205627 -0.35702002
0.86081487 -0.16781284 -0.16329683 -0.14760974 0.031144574 0.00045115536 0.24829464 -0.26415056
-4.499223e-05 -0.00014209171 -0.28282475 -0.09711244 0.28751916 0.039689817 0.00013371861 0.08508628
1.3555732e-05 -6.818482e-05 -0.15139142 -6.798354e-05 -9.84299e-05 -0.00019786524 5.0807113e-08 0.48751953
-0.00035995658 -0.00048266188 0.079845436 0.23824036 0.10279319 -0.00015295744 0.00013722794 4.262192e-05
-4.75011e-05 0.00021697243 -0.00018380268 -0.00016579223 0.00028547025 0.08539007 -0.052944817 -0.00035203947
0.15902694 0.00027799213 0.12769832 8.707245e-05 9.903572e-06 -0.1659056 8.4024425e-05 0.12876575
-6.480241e-05 -3.764103e-05 -9.4959535e-07 -0.13543776 -5.1045543e-05 0.00012764918 -2.3922387e-06 8.489449e-05

running_mean f4 [224]
00000000: 6c8a c0b5 bf61 f9b4 d83a 12b4 e6d9 d13d
00000010: 5388 9f33 81ed b83e fc22 3f3e 4348 c8b5
00000020: c9f2 1b3e 2fc6 39b5 35dc 34b4 e67e b93e
00000030: 10d1 6a35 b926 1bbe f7b5 2235 4620 9eb4
00000040: d9b2 a13d 1c8f ec34 f155 e4bd ab32 3d35
00000050: 43dc 9a3e 8ad0 d23d c87a e0b4 21a8 59b5
00000060: c7f8 fd34 fbc8 46b3 3178 fbb2 afc7 3ab5
00000070: be3d 9b33 c39b 8434 a467 8d3d 327b efb5
00000080: 84be f1b3 4378 9abd 9cbf adb5 691d b6bb
00000090: da58 b4bd e007 eeb0 9093 33b2 b349 21be
000000a0: aa36 e835 fa3c f9bd aac1 7535 41af 69b5
000000b0: 5a39 3234 f1c0 0335 bcd2 863d bbe3 81b2
000000c0: 94ee d3bd 40f4 cb33 e170 cab3 33b1 ce3e
000000d0: 18c1 2834 f3b0 fdbd ebc4 e633 ac0f ecb3
000000e0: 5398 a0b3 5993 9f35 dd68 6834 d0c4 03be
000000f0: ddb0 1cbe 7191 77b5 d09b e7b4 d28b 82b5
00000100: ff7c 08b4 fe65 48bd 1e54 6c31 5c0f feb4
00000110: 1cea 3935 ea17 a2b5 0c3c 7833 9d53 99b4
00000120: 2867 49b6 33ab 9ab4 9a58 f834 8043 9fbd
00000130: 57db b5bd 5c02 3e35 9ce4 22bd f435 763d
00000140: 88a7 be3d d104 38b5 d338 b035 2a32 bbb4
00000150: 757f 5ab5 d071 e3bc 014c e6b2 6c2e 5836
00000160: 2c03 4fb5 da7e 1e35 1b76 c933 466f 14be
00000170: 7313 3435 eb6c a0bd 199d 5534 2c29 1ebe
00000180: c690 dd34 b463 7bbd 396b 30bc 7ad5 c7b3
00000190: 4ce3 34b5 ae5c c1b3 46ec 553e 7699 4c3d
000001a0: 65fb c033 6006 1432 d710 adbd c2d7 d5b2
000001b0: 0c26 03be 9b6c 0dbe f662 a3b4 b203 0f36
000001c0: 3952 9335 a050 6e3e 8058 0734 7399 c83d
000001d0: 54f3 43b3 9c2d e7b4 275e 28b3 438f bb3e
000001e0: 356e 9bb4 e716 0cbe 449e f33e c5bd 5635
000001f0: e974 25b6 7d2e 3735 e405 01b5 a96d 8432
00000200: 6cc0 7bbd 7335 9734 3c0a a43e b82b 9fb4
00000210: 869a 23be 158b 05be bcf0 04be 8c72 cdbc
00000220: c66d 1dbe 9d65 313a e00e e93d ddf9 2936
00000230: 6084 e8b4 a90d dd34 b05d bcb4 a0ee 15be
00000240: 2c0c 1e34 8739 35b3 4fa2 ba35 fd52 4434
00000250: 88ab 87b5 6cb5 e2bd 0b31 4dbd b354 efb3
00000260: 0328 93bb 86ad 19be 869d 18be ba2f fe34
00000270: 80f6 13b5 b177 8634 a27d 1131 4dee bf31
00000280: 8101 05be 88dc 98bd 9cab ecbd 6b8f ce32
00000290: d5b3 9a3d 8399 7e3e 74c3 efbd 2a83 a53e
000002a0: 5d0a 5e3d 2d04 98bd dd56 c2bd 041b b53c
000002b0: 5a64 913e ce44 d434 73c4 53bd bc0c 533d
000002c0: 703c 7db4 844c 02b5 bd8d 9f3c 67cd a53d
000002d0: fcdb 20be 2b3b e2bd f461 8eb5 6b34 7a3b
000002e0: 58da 10b5 f66e 1736 b716 5ebd b238 1233
000002f0: 9197 9cb5 cc0c 4535 244d b3b2 37c3 eebd
00000300: c277 35b5 4276 94b5 bfe3 063e 1664 063a
00000310: 8301 28be ac1e 9b34 a7fc 8ab5 04cf 1635
00000320: 2169 9234 1377 f7b5 3359 7ab5 18fc 7eb5
00000330: 610a e6b5 342b e7bd c47f 843e 43dc 8fb4
00000340: 8e0f fb3d c53b 3234 9bac cdbc 556a 57b4
00000350: 4660 1534 2a0c cb3d 3378 5db4 664b bdbd
00000360: d508 2ab5 e766 8834 930d a8b4 44eb dabd
00000370: 9769 6035 14f4 59b4 0a43 0535 eaae 8d35
-1.4345401e-06 -4.6450984e-07 -1.3618717e-07 0.10246639 7.428812e-08 0.361187 0.18665689 -1.4922192e-06
0.15229334 -6.9206266e-07 -1.6843917e-07 0.36229628 8.747602e-07 -0.1515149 6.0614497e-07 -2.9453275e-07
0.078954406 4.406255e-07 -0.111492045 7.048172e-07 0.3024617 0.10293682 -4.1812586e-07 -8.108346e-07
4.7305932e-07 -4.6283258e-08 -2.9274903e-08 -6.958098e-07 7.228981e-08 2.4700248e-07 0.069045335 -1.7842742e-06
-1.12570916e-07 -0.07542469 -1.294527e-06 -0.005557705 -0.088060096 -1.7319017e-09 -1.0452723e-08 -0.1575077
1.7301256e-06 -0.121698335 9.155143e-07 -8.705429e-07 1.6598406e-07 4.908207e-07 0.06583163 -1.5121136e-08
-0.103482395 9.497353e-08 -9.4268906e-08 0.40369567 1.5716466e-07 -0.12387266 1.0746029e-07 -1.0992457e-07
-7.478288e-08 1.1889307e-06 2.1644833e-07 -0.12868047 -0.15301843 -9.2226315e-07 -4.3140471e-07 -9.726448e-07
-1.271146e-07 -0.048925392 3.4390335e-09 -4.7322362e-07 6.9258544e-07 -1.20769e-06 5.7796612e-08 -2.8559307e-07
-3.0011379e-06 -2.88093e-07 4.6258066e-07 -0.077765465 -0.088797264 7.078395e-07 -0.0397688 0.060110047
0.09309298 -6.855235e-07 1.312956e-06 -3.4867963e-07 -8.1396803e-07 -0.027764231 -2.6810087e-08 3.221353e-06
-7.7118125e-07 5.904418e-07 9.381275e-08 -0.14495572 6.708353e-07 -0.078332745 1.9894323e-07 -0.15445393
4.1269794e-07 -0.06137438 -0.010767751 -9.305491e-08 -6.7385986e-07 -9.004121e-08 0.20890912 0.04995104
8.986425e-08 8.616183e-09 -0.084504776 -2.4894579e-08 -0.12807482 -0.13810961 -3.043312e-07 2.1310811e-06
1.0976283e-06 0.23272943 1.2605051e-07 0.09794893 -4.562328e-08 -4.3060288e-07 -3.920118e-08 0.36632738
-2.8951186e-07 -0.13680612 0.47581685 7.9997363e-07 -2.4654967e-06 6.824046e-07 -4.8064817e-07 1.541669e-08
-0.061462805 2.816483e-07 0.32039058 -2.9647867e-07 -0.15976915 -0.13041337 -0.12982458 -0.025079034
-0.15373906 0.0006767156 0.1137979 2.5328402e-06 -4.3309683e-07 4.1174397e-07 -3.5085895e-07 -0.1464181
1.4719325e-07 -4.2194667e-08 1.3905318e-06 1.8284113e-07 -1.0108206e-06 -0.1106976 -0.0500956 -1.11447115e-07
-0.0044908538 -0.150076 -0.1490384 4.7345912e-07 -5.512047e-07 2.5046532e-07 2.117169e-09 5.5859233e-09
-0.12988855 -0.07463938 -0.115561694 2.4046775e-08 0.075538315 0.24863248 -0.117072016 0.32326633
0.054209102 -0.074226715 -0.09489224 0.022107609 0.28396875 3.953814e-07 -0.05170102 0.051525816
-2.3584448e-07 -4.854012e-07 0.019476766 0.08095818 -0.15708917 -0.11046442 -1.0608333e-06 0.0038178216
-5.396191e-07 2.2565341e-06 -0.05422088 3.4044838e-08 -1.1667017e-06 7.340684e-07 -2.0873422e-08 -0.11658328
-6.7602025e-07 -1.1061277e-06 0.13172816 0.00051266083 -0.16406827 2.8893317e-07 -1.0355333e-06 5.61806e-07
2.727111e-07 -1.8437589e-06 -9.326206e-07 -9.498922e-07 -1.7139356e-06 -0.11287537 0.25878727 -2.6796087e-07
0.12258826 1.6599286e-07 -0.025106719 -2.0062119e-07 1.391173e-07 0.099144295 -2.0625957e-07 -0.09242897
-6.334279e-07 2.5406845e-07 -3.1302315e-07 -0.106894046 8.3600156e-07 -2.0298495e-07 4.9643916e-07 1.0556225e-06

running_var f4 [224]
00000000: fabf 7333 a755 e331 45c6 b432 7f38 343b
00000010: aba3 b433 6310 aa3e 8874 8e3d 9497 8b33
00000020: 7d06 133d 16a5 a433 6604 8533 1518 143f
00000030: dbca 0034 9de1 873a 17bb 1033 557f 1031
00000040: 2971 093e 9755 7731 d5e9 303c 2035 3c32
00000050: 6d65 193f b83a a93c 566c a733 0fa9 2c32
00000060: cddb 0b32 7533 7f2e e4f0 c92e 7cbb 9832
00000070: 6b0b 1032 e6a2 4832 c422 a43c 6735 d233
00000080: f725 e530 2384 593b 34fc 2233 d54f 2d3d
00000090: beb1 d83c 8787 712e a203 cf30 c4d6 2f3a
000000a0: 5cb6 e533 31c0 183c 85ea ba33 df5f 9832
000000b0: d99a 8231 8024 6532 82cb 133d 3d90 0e2e
000000c0: 502e aa3b dcc9 9332 bce5 d430 8fad 1e3f
000000d0: 9bc3 c530 f3a9 c83b 9466 1031 2c20 6031
000000e0: 500a 682f 7bd4 4e33 cd76 7230 3ede c13a
000000f0: 8e0f 0d3a fbf8 c132 d8de 4332 33d4 2133
00000100: 29f0 eb2f 9805 783c 27a0 af2c 55f8 d631
00000110: 9371 d932 9f66 4033 b4d7 7a30 c9b8 5431
00000120: b67a c933 7269 2f31 4af4 b531 0dbf c93b
00000130: 9ace 7f3c ef6e 2333 7da7 423c 4cb4 573d
00000140: 6882 133e cc0b 0f33 18e3 2033 5674 0b33
00000150: c79a a032 0e06 a13c 6678 df32 7790 fc34
00000160: 2b1e ea32 6b54 1232 52ec 4f30 098b df3a
00000170: 2f33 8532 fed7 423c 7451 c930 606f 7f3a
00000180: 8abf e632 9667 2c3c cab4 733c bd3a 9a2f
00000190: b262 7d32 cef1 e62f dbee 893e 1c35 2e3c
000001a0: 7ae9 8a2f 0bd7 4b2e 0983 ed3b a321 2632
000001b0: de02 d33b 8458 013b 45ef 4233 465a 3d34
000001c0: 033f 4033 af31 f23b 568c 1731 4a41 463d
000001d0: 71f3 d22e f0ad 7b33 a139 ff2e b937 e63e
000001e0: e20e dd30 b123 c33a d4f5 d73e 4f18 a432
000001f0: c5f2 5934 802e 8e33 f350 6e32 32b7 3d30
00000200: 4d99 3a3c 32aa 2432 0599 fc3b 22aa 7a31
00000210: 7675 eb39 f3fd 4b3b fff4 9b3b 440f 6c3b
00000220: 0ba2 963a b9a0 d03c d641 873b aec5 ad34
00000230: 771f a631 cbf3 3f31 8262 0331 d3b6 ce3a
00000240: d595 0931 d5aa 9d31 fa4d 9534 55a4 4a30
00000250: cfd1 cb33 b3f6 0d3c 8b4a 8b3c 50ce 4132
00000260: 831a a83d 67c5 a63a 2e3f 313a 3df5 1035
00000270: d247 5d33 13ac b531 3ade 9a2f ef76 a42f
00000280: bdbd 1b3b c650 a53b 6aa3 1d3b 5023 372d
00000290: 5f07 2c3e 1ff4 e73b 2e2e a43a 0a7a ba3e
000002a0: 045a ef3d 281d 883c 63c8 943b e9ea 0a3d
000002b0: d109 403c c55b 3432 0e85 a33c 1ca3 563d
000002c0: be71 b730 2329 fc31 28fb 063d 5250 dc3d
000002d0: fc8f fa39 55c1 033c 3153 2533 de89 9d3b
000002e0: 42ff 7032 7839 0534 c04b 0c3c 4393 b830
000002f0: b3f3 8133 8e5c c832 77a1 c52e d4aa 7e3b
00000300: 96f1 7832 e241 8533 3c2a 2f3d d557 b63c
00000310: a05b 0739 b105 bb31 1948 c532 8245 e631
00000320: 2c20 3234 ae97 da33 207b 0134 d27d 5d32
00000330: 5c6b d533 5f82 393c 6c40 073c d39c 4633
00000340: 8235 e33c e5b9 a633 34e4 fb3b c3a9 1131
00000350: 5039 0c31 2917 5c3c e404 4232 85de 803c
00000360: facc 5832 eb71 a331 b5e5 8632 54fd c53b
00000370: 7b1b f532 8fbc 8932 82fa e031 5ec5 d833
5.6752448e-08 6.616307e-09 2.104492e-08 0.0027499495 8.411674e-08 0.33215627 0.0695582 6.500264e-08
0.03589486 7.666874e-08 6.194095e-08 0.57849246 1.1994727e-07 0.0010366921 3.369777e-08 2.1027138e-09
0.13422073 3.5991883e-09 0.010797937 1.09551195e-08 0.5992039 0.020657882 7.79625e-08 1.0050157e-08
8.140842e-09 5.802599e-11 9.1832125e-11 1.7780387e-08 8.384499e-09 1.1678571e-08 0.020036109 9.788601e-08
1.6672733e-09 0.0033190332 3.794794e-08 0.042312462 0.026451942 5.4917428e-11 1.5062265e-09 0.0006707723
1.06968145e-07 0.009323166 8.703959e-08 1.7738726e-08 3.801102e-09 1.33378535e-08 0.036082752 3.241517e-11
0.005193509 1.7204847e-08 1.5490325e-09 0.6198358 1.4389231e-09 0.006123775 2.1013067e-09 3.2614578e-09
2.1103941e-10 4.8156362e-08 8.8207913e-10 0.0014790965 0.0005381041 2.258138e-08 1.1401163e-08 3.7678728e-08
4.2916895e-10 0.015138052 4.9915796e-12 6.256452e-09 2.5313772e-08 4.4796817e-08 9.1256e-10 3.0955098e-09
9.382113e-08 2.552579e-09 5.2955658e-09 0.006156808 0.0156132225 3.805229e-08 0.011880753 0.05266218
0.14405215 3.330551e-08 3.7459444e-08 3.2469266e-08 1.8696836e-08 0.019656207 2.6015368e-08 4.704377e-07
2.7254904e-08 8.517513e-09 7.564199e-10 0.0017054986 1.5506513e-08 0.011892317 1.4647825e-09 0.0009744074
2.6862626e-08 0.010522744 0.014874646 2.8054173e-10 1.4748979e-08 4.200857e-10 0.26940045 0.010632779
2.526795e-10 4.6347853e-11 0.0072482866 9.67012e-09 0.006439551 0.0019736597 4.538676e-08 1.7634838e-07
4.4760792e-08 0.0073911767 2.2053164e-09 0.04840211 9.592938e-11 5.8598687e-08 1.16062944e-10 0.44964388
1.6084096e-09 0.0014887956 0.4217974 1.9103167e-08 2.0298019e-07 6.6208486e-08 1.3871829e-08 6.9018136e-10
0.011389089 9.584754e-09 0.007708671 3.6476497e-09 0.00044910208 0.0031126707 0.0047594304 0.0036019841
0.0011492384 0.025467264 0.0041277213 3.2367592e-07 4.834813e-09 2.7932738e-09 1.9119004e-09 0.0015771039
2.0021294e-09 4.5887227e-09 2.7810148e-07 7.37207e-10 9.491088e-08 0.008664775 0.017003318 1.1280989e-08
0.08208182 0.0012723625 0.00067614287 5.400105e-07 5.1520892e-08 5.287356e-09 2.8170338e-10 2.9915934e-10
0.0023764216 0.0050450293 0.0024053701 1.0410187e-11 0.16799687 0.007078662 0.001252597 0.36421233
0.11687091 0.016615465 0.0045404895 0.033915434 0.01172109 1.0498245e-08 0.019960906 0.052401647
1.334733e-09 7.338842e-09 0.032954365 0.107575074 0.00047790993 0.008041699 3.849272e-08 0.004807695
1.40278775e-08 1.2407497e-07 0.008562982 1.3429616e-09 6.051359e-08 2.3325153e-08 8.987205e-11 0.0038859146
1.449043e-08 6.205279e-08 0.042764887 0.022258678 0.00012908736 5.4430633e-09 2.2966605e-08 6.701783e-09
1.6589246e-07 1.01790064e-07 1.2058854e-07 1.2892501e-08 9.938114e-08 0.011322587 0.008255105 4.62431e-08
0.027735475 7.7637914e-08 0.007687116 2.1196775e-09 2.040526e-09 0.013433256 1.1293398e-08 0.015731106
1.2619461e-08 4.7568753e-09 1.5704112e-08 0.006042162 2.853425e-08 1.6034646e-08 6.5477375e-09 1.0094185e-07

weight f4 [192, 224]
00000000: a736 0438 3888 2c38 0e0d 0c37 e91c 43bd
00000010: 884b a7b7 e542 b4be 663d 613b 3a28 8338
00000020: d353 17bd 20c5 9438 43a1 ae37 a0ee 4abb
00000030: 27f9 c1b8 7232 583d 0cd6 ef38 c0bf 8fb9
00000040: 92c6 523d bc6c d2b9 c085 a0bd 4f85 8fb9
00000050: e2dc f13d 9d63 26bd b5e6 dfb8 2eb6 1db9
00000060: f428 a435 e0d1 f5b8 0473 4538 a079 8cb9
00000070: c355 5438 d577 1cba 18cf 5cbd 6e45 9737
00000080: b9b9 78b8 dcca 373d 607c 9038 d446 c4bd
00000090: 09b4 623d 7f7b 4db8 45f1 dfb8 5224 f93c
000000a0: c812 dd38 5c9e 823d a13c 55b9 424d 38b9
000000b0: ae56 f0b6 6697 7238 3b65 ab3c ce1f 3339
000000c0: 6f8e c73d 2923 adb7 b633 5437 0b90 b6bd
000000d0: 8697 c6b6 6ab1 4e3c 81d1 6a39 f718 afb7
000000e0: 5cd2 e737 851d 3fb8 581e 67b8 9208 cabd
000000f0: 2185 713d 4d77 7d36 d8d5 f5b7 4bf4 a039
00000100: e545 6fb8 b251 f3bc 742d d0b8 63d8 61b8
00000110: d0b4 fdb8 31a3 54b9 7631 9db8 0392 13b9
00000120: 57eb ea39 22da d6b6 3310 b938 03d6 9fbd
00000130: c9a4 e0bd 1fca 5fb7 1ad9 583d 2e9b fabc
00000140: 6ce1 3a3d 86d5 73b9 a4b3 5ab7 9169 1638
00000150: 4313 0937 fd6b e1bd 4065 22b8 30dd f6b9
00000160: a8bd ac37 09b5 4839 5e47 2638 a4c0 0b3c
00000170: f6ec 8d37 cc5d 5a3d 2af9 b7b9 f801 efbd
00000180: e613 f5b9 e977 b0bc 3117 f73c 41e6 f2b8
00000190: 3c20 ce37 9dac d6b8 5657 18be 2d39 9cbb
000001a0: b516 d637 8fcc 9537 8c38 0bbd 6cca 0438
000001b0: 295d 8f3d a3d3 0d3c 4883 e0b8 2984 1d39
000001c0: 3d90 71b9 3a76 18be 29ef a1b8 4a5b 73bd
000001d0: 06cb 8cb6 b63f 3638 d20d 54b8 9d54 083d
000001e0: c5e1 0f37 caa0 063d 9048 0a3e ae4c 8738
000001f0: ee3a 8b39 c9cc c1b9 0250 38b8 f629 b0b7
00000200: 1c6a 873d 8b75 af39 1936 58bd e855 a4b9
00000210: 201c 51be e522 0abe f371 b0bd 3d06 8abd
00000220: b47b 773d a806 cabc 876f 04bd 2d1f 0739
00000230: 5de5 2739 8b30 7e36 bc76 d334 6a3e 2b3d
00000240: 87ad 32b9 026d 50b7 244b 04b8 f530 01b8
00000250: b27e de38 c429 063a 374c 45bd 8ef6 5139
00000260: ad6a f83c 32de 9dbd 93fd e43c 9c0f 8fb9
00000270: 6461 abb6 1917 f3b8 6539 25b8 bf22 8cb8
00000280: 0d1b b6bd 46f5 16bd 1084 2ebe 4189 ee36
00000290: 5e5b 253d 8b4a e53c d549 29be 17f6 61be
000002a0: 6329 18be 26ce f3bd f0fe 023e 7499 2ebb
000002b0: 2477 7c3d a137 3e39 dcc4 c6bd 804c 5cba
000002c0: 1578 25b9 8989 9e35 0fdf 8d3d 5f84 19bd
000002d0: 2f53 c8bd 81aa 773d 5d43 2f39 89f6 89bc
000002e0: 72a7 8eb8 78e5 8238 3a53 c63d ac3e 8eb9
000002f0: 13ee 11b6 3136 40b7 89ba d9b8 b0e8 d1be
00000300: e1d8 6738 8c64 ad38 7c26 993d 3638 7d3c
00000310: 06ca c6bd 2cf1 82b8 4236 8db8 ada9 5a39
00000320: 7e98 58b9 0807 ceb8 302a 1137 3b75 21b9
00000330: d7c2 9ab8 b662 b4bd 2b46 18bd 788d 29b9
00000340: 4c69 7dbd 85ad 90b9 f93b d4bc f216 b237
00000350: 225c 9fb8 fad8 613b c0c6 beb7 08ff 17be
00000360: 530b d838 22d7 48b7 f92e ba38 7f27 5dbe
00000370: 6466 93b8 4fa2 8b38 71ac 1639 a1be 27b9
00000380: e92f b1b9 b680 8a39 6d67 6a39 3178 8a3d
00000390: 26f3 38ba b8d9 173c 6cc2 963d 0f29 b4b9
000003a0: 6a34 983c 0328 beb7 dd00 c0b9 fc61 1abc
000003b0: 6b3a 0f3a e79e 6abe 2879 47b8 aef4 8139
000003c0: 94aa 3a3d 915b 8439 affb 013e 595c ae39
000003d0: eaad 49bd 461c 45be 1be1 5839 2721 52b8
000003e0: 3589 c7b9 dd15 1e39 b7c1 2439 0092 b639
000003f0: cc5a cbb9 59ee 9039 390b c73c f839 97b9
3.152215e-05 4.113486e-05 8.34769e-06 -0.047634993 -1.9943123e-05 -0.35207286 0.0034368872 6.2540596e-05
-0.036945175 7.093907e-05 2.081751e-05 -0.0030964985 -9.2493654e-05 0.052782483 0.000114362774 -0.0002741795
0.051458903 -0.00040135335 -0.07838011 -0.00027374408 0.11809708 -0.040622342 -0.00010676441 -0.00015040554
1.2230871e-06 -0.00011721603 4.7075577e-05 -0.000267935 5.062461e-05 -0.0005968784 -0.053908437 1.8032933e-05
-5.9300775e-05 0.044871196 6.889622e-05 -0.09583822 0.055347476 -4.8990823e-05 -0.000106784086 0.030412827
0.000105415995 0.06377861 -0.00020335849 -0.00017576388 -7.162648e-06 5.7838297e-05 0.020922294 0.00017082618
0.09743964 -2.063958e-05 1.2648225e-05 -0.08914193 -5.9184995e-06 0.012615541 0.00022394025 -2.087325e-05
2.7635302e-05 -4.556544e-05 -5.510295e-05 -0.09864916 0.058964852 3.776938e-06 -2.9305855e-05 0.0003069959
-5.7047135e-05 -0.029702041 -9.926679e-05 -5.3845706e-05 -0.00012097659 -0.00020278689 -7.495556e-05 -0.00014073406
0.000448073 -6.403091e-06 8.824505e-05 -0.07804491 -0.1096893 -1.3338896e-05 0.05294142 -0.030591574
0.045625135 -0.0002325383 -1.3035638e-05 3.5861103e-05 8.170321e-06 -0.11006925 -3.8718106e-05 -0.00047085574
2.0592313e-05 0.00019140927 3.964395e-05 0.008529816 1.6918853e-05 0.053312108 -0.00035090122 -0.116702974
-0.00046744867 -0.021541553 0.030162426 -0.00011582347 2.4572124e-05 -0.00010236467 -0.14877066 -0.004767558
2.5521362e-05 1.785744e-05 -0.033989474 3.1659773e-05 0.07000191 0.008656415 -0.000107056054 0.0001502192
-0.00023037284 -0.1488885 -7.721625e-05 -0.059413232 -4.19596e-06 4.3451517e-05 -5.055761e-05 0.03328382
8.57603e-06 0.032868184 0.13504243 6.451584e-05 0.00026556052 -0.00036964405 -4.394353e-05 -2.1000375e-05
0.06612036 0.00033466177 -0.052785967 -0.00031344523 -0.20420885 -0.13489874 -0.08615484 -0.06739471
0.060420707 -0.024661377 -0.032332923 0.00012886217 0.00016011806 3.7877205e-06 3.9388203e-07 0.04180757
-0.00017040047 -1.24231465e-05 -3.1541233e-05 -3.080159e-05 0.00010609384 0.0005117918 -0.048168387 0.00020023642
0.030324304 -0.07708396 0.027952945 -0.00027286715 -5.107535e-06 -0.00011591445 -3.939252e-05 -6.682192e-05
-0.08891878 -0.036855005 -0.17042565 7.108931e-06 0.040370338 0.027989646 -0.16532071 -0.22066532
-0.14859538 -0.11904554 0.12792563 -0.0026641758 0.06163706 0.00018140535 -0.09705517 -0.00084037334
-0.0001578036 1.1811945e-06 0.06927311 -0.037479755 -0.09781491 0.06046534 0.00016714395 -0.01684119
-6.802277e-05 6.241625e-05 0.09683843 -0.00027131045 -2.1745261e-06 -1.1456709e-05 -0.00010382111 -0.4099784
5.5276676e-05 8.268011e-05 0.074780434 0.015455296 -0.09706502 -6.243805e-05 -6.73351e-05 0.00020853309
-0.00020656173 -9.824155e-05 8.652496e-06 -0.00015397828 -7.379584e-05 -0.0880789 -0.037176292 -0.00016169797
-0.061867997 -0.00027595102 -0.025907503 2.1229938e-05 -7.598872e-05 0.0034461603 -2.2742315e-05 -0.1484338
0.00010301792 -1.19710185e-05 8.8779205e-05 -0.21597098 -7.028578e-05 6.658269e-05 0.00014369354 -0.00015997376
-0.00033795767 0.00026417308 0.00022354508 0.06761206 -0.0007055275 0.009268217 0.07361302 -0.00034362866
0.01857968 -2.2668397e-05 -0.00036621737 -0.009422775 0.0005463722 -0.22912179 -4.7558133e-05 0.00024787098
0.045572832 0.00025245224 0.12693666 0.0003325667 -0.049238123 -0.19249067 0.00020683224 -5.0098777e-05
-0.00038058465 0.00015076199 0.00015712423 0.00034822524 -0.00038786826 0.00027643403 0.024297344 -0.00028844154

weight f4 [192]
00000000: 5ef4 ab3e 82eb 723f 4269 323f 5909 da3e
00000010: 2bee 993e 9a29 0c3f a186 c43e f235 343f
00000020: 6b65 b43e 8a81 c53e 0a04 c23e 69ca 563f
00000030: 819f 983e 912a c13e 6431 c23e ac3a d23e
00000040: 2b8b b93e 6163 e23e e8b8 d33e 13f2 323f
00000050: 288b 013f 6ad7 a63e 3532 313f c736 e73e
00000060: 01d1 0b3f a566 6e3f c39b ad3e 3215 b93e
00000070: 5246 bb3e 1d52 383f b710 873e b96e bc3e
00000080: bb29 dc3e c3ae 2b3f 907e d23e b8b8 f43e
00000090: 921c 0eb9 d3cf 843e 81c5 023f b34a cb3e
000000a0: deb9 e33e 3959 8d3e 8c88 133f 970c ac3e
000000b0: fe97 963f 3550 c33e 9abd ab3e a05e b23e
000000c0: 05a4 a73e 8815 c03e 8369 e038 1e99 c83e
000000d0: 5f48 a43e 8514 da3e f3d4 d83e 02e0 2db9
000000e0: 52a5 093f b619 0b3f 8b71 9e3e 1d6a b63e
000000f0: 802b d63e 4646 033f 96c7 a83e 8098 2e3f
00000100: 3181 af3e 8128 873e e4a4 a33e cc0a 543f
00000110: aeb3 1a3f 2184 093f 2402 1d3f b9cc d43e
00000120: f24b c23e 05be 6b3e 1634 c83e 138b a83e
00000130: ef4f 563e ad75 a03e 504d ce3e e17f bf3e
00000140: 5c9d 083f 2a5d d33e a303 c43e afb5 a13e
00000150: 284b 923e 1c05 b23e 6a5b e73e b636 a53e
00000160: 832d 0e3f 95f3 033f 4da7 ab3e bd93 a73e
00000170: 4f37 e83e 5800 c73e 9631 a23f 77c9 8f3e
00000180: 5c90 753f 4e23 fc3e 49dd 9f3e e735 ac3e
00000190: 3b32 ee3e 6db8 9b3e e532 e93e 4933 f13e
000001a0: 1685 a23e 1ba4 523e ba82 903e a2cb a73e
000001b0: 6584 ed3e 8bbe 5e3e ac16 5f3e 3438 8e3e
000001c0: 2783 d43e 8dd9 223f 6758 e0b7 ae5d f13e
000001d0: fd7d c83e d06c 123f dbec e23e 9d8e b73e
000001e0: 8e3d 1b3f e674 8a3e 9d02 9c3e c9cc a23e
000001f0: 299f 253f e36f 9d3e 6828 aa3e a94b ca3e
00000200: 53ae d43e ba13 273f 7712 0a3f 6712 9d3e
00000210: 6ae6 bd3e 183a 1e3f 18f6 bb3e cacf c53e
00000220: 5f37 e13e efec b33e 246b fd3e 4e1c d93e
00000230: 26e6 a33e cfa6 b43e a8cf 343f a611 c73e
00000240: 450c d23e 3fd9 ad3e 7f8a e03e d99a c5b8
00000250: c5e5 543f a0d3 c93e 9511 163f 1dab fc3e
00000260: 8db7 ca3e 3ac9 de3e 6e1e 9a3e 3e7c dfb7
00000270: cb5e 483f 09ec ec3e 03ab c53e 5dd5 bfb7
00000280: 5141 d93e 81c7 ca3e 6ec6 0d3f ebf3 ce3e
00000290: 0444 e638 d13d 423f 6334 a33e b934 773e
000002a0: 0118 cb3e e13a 933e c763 0d3f da59 cf3e
000002b0: bcc1 d93e 5e07 c83e bcf5 e93e c16d 80b9
000002c0: b828 9d3e 68fd c73e 5e34 c13e c3bf 553f
000002d0: 299f ca3e 25ef ab3e 4c80 6b3e beb8 a13e
000002e0: 2853 9a3e 9658 fc3e c6e3 ae3e 8351 153f
000002f0: 1129 133f 32ee da3e d0dd c73e 1d06 4eb9
0.33584875 0.94890606 0.6969186 0.42585257 0.3006452 0.5475098 0.38383964 0.70394814
0.35233626 0.38575393 0.37893707 0.83902603 0.29809192 0.37727788 0.37928307 0.41060388
0.3623899 0.44216445 0.4135201 0.69900626 0.5060296 0.32586223 0.69217235 0.4515898
0.5461579 0.93125373 0.339079 0.36148983 0.36577088 0.72000295 0.2637994 0.36803225
0.43000588 0.6706354 0.41112185 0.4779718 -0.00013552819 0.25939807 0.5108262 0.39705428
0.44477743 0.27607134 0.5763023 0.33603355 1.1765134 0.3814713 0.33543092 0.34837818
0.32742324 0.37516427 0.000107008054 0.3917932 0.32086465 0.4259378 0.42349967 -0.00016582015
0.53767884 0.54336107 0.30946 0.35627833 0.41830063 0.51279104 0.32964772 0.68201447
0.34278253 0.2639809 0.3196174 0.82828975 0.6043042 0.5371724 0.6133139 0.4156244
0.37948567 0.23021705 0.39102238 0.32918605 0.2092893 0.3133978 0.4029336 0.3740225
0.5336511 0.41282016 0.38284025 0.31583926 0.28572965 0.34769523 0.4518693 0.32268304
0.55538195 0.5154355 0.33526078 0.32729903 0.45354697 0.3886745 1.2671382 0.28083393
0.959234 0.49245685 0.31223515 0.33634874 0.46522698 0.30414143 0.45546642 0.4710944
0.31742162 0.20570414 0.28224736 0.32772547 0.46390072 0.21752374 0.21785992 0.27777255
0.4150631 0.63613206 -2.6744046e-05 0.47141784 0.3915862 0.57197285 0.4432133 0.35850993
0.606408 0.2704231 0.30470744 0.31796864 0.64695984 0.30749425 0.33233953 0.3951085
0.4153925 0.65264475 0.53934425 0.30678102 0.37089854 0.61807394 0.36711192 0.38635093
0.43987557 0.35141703 0.49495804 0.42404407 0.32011527 0.35283515 0.7062936 0.38880652
0.41024986 0.33954808 0.43855664 -9.422535e-05 0.831631 0.3941927 0.5862058 0.493493
0.39593163 0.435129 0.3010134 -2.6641526e-05 0.7826964 0.4627383 0.38607034 -2.286833e-05
0.42432645 0.39605334 0.55380905 0.4042047 0.000109799235 0.75875574 0.31875905 0.24141206
0.3966675 0.2875586 0.55230373 0.4049824 0.4253062 0.3906812 0.45695293 -0.00024495836
0.30695128 0.3906052 0.37735265 0.8349573 0.39574555 0.3358089 0.2299816 0.3158626
0.30141568 0.49286336 0.34158152 0.583275 0.5748454 0.42759854 0.39036417 -0.00019647968
